acrobot_ddqn_25-12-3k-64N.pth (torch, 22509 bytes, 6 tensors)

fc1.weight f4 [64, 6]
0	0xbf0bf911	-0.5467692
1	0xbf00625d	-0.5015009
2	0x3fd688b0	1.6760464
3	0x3f42793d	0.75966245
4	0xbe028368	-0.1274544
5	0xbd8ae438	-0.067818105
6	0xbf00c299	-0.5029693
7	0xbff5e616	-1.9210842
8	0xbebfcd6c	-0.37461412
9	0xbf6521fc	-0.8950498
10	0xbebd8032	-0.37011868
11	0xbf11024e	-0.5664414
12	0xbf68a036	-0.9086946
13	0x3f2eb3be	0.68243015
14	0xbf1cf34d	-0.6130875
15	0xbecc65b1	-0.39921334
16	0xbdf6a9a7	-0.12044077
17	0x3f08236b	0.53179044
18	0x3e7c00ec	0.24609727
19	0xbfae6a44	-1.362618
20	0xbe57671e	-0.2103543
21	0x3e0f064b	0.13967244
22	0x3dff5a61	0.1246841
23	0x3ea97337	0.33095714
24	0x3fa06f1a	1.2533906
25	0x3f4586b5	0.7715867
26	0x3f027915	0.50966007
27	0xbef46283	-0.47731408
28	0xbec88898	-0.39166713
29	0xbe23eba7	-0.16007863
30	0x3ed9d019	0.42541578
31	0xc0019ddc	-2.02526
32	0xbf6de370	-0.9292517
33	0x3fd88e9c	1.6918521
34	0xbeeb9c66	-0.4601776
35	0xbf3b5fcf	-0.7319307
36	0xbf37e2df	-0.7183055
37	0xbf430438	-0.7617831
38	0x3f62bceb	0.88569516
39	0xbf2601c7	-0.6484646
40	0x3f56715f	0.8376674
41	0x3f00e01c	0.50341964
42	0xbf85d4ce	-1.0455568
43	0x3f4bc3a6	0.7959541
44	0x3f84d5d7	1.0377759
45	0xbfb5b64f	-1.4196261
46	0xbe9768fb	-0.2957228
47	0x3ebd363e	0.36955446
48	0x3f7b7295	0.98221713
49	0x3e2c4c90	0.16826081
50	0xbe0dd7e5	-0.13851888
51	0xbca96306	-0.0206771
52	0xbf3fc89c	-0.7491548
53	0xbe666d43	-0.22502618
54	0xbe28767b	-0.16451447
55	0x3e86d5ca	0.26334983
56	0x3ede9c41	0.43478587
57	0xbe6b3c02	-0.2297211
58	0xbe9683f9	-0.29397562
59	0x3effed71	0.4998584
60	0x3f3e6f3f	0.743885
61	0xbf4e3aa2	-0.80558217
62	0xbf091013	-0.5354015
63	0x3ee14fd3	0.44006214
64	0xbe5e3d36	-0.21703038
65	0xbe65e4c6	-0.22450551
66	0x3f75d45a	0.9602715
67	0xbe7ec539	-0.24879922
68	0xbf1a736f	-0.6033239
69	0xbeb0cfc4	-0.34533513
70	0x3f4897ef	0.7835683
71	0x3ee39f58	0.44457507
72	0xbfae3440	-1.3609695
73	0xbf064c04	-0.5245974
74	0xbec228fc	-0.37921894
75	0xbfba8b25	-1.4573714
76	0x3ef40e9b	0.47667393
77	0x3e592811	0.2120669
78	0x3fa52cb4	1.2904267
79	0xbee2fb8a	-0.44332534
80	0x3ebcecb1	0.3689933
81	0x3f854a04	1.0413213
82	0x3f0956c4	0.5364802
83	0x3ef5a369	0.47976235
84	0xbf4c44e5	-0.79792625
85	0xbf7e7cca	-0.99409163
86	0x3eb6e252	0.35719544
87	0x3f20ae27	0.62765735
88	0xbf260b93	-0.6486141
89	0x3d899b47	0.0671907
90	0x3f49e75f	0.7886867
91	0xbefc322c	-0.49257028
92	0x3f0372fc	0.5134733
93	0xbde70aca	-0.11281355
94	0xbeb4249e	-0.35184187
95	0xbea049ef	-0.31306407
96	0x3f6ee601	0.9331971
97	0x3e297816	0.16549715
98	0xbd949c14	-0.07256332
99	0xbd0aa103	-0.03384496
100	0xbedf7066	-0.4364044
101	0xbdcafe57	-0.09911793
102	0x3f1e7887	0.6190266
103	0xbf936b03	-1.1517032
104	0xbefcdc6a	-0.49386913
105	0xbef742be	-0.48293108
106	0x3e223d14	0.15843612
107	0xbd49f158	-0.04930243
108	0xbf2fc1f1	-0.68655306
109	0xbf1433c0	-0.57891464
110	0xbf54f032	-0.8317901
111	0xbe23a4a6	-0.15980777
112	0x3ed91f6b	0.42406783
113	0xbeeab658	-0.45842242
114	0x3e324d0d	0.17412205
115	0x3fbf51b0	1.4946804
116	0x3de531f4	0.111911684
117	0x3fa0a50f	1.2550372
118	0xbf3fc6fe	-0.74913013
119	0xbf08ce0b	-0.53439397
120	0xbd812c82	-0.06307317
121	0x3db7501e	0.08950828
122	0x3f1f4958	0.6222129
123	0x3eb0dc31	0.34542993
124	0xbf53c25b	-0.8271844
125	0xbeb21157	-0.34778854
126	0x3f6ac54f	0.9170732
127	0xbd9bd2a3	-0.07608535
128	0x3e9dbdc4	0.30808842
129	0xbe2dc1ee	-0.1696851
130	0xbeaa83d3	-0.333037
131	0xbd725d49	-0.059170995
132	0xbf847c1a	-1.0350373
133	0xbfe5d740	-1.7956314
134	0xbf13ad42	-0.57686245
135	0x3fb3f54a	1.4059231
136	0xbd11a9c9	-0.03556231
137	0xbf27c630	-0.65536785
138	0xbf9457a4	-1.1589246
139	0x3f00c369	0.5029817
140	0xbf5a5f5f	-0.85301775
141	0xbf47a17c	-0.7798078
142	0x3d8f2c24	0.06990841
143	0x3f1aec19	0.60516506
144	0x3efaa441	0.4895344
145	0xbf7def53	-0.99193305
146	0xbe85e4c9	-0.26151112
147	0x3fbb549d	1.4635197
148	0xbdc31981	-0.09526349
149	0xbeb39827	-0.3507702
150	0x3edc7f78	0.43066
151	0x3f99769a	1.1989319
152	0xbf71e226	-0.944857
153	0xbfe6f132	-1.8042357
154	0x3eafb40d	0.34317055
155	0x3f152326	0.5825676
156	0xbf34dfd6	-0.70654047
157	0x3e56b39a	0.2096695
158	0x3eca8b83	0.39559564
159	0x3e7cf246	0.24701795
160	0xbf6f6c87	-0.93524975
161	0xbef95faa	-0.48705798
162	0x3f3a301f	0.72729677
163	0x3fb1cfd2	1.3891547
164	0x3f742f6a	0.9538485
165	0xbf6069b7	-0.8766131
166	0x3d935ac8	0.071950495
167	0x3dbc3442	0.09189655
168	0xbf01a28b	-0.50638646
169	0x3f738a4c	0.951329
170	0xbf3d03cc	-0.7383392
171	0x3edb0b60	0.42782116
172	0x3f14d7c3	0.58141726
173	0x3f142677	0.5787119
174	0xbf53a48a	-0.8267294
175	0x3faedd10	1.3661213
176	0xbf84e7f5	-1.0383288
177	0xbf330cc7	-0.6994137
178	0x3eb20ed8	0.3477695
179	0x3f16a011	0.5883799
180	0x3f8e6feb	1.1127905
181	0x3e9c9b7c	0.30587375
182	0xbe9413bb	-0.28921303
183	0xbf13c769	-0.5772615
184	0x3deaf641	0.114727505
185	0x3e6362c5	0.22205646
186	0xbf828fa0	-1.0200081
187	0x3fa370d9	1.2768813
188	0xbf17f523	-0.59358424
189	0xbfbe501e	-1.48682
190	0xbd1275d5	-0.035756905
191	0x3f0602f5	0.5234826
192	0x3f225402	0.63409436
193	0x3f8998a0	1.0749702
194	0x3f169bf9	0.58831745
195	0x3db90853	0.09034791
196	0x3c68be53	0.014205533
197	0x3e22a62e	0.15883705
198	0xbfa76f42	-1.3080828
199	0xbe2fbcac	-0.17161816
200	0xbf927b94	-1.1443963
201	0x3ef5b863	0.47992238
202	0x3c81b122	0.015831534
203	0xbea95f5b	-0.33080563
204	0x3f9ed695	1.2409235
205	0xbd73fe31	-0.059568588
206	0x3caed76d	0.021342957
207	0x3e2a5246	0.16632947
208	0x3dc725c5	0.09724001
209	0x3e86acce	0.26303715
210	0xbeecf536	-0.4628083
211	0x3f8a1dad	1.0790306
212	0xbf7d845e	-0.990301
213	0x3ccfab99	0.025350379
214	0xbefb1eb4	-0.49046862
215	0xbcc5df14	-0.024154224
216	0xc027a871	-2.6196558
217	0xbd2c75a3	-0.042104375
218	0xbd4bd583	-0.049764168
219	0x3f3d17a3	0.7386419
220	0x3f8265eb	1.0187353
221	0x3d1bbd42	0.038022287
222	0x3f8a92d1	1.0826055
223	0xbf59cc9f	-0.8507785
224	0x3eb45fa1	0.3522921
225	0x3fb335b2	1.4000762
226	0xbd2d8396	-0.04236182
227	0xbe14e66f	-0.14541028
228	0xbec5392e	-0.38520187
229	0x3ed4c602	0.41557318
230	0xbe2929a3	-0.1651979
231	0x3ef2f014	0.4744879
232	0x3d602b11	0.05472857
233	0x3e813663	0.25236806
234	0x3f7cb38f	0.98711485
235	0x3bba3fbc	0.0056838673
236	0xbe488a2b	-0.19583957
237	0xbee51b96	-0.4474761
238	0xbdccc2e2	-0.099981084
239	0xbd9d3764	-0.076765805
240	0xbec30303	-0.38088235
241	0xbfab047c	-1.3360744
242	0xbed2a5d7	-0.4114215
243	0xbebc4e28	-0.36778378
244	0x3f1b8f90	0.60765934
245	0x3e331980	0.17490196
246	0xbf1e4ace	-0.6183289
247	0xbfb16423	-1.3858684
248	0xbfa30809	-1.2736827
249	0x3f758357	0.95903534
250	0xbe1f54e2	-0.15559724
251	0xbee80bc9	-0.4532149
252	0x3f23d40c	0.6399543
253	0xbeed01a6	-0.4629032
254	0xbeaedf02	-0.34154516
255	0x3f022cf9	0.5084987

fc1.bias f4 [64]
0	0x3f38445c	0.7197931
1	0xbf479583	-0.7796251
2	0xc013d961	-2.3101428
3	0x3ef2517a	0.47327787
4	0xbc3626c0	-0.011117637
5	0x3dacd201	0.084384926
6	0xbfa6cd9a	-1.3031495
7	0xbdde4362	-0.10852696
8	0xbe0b1ea7	-0.13585912
9	0xbf3b3e4e	-0.73141944
10	0x3f0b61e8	0.5444627
11	0xbfb683f2	-1.4259017
12	0xbf5ad0fd	-0.8547514
13	0xbf33d9b8	-0.7025409
14	0x3f1195bd	0.5686911
15	0x3f1b69c3	0.60708255
16	0x3f230d0d	0.6369179
17	0x3ee16a7d	0.44026557
18	0xc009dce0	-2.1541061
19	0xbe2f2dca	-0.17107311
20	0xbfb3c8a5	-1.4045607
21	0x3f39a935	0.72523814
22	0xbf4de6a6	-0.80430067
23	0xbfa60be5	-1.297238
24	0x3dd91356	0.10599391
25	0xbf75e181	-0.96047217
26	0x3c9ee5c3	0.019396668
27	0xbe18068d	-0.14846249
28	0xbf699de1	-0.9125653
29	0xbf36495a	-0.71205676
30	0x3f0982d2	0.5371524
31	0xbf17539c	-0.5911195
32	0x3ec8a485	0.39188018
33	0x3d439b88	0.047755748
34	0x3f10a17a	0.56496394
35	0x3f1397c5	0.57653457
36	0xbfde6e34	-1.7377381
37	0xbee25f95	-0.44213548
38	0x3ec8d089	0.392216
39	0x3ef4ce4a	0.47813636
40	0xbf27363f	-0.6531715
41	0xbe832084	-0.25610745
42	0x3ed6406d	0.41846028
43	0xbf6a68be	-0.91566074
44	0x3e8796fa	0.26482373
45	0xbe612120	-0.21985292
46	0xbf83b28a	-1.0288861
47	0x3d85afdf	0.065276854
48	0xbfb95ed9	-1.448207
49	0xbeec02fe	-0.46096033
50	0x3e992eb2	0.29918438
51	0x3e87f259	0.26552084
52	0x3d86e4cd	0.06586609
53	0x3f0010b6	0.500255
54	0x3d0f8a41	0.03504396
55	0x3d872ebf	0.06600713
56	0x3e57919a	0.21051636
57	0xbe523002	-0.20526126
58	0xbf18569d	-0.5950716
59	0xbfa340d8	-1.2754164
60	0x3f909489	1.1295329
61	0x3f0a5631	0.5403777
62	0xbe574748	-0.21023285
63	0xbf2334d4	-0.63752484

fc2.weight f4 [64, 64]
0	0xbc18e0d0	-0.009330943
1	0xbc68d525	-0.014210974
2	0x3d303f56	0.04302915
3	0x3d36d97d	0.044641007
4	0x3ce56439	0.028001891
5	0x3c2d0fe3	0.01056287
6	0xbc8cb8c8	-0.017177954
7	0x3939a2f8	0.00017703685
8	0xbe0ca284	-0.1373387
9	0x39b44cb5	0.00034389427
10	0x3d222ed2	0.039595433
11	0x3d960aa9	0.07326252
12	0x3d914d23	0.07094791
13	0xbdf50b3b	-0.11965033
14	0xbdb32b32	-0.08748473
15	0xbd2f3c96	-0.04278239
16	0xbe2092f7	-0.15681063
17	0xbe3ffb92	-0.1874831
18	0xbd8ba48c	-0.06818494
19	0x3bbfa60a	0.005848651
20	0xbe19dfc1	-0.15026762
21	0xbd770a32	-0.060312457
22	0xbe34d63b	-0.17659847
23	0xbd8abff2	-0.06774892
24	0xbe33f9a0	-0.17575693
25	0xbe16c2c5	-0.14722736
26	0x3cd81e89	0.026381748
27	0xbda062ed	-0.078313686
28	0x3d457b06	0.048213027
29	0x3cb7b8dc	0.022427015
30	0xbe064ea5	-0.13115938
31	0xbe03ead9	-0.12882556
32	0xbd630da1	-0.05543292
33	0xbc93469d	-0.017978007
34	0xbda7fe53	-0.08202805
35	0xbe23a498	-0.15980756
36	0x3cad1bad	0.02113136
37	0xbe0a1c1a	-0.13487282
38	0xbd299d39	-0.041409705
39	0xbd65c2fa	-0.056094147
40	0x3c74f204	0.014950279
41	0xbe0fcf92	-0.14044026
42	0xbdc38427	-0.095466904
43	0x3d4c8337	0.049929824
44	0xbdf0dfb2	-0.117614165
45	0x3c3e3061	0.011608214
46	0xbdb29ef3	-0.087217234
47	0xbdc187f1	-0.09449757
48	0x3be52d93	0.0069939583
49	0x3dcb5493	0.099282406
50	0x3c28396c	0.010267597
51	0xbe112ea4	-0.14177948
52	0xbe00c229	-0.12574066
53	0x3acc3a9e	0.0015581434
54	0xbdd3ffc0	-0.10351515
55	0xbdce8e52	-0.10085739
56	0xbdece352	-0.115667954
57	0xbb59300a	-0.0033140206
58	0xbdc60b69	-0.09670145
59	0xbbe552ab	-0.00699838
60	0x3a57e05d	0.0008235032
61	0xbdc5708f	-0.096406095
62	0x3a5338b1	0.0008057459
63	0xbd7e842c	-0.062137768
64	0xbe7851f9	-0.2425002
65	0xbf4ceef5	-0.8005212
66	0xbe539bef	-0.20664953
67	0xbf1221a6	-0.57082593
68	0x3f725361	0.94658476
69	0xbc46478d	-0.01210202
70	0x3e142138	0.14465797
71	0xbe9659fd	-0.2936553
72	0x3e8dbb5c	0.27682006
73	0x3f1405ca	0.57821333
74	0x3faabd30	1.3338985
75	0x3f2e5a5d	0.68106633
76	0x3f784fe1	0.96996886
77	0x3e07f818	0.13278234
78	0x3f111841	0.56677634
79	0xc0473550	-3.112629
80	0xbd82cdc9	-0.06386907
81	0x3e3b13a3	0.1826921
82	0x3eec8815	0.46197572
83	0x3ef2a1d1	0.4738908
84	0xc0a3b8ab	-5.1162925
85	0xbe0a9140	-0.13531971
86	0xc0d1660c	-6.543707
87	0x3f8802f8	1.0625906
88	0xbe59df11	-0.212765
89	0xbd404f5b	-0.04695068
90	0xbf0e2781	-0.5552903
91	0xbf152dc7	-0.58272976
92	0x3eca0fac	0.39465082
93	0x3e48138f	0.19538711
94	0x3cacf1bc	0.021111362
95	0xbf3a56d1	-0.7278872
96	0x3e391670	0.18074965
97	0x3f27cce4	0.65547013
98	0x3cc734b3	0.024317121
99	0xbd477b8c	-0.048701808
100	0xbf5e1a0b	-0.8675849
101	0xc04ff581	-3.2493594
102	0xbe39bdfa	-0.18138877
103	0x3ea3dcc5	0.3200437
104	0x3f71ad7f	0.9440536
105	0xbf1a3131	-0.6023131
106	0x3c0b12cd	0.008488369
107	0x3e80d014	0.2515875
108	0x3ee77408	0.45205712
109	0xbcf692a4	-0.03009922
110	0x3efa86b3	0.48930892
111	0xbf841648	-1.03193
112	0xbe97c298	-0.2964065
113	0xbf3cf926	-0.7381767
114	0x3eb19bc7	0.3468916
115	0xbd0d68ef	-0.0345239
116	0x3d5dd7f4	0.054161027
117	0x3f883f18	1.0644255
118	0xbf3146cb	-0.69248646
119	0xbf2de4e6	-0.67927396
120	0xbf354028	-0.7080102
121	0xbea75524	-0.32682145
122	0xbda1b3ab	-0.07895597
123	0xbd961e75	-0.07330028
124	0xbcf4d0c6	-0.029884707
125	0x3f3210fb	0.6955716
126	0xbea8f99d	-0.3300294
127	0x3d2a90a6	0.041641854
128	0x3f46e3ee	0.77691543
129	0xbe120750	-0.14260602
130	0xbe2473f2	-0.16059855
131	0x3ec1aebe	0.3782863
132	0xbe073d0a	-0.13206878
133	0x3f28070f	0.6563577
134	0x3f50a68e	0.8150414
135	0xbe2d0a80	-0.16898537
136	0xbf886ab7	-1.0657567
137	0xbec2591c	-0.3795861
138	0x3df44310	0.11926854
139	0xbde1360a	-0.10996635
140	0xbf4d3b1d	-0.80168325
141	0xbed420f0	-0.4143138
142	0xbf71718d	-0.9431389
143	0x3e1d40c4	0.15356737
144	0xbdb432e3	-0.08798768
145	0x3e85da71	0.2614322
146	0xbf422085	-0.7583087
147	0xbcc2a016	-0.023757976
148	0x3e2cef0f	0.16888069
149	0x3df3234d	0.118719675
150	0x3c2182c5	0.009857838
151	0x3e6d6a43	0.23185067
152	0x3d829ad9	0.06377191
153	0xbfcbefae	-1.593252
154	0xbd784b5f	-0.060618754
155	0x3f44ad88	0.7682729
156	0xc04572f3	-3.085141
157	0xc01ed7f6	-2.4819312
158	0xbe31aa33	-0.17350082
159	0x3f8dff10	1.1093464
160	0xbba00057	-0.004882853
161	0xbf92fef4	-1.1484056
162	0x3ec3e7bf	0.38262746
163	0xbfebc8dd	-1.8420674
164	0xbfbce7d3	-1.4758247
165	0x3e5084bb	0.20363133
166	0xbe25fc8f	-0.16209625
167	0xbe25d35a	-0.16193905
168	0x3f66805e	0.9003962
169	0x3ed26121	0.41089728
170	0x3f2efcca	0.68354475
171	0xc0de2aaa	-6.942708
172	0xbe86424c	-0.26222456
173	0xbe8f9c31	-0.28048852
174	0x3da6af21	0.08138872
175	0xbf1ef892	-0.6209804
176	0xbc3a1570	-0.01135765
177	0xbe29d851	-0.16586424
178	0x3f38f38d	0.7224663
179	0x3e03b1ab	0.12860744
180	0xbe901a85	-0.28145233
181	0x3eca7d42	0.3954869
182	0xbf29ad99	-0.66280514
183	0xbdadec40	-0.08492327
184	0x3fa5408e	1.2910326
185	0xbeea0dbf	-0.45713612
186	0xbf513935	-0.81727916
187	0xbf590d99	-0.84786373
188	0xbfb27028	-1.3940477
189	0x3e4ef82a	0.20211855
190	0xba29e1a8	-0.0006480464
191	0xbd1c2bc6	-0.038127683
192	0x3dbd7ffa	0.09252925
193	0x3f760d2a	0.96113837
194	0xc0f69b16	-7.7064314
195	0x3f282ac0	0.6569023
196	0xbf49ea05	-0.7887271
197	0x3ea04c67	0.3130829
198	0xbe897d4d	-0.2685341
199	0xbf21bcab	-0.6317851
200	0x403f8734	2.9926271
201	0x3f239af1	0.63908297
202	0x3d5843f1	0.05279917
203	0xbe84b2f0	-0.25917768
204	0xbf1edb7b	-0.6205365
205	0x3f182934	0.5943787
206	0xbb2da371	-0.0026495124
207	0xbf89a957	-1.0754803
208	0xbfdae9b6	-1.7102573
209	0xbe5b70d1	-0.21429755
210	0x3f9cf275	1.2261492
211	0xbd81bdbc	-0.06335017
212	0x3fca59ea	1.580869
213	0xbf96bfca	-1.1777279
214	0xbe46bd2c	-0.19408101
215	0x3f9c421c	1.2207675
216	0x3dfed0c2	0.12442161
217	0xc086971f	-4.2059474
218	0x3f78b5a2	0.9715215
219	0xbfc46d4a	-1.5345852
220	0xbf3432a4	-0.7038977
221	0xbeb3fcf6	-0.3515393
222	0x3f3cabc9	0.73699623
223	0xc082671e	-4.0750875
224	0x3f46a32c	0.7759273
225	0x3f533d43	0.8251535
226	0x3e1f9b8a	0.15586677
227	0xc00bc61d	-2.1839669
228	0x3eeaadc2	0.45835692
229	0xbfa198d8	-1.2624769
230	0x3f5f7864	0.87293077
231	0xbf09c540	-0.53816605
232	0xbe66e87d	-0.22549625
233	0x3d718cac	0.058972046
234	0xbe17dd0f	-0.14830421
235	0xc001e559	-2.0296233
236	0x3e07dd8f	0.13268112
237	0x3f6c1bf5	0.9223016
238	0xbfcd810d	-1.6055008
239	0xbde34bd5	-0.11098448
240	0x3fa29b86	1.2703712
241	0xc0208480	-2.5080872
242	0xbec87da5	-0.3915836
243	0xbf7eb15d	-0.99489385
244	0x3f93f78d	1.1559922
245	0xbff9b05d	-1.9506947
246	0xbde7a00e	-0.11309825
247	0x3f0a8769	0.5411287
248	0xbe50b88b	-0.20382898
249	0xbfa00d73	-1.2504104
250	0x3f30ccb0	0.6906233
251	0x3eb22111	0.34790853
252	0x3f1ac4fe	0.60456836
253	0x3ee6a40d	0.45047036
254	0xbeca5087	-0.39514562
255	0xbd956d32	-0.07296218

fc2.bias f4 [64]
0	0xba846025	-0.0010099454
1	0xbedd4362	-0.43215472
2	0x3f1ac0c8	0.6045041
3	0x3e251ab7	0.16123472
4	0x3e16f03f	0.14740084
5	0x3ea172b7	0.31532833
6	0x3b90bc8a	0.004417007
7	0xbe2052ab	-0.15656535
8	0xbdb9eedf	-0.09078764
9	0xbe00920b	-0.12555711
10	0x3ec4e2d1	0.38454297
11	0x3ef07841	0.46966746
12	0x3dcac370	0.09900558
13	0x3f38c627	0.72177356
14	0x3f5a38e4	0.8524306
15	0x3f50436e	0.8135289
16	0x3e59829c	0.2124123
17	0xbdedbd25	-0.11608342
18	0xbe390676	-0.18068871
19	0xbdb7ad23	-0.0896857
20	0x3e940a60	0.28914165
21	0x3f8aab63	1.0833553
22	0xbe04e9d1	-0.12979819
23	0x3c57a222	0.013161214
24	0x3f16df27	0.58934253
25	0x3e83a4a8	0.2571156
26	0xbe0cfc94	-0.13768226
27	0xbe029646	-0.12752637
28	0xbe0ca362	-0.137342
29	0x3eddc58f	0.43314788
30	0xbe27609d	-0.16345449
31	0x3ef3cc75	0.47616926
32	0xbe71c491	-0.2361014
33	0x3ec7be97	0.39012596
34	0x3ecccde2	0.40000826
35	0xbd973b39	-0.07384343
36	0x3f2e3ce8	0.68061686
37	0x3f06e8f9	0.5269924
38	0xbefdb915	-0.4955527
39	0x3ebbb933	0.36664733
40	0xbd73f9f4	-0.059564546
41	0xbf14b249	-0.5808454
42	0x3f1b6d80	0.6071396
43	0x3d135ced	0.035977293
44	0xbe1784ce	-0.14796755
45	0x3ea556fe	0.32292932
46	0xbedb0b9c	-0.42782295
47	0x3ed6d77b	0.41961274
48	0x3f237c92	0.63861954
49	0x3e74c6f7	0.23904024
50	0x3f2df59f	0.67952913
51	0xbc9a4eb7	-0.018836362
52	0xbf08bed6	-0.5341619
53	0xbe894938	-0.26813674
54	0xbd65d485	-0.056110878
55	0xbe0cedde	-0.13762614
56	0xbdd55fae	-0.1041864
57	0xbdeb45ea	-0.114879444
58	0x3e9af67d	0.3026618
59	0x3d1d426b	0.03839342
60	0x3e56ff6d	0.20995875
61	0x3e30688b	0.1722738
62	0xbdd378f0	-0.10325801
63	0x3e530568	0.20607531

out.weight f4 [3, 64]
0	0x3c1bd8fb	0.009512181
1	0xbf7bab64	-0.98308396
2	0xbf22c5c8	-0.6358304
3	0x3fa886cb	1.3166136
4	0xbf4c5566	-0.7981781
5	0xbe870563	-0.26371297
6	0xbf4d2624	-0.8013632
7	0xbf40e54a	-0.7534987
8	0x3dac3975	0.084093966
9	0xbd26ef1d	-0.04075538
10	0xbf0c735c	-0.54863524
11	0xbf7031a5	-0.9382575
12	0xbefdba15	-0.49556032
13	0xbeaecc2f	-0.34140155
14	0xbeead9a1	-0.45869163
15	0xbf16bb4e	-0.58879554
16	0xbf006be5	-0.50164634
17	0x3c80c8ca	0.015720744
18	0x3cd3de8e	0.025862958
19	0x3d8bb1e8	0.06821042
20	0xbf1a0f95	-0.60180026
21	0xbedd4359	-0.43215445
22	0xbc009f1d	-0.007850436
23	0xbc812124	-0.015762873
24	0xbf26c8fd	-0.65150434
25	0xbf4b54ea	-0.79426444
26	0xbd81fd41	-0.063471325
27	0x3b6b3c55	0.0035894115
28	0xbe0142a8	-0.12623084
29	0xbe58b00a	-0.21160904
30	0x3fa52833	1.2902893
31	0x3d170295	0.036867697
32	0x3f3cb826	0.7371849
33	0xbeb6f36b	-0.35732588
34	0xbed5ca2f	-0.41755816
35	0x3d8ddfef	0.069274776
36	0xbf0e6ea6	-0.55637586
37	0xbf4124c7	-0.7544674
38	0xc000437c	-2.004119
39	0xbefc22fd	-0.49245444
40	0xbe0470b0	-0.12933612
41	0x3f635517	0.8880171
42	0xbf30c499	-0.69049984
43	0x3dbd7015	0.092498936
44	0xbd87392a	-0.066027
45	0x3fa68329	1.3008777
46	0xc020e6d5	-2.5140889
47	0xbeaa88b0	-0.3330741
48	0xbf062b10	-0.5240946
49	0x3c9d42f3	0.019196963
50	0x3e696560	0.22792578
51	0x3fbaff5b	1.4609178
52	0xbf6ccdfe	-0.9250182
53	0xbf7e5cab	-0.9936015
54	0x3cbb8b6f	0.022893636
55	0xbdef55de	-0.116863
56	0xbec6dd0a	-0.38840514
57	0x3d2aa319	0.04165945
58	0x3ff6fbe3	1.929562
59	0xc04ec94d	-3.2310364
60	0xbf8b49d1	-1.0881902
61	0xbf6ad23a	-0.9172703
62	0xbccb58ba	-0.024822582
63	0x3f8468e6	1.0344512
64	0x3de4ebc0	0.11177778
65	0xbf9a416e	-1.2051218
66	0xbf311c0a	-0.6918341
67	0x3fa913d5	1.3209177
68	0xbf40af7e	-0.7526778
69	0xbe996bfd	-0.299652
70	0xbf3cb7b8	-0.7371783
71	0xbf3dbe97	-0.7411894
72	0x3b92c508	0.0044790544
73	0x3b87df59	0.004146498
74	0xbf156325	-0.5835441
75	0xbf658711	-0.8965922
76	0xbf04790e	-0.51747215
77	0xbece1be5	-0.40255657
78	0xbf027990	-0.5096674
79	0xbf1f30f8	-0.62184095
80	0xbe807c2e	-0.25094742
81	0x3d9eeeb7	0.07760375
82	0x3d339cdb	0.04385076
83	0xbdf3daf2	-0.11906995
84	0xbecd62fd	-0.40114585
85	0xbeebaaec	-0.4602884
86	0xbd159cf8	-0.03652665
87	0x3cb6b754	0.022304215
88	0xbf2cdbe4	-0.67523026
89	0xbf497175	-0.78688747
90	0x3da450ea	0.08023246
91	0x3d10aaef	0.035319265
92	0xbeb8955c	-0.36051452
93	0xbebc9667	-0.36833498
94	0x3fa236e6	1.2673004
95	0xbe02fc66	-0.12791595
96	0x3f6c4b5c	0.9230249
97	0xbea3cd7d	-0.31992713
98	0xbed1b4f1	-0.4095836
99	0xbdbafe3f	-0.09130525
100	0xbf249df8	-0.6430354
101	0xbf260216	-0.6484693
102	0xc0070a12	-2.1099896
103	0xbf073fe0	-0.5283184
104	0xbe3871a8	-0.18012106
105	0x3f724835	0.9464143
106	0xbf2ba2b2	-0.6704513
107	0x3d365ca3	0.04452194
108	0x3d887c73	0.06664362
109	0x3f9d6f6a	1.2299626
110	0xc0107855	-2.2573445
111	0xbedb8fc4	-0.42883122
112	0xbea126ff	-0.31475064
113	0xbe1d1d23	-0.15343146
114	0xbe3746db	-0.17898123
115	0x3fbd6e90	1.4799366
116	0xbf7e347c	-0.99298835
117	0xbf662345	-0.8989757
118	0xbd464204	-0.0484028
119	0x3c46aa9a	0.0121256355
120	0xbe240c7d	-0.16020389
121	0x3c890ef5	0.016730765
122	0x3fef93f1	1.8717023
123	0xc0525ad1	-3.286793
124	0xbf8fcca0	-1.1234322
125	0xbf87a0eb	-1.0595983
126	0x3dd71e0d	0.105037786
127	0x3fa24b6d	1.2679268
128	0xbd0333c3	-0.032031786
129	0xbfb61c3f	-1.422737
130	0xbf4bd306	-0.7961887
131	0x3fb3a3a4	1.4034314
132	0xbf6bec8a	-0.92157805
133	0xbe9ef030	-0.31042624
134	0xbf2eafdd	-0.68237096
135	0xbf411c62	-0.75433934
136	0x3de6041f	0.11231255
137	0x3d1562f3	0.03647132
138	0xbf23f002	-0.640381
139	0xbf77690d	-0.9664467
140	0xbf009d32	-0.5023986
141	0xbeb8f460	-0.36123943
142	0xbf1b0902	-0.6056062
143	0xbf33e904	-0.7027743
144	0xbe03e637	-0.12880789
145	0xbd5f1218	-0.054460615
146	0xbd904c80	-0.07045841
147	0xbbdcb0f1	-0.0067349602
148	0xbe3cee3f	-0.18450259
149	0xbeebf4c0	-0.46085167
150	0xbda2fb1c	-0.079580516
151	0xbcc5f238	-0.02416335
152	0xbf23434f	-0.6377458
153	0xbf321668	-0.6956544
154	0xbd3961a9	-0.04525915
155	0xbdbaa634	-0.09113732
156	0xbf1532b6	-0.58280504
157	0xbf163413	-0.5867321
158	0x3f9aef07	1.2104195
159	0xbeb474ca	-0.35245353
160	0x3f87f704	1.0622258
161	0xbe2a5085	-0.16632278
162	0xbeca77ec	-0.39544618
163	0x3d587dca	0.052854337
164	0xbf2c96bc	-0.674175
165	0xbf12f327	-0.5740227
166	0xc0050e9b	-2.0790164
167	0xbf2dd66e	-0.6790532
168	0xbea77fce	-0.32714695
169	0x3f83e911	1.0305501
170	0xbf22b8e0	-0.63563347
171	0xbdb05a47	-0.08610969
172	0xbc853554	-0.01626078
173	0x3fa801ca	1.3125546
174	0xbfcdc474	-1.6075578
175	0xbed996ab	-0.42497763
176	0xbd61c6bc	-0.05512117
177	0xbea23d36	-0.31687325
178	0xbf00ccda	-0.5031258
179	0x3fba6357	1.4561566
180	0xbf810858	-1.0080671
181	0xbf00afcc	-0.50268245
182	0xbd198b3d	-0.037486304
183	0x3dcd4413	0.1002275
184	0x3e5d674c	0.21621436
185	0xbd76a4ec	-0.060215876
186	0x3fe18e3f	1.7621535
187	0xc03176f4	-2.7728853
188	0xbf8dcd98	-1.1078367
189	0xbf94bdf2	-1.1620467
190	0x3d5d5048	0.05403164
191	0x3fbc3539	1.4703742

out.bias f4 [3]
0	0x3eadd30b	0.33950076
1	0x3ece6a9d	0.40315714
2	0xbec84430	-0.39114523
