acrobot_ddqn_25-12-5k-64N.pth (torch, 22509 bytes, 6 tensors)

fc1.weight f4 [64, 6]
00000000: cfd8 1cbf 3d75 893f cdef f9bf aa04 9abd
00000010: 315f dabe 83e6 2b3e d377 b9bf 90be b5bf
00000020: 0f81 b7bf 17b5 eebd 0056 edbe 9fcc 08bf
00000030: 44de be3f edab 733d b2f3 1cbf 135a 49bf
00000040: 8223 003e edf2 cc3d cba3 9b3d 0069 0940
00000050: 3c44 c4bf 0d4c d8bf 46c3 143e 6a9c 393f
00000060: e721 923e 1b5d f0bf 54ad 753f d88b b1be
00000070: f882 193f a16a 19bd 3947 293f 1348 b8bf
00000080: 1d34 133f 1298 483f c182 e3be 6b11 e7be
00000090: d66f 853f 86dd 883f 4178 ef3e 385e 0cbf
000000a0: 6148 b0be 1478 76be 767d 8abf 762c 9b3d
000000b0: c06d 1f3e 28bc dbbe e3cb 1cbf f7eb 1bbf
000000c0: 0070 cf3f c4ce c8bd f48c 73bf ec12 353f
000000d0: 269b dfbd 89d3 82be 3a82 2fbf af74 d0bf
000000e0: 0abe 4e3f a673 76bf c2f6 5fbe d57b f63d
000000f0: b782 763f 3f4d 93bf 361b 3e3f a80e 2ebf
00000100: 7237 e63e de57 a63e 716d f1bf 510e d23e
00000110: cea6 64be 3b20 adbf 47d4 b6bd bad9 65be
00000120: 2f84 a43d cea4 883f 5e97 38be 1f2d a8bf
00000130: 54fb 84be 2869 0b3f c8bb 983f 7a3b 1e3f
00000140: d699 39bf ff71 3ebf 6c15 ca3d 167a 44bd
00000150: 210b 1b3f 5020 47bf f061 5c3d bf0a bbbe
00000160: 9230 c03e 0e87 423e 20d7 9c3d f5d6 acbf
00000170: 5e84 7e3e 9f58 81bc e651 563d f3cb b0be
00000180: 2af3 ab3f 5269 43be 5dcf 9c3f 717e 08bf
00000190: e6f4 0e3d 41cf cdbd 0507 bbbf d6b0 5abf
000001a0: c078 c5be 16b1 a83e a3f2 933e d502 adbe
000001b0: d112 a0bf 0181 08c0 9ccf 4f3e 45ed bf3f
000001c0: e9e5 f13d 22af 14bf 2d51 bcbe 1b96 86bf
000001d0: a94e 92bf 1753 fa3f 07f6 e5bc c788 b5be
000001e0: 1050 a0bf 254c 503d dbb7 7f3f 0db6 5a3f
000001f0: 5248 653f e766 673e 0312 b2be 2a5e ae3f
00000200: 604b 0c3f 213d 2a3f b9a1 8dbf a313 44bf
00000210: 7e80 a2bf e932 983f 4df3 58bf c931 cdbf
00000220: ed4a d03d a8d7 313f ab42 38bf 35a7 79bf
00000230: f43a 87bf 774a 60bf d637 07bf 9266 3f3e
00000240: b498 b3be a3c8 cd3f 81df 24be 4b8d 1f3f
00000250: 7ad1 133d 8e5b 103f 869a 403d 9a1d f33e
00000260: 325e d03f 9b13 cf3e edf6 e6be a0f7 bf3d
00000270: cd72 8cbf 16af 2d3f 2924 c1be e6d7 7e3e
00000280: 89d8 3bbf ee9a 0f3e 26a6 e7bd 1f8c 583e
00000290: 789c 043f 6533 77be 144a 7c3f 67a4 963e
000002a0: b1d4 5b3e 1f3d 853f f1f0 46bd e1a7 2ebf
000002b0: e3f7 90be 6a4c e83a 431d 193e a15c 0740
000002c0: bbef 053e 8520 03c0 9c6a 0b3f 7164 203f
000002d0: 1900 3bbf c983 a13f eb36 e13f 9bec 1b3e
000002e0: c327 5abf 82b1 63be 7b9d 9d3f 95a9 1abe
000002f0: 0b09 1b3d 0398 febd 71a6 8dbe 5d7a 4abd
00000300: eb16 853e cef7 053e 8412 883e 75fc 963e
00000310: ddc8 293e 6c16 923e f592 9a3f 93da 85bf
00000320: 2142 a33e f102 a03f a07c a43d 27bc afbd
00000330: 5369 94bf d939 283f 02db 82bf b8ec 863f
00000340: 7aaa 1d3e cf86 0dbe f4b0 1f3f 6c76 6e3f
00000350: ae41 4c3f f9dc e3bf 8d87 59be 0ef6 78bd
00000360: 2377 b03f e3ea 373e 9591 66bf da22 c63d
00000370: 66d1 08bf a734 53bc af82 873f 6249 0f3f
00000380: 0c1c 5b3e 61e2 96be ac3a eabe 5f06 f3bd
00000390: 31e2 49bf 55e7 0ebf f36e 9bbe 161b bfbe
000003a0: 2b20 8b3e d07c b03e fd7d d1be 0e92 0bbf
000003b0: e235 12c0 a4cc 9bbd dd51 aebe b95f 2c3f
000003c0: 2304 50bf 57ee 2c3d 039e 0d3f f241 aa3e
000003d0: d696 90bf 8a86 d1be 7cce 8a3f 8e2e d0bc
000003e0: 72a2 14bf 390e a7bf 0cb2 523f b597 0f3f
000003f0: 02ad 85bf 4bcf 403c 96d3 97be 3cdb 313f
-0.61268324 1.0738903 -1.9526306 -0.07520421 -0.4265075 0.16787152 -1.4489692 -1.419878
-1.433626 -0.11655634 -0.46354675 -0.53437227 1.491158 0.059490133 -0.6130935 -0.7865307
0.12513545 0.10007272 0.075996004 2.1470337 -1.5333323 -1.6898209 0.14527616 0.72504294
0.2854149 -1.8778414 0.959676 -0.34677005 0.5996547 -0.037455205 0.661243 -1.4396995
0.57501394 0.7835704 -0.44435695 -0.45130476 1.0424755 1.0692604 0.46771434 -0.54831266
-0.3443022 -0.24069244 -1.0819538 0.075768396 0.1556921 -0.4291699 -0.61248606 -0.6090693
1.6206055 -0.098050624 -0.9513695 0.70732 -0.10918264 -0.25552014 -0.68558085 -1.6285609
0.80758727 -0.96270216 -0.21871474 0.12035338 0.96293205 -1.1507949 0.7426027 -0.67991114
0.44964176 0.32488912 -1.8861524 0.41026548 -0.22329256 -1.3525461 -0.089272074 -0.22446337
0.080330245 1.0675294 -0.18026492 -1.313877 -0.25972998 0.5445733 1.1932306 0.61809504
-0.7250036 -0.74392694 0.09867367 -0.047967993 0.60563856 -0.7778368 0.053804338 -0.36531636
0.37537056 0.18996832 0.07658219 -1.35031 0.24855182 -0.015789328 0.0523242 -0.345306
1.3433583 -0.19083145 1.2250782 -0.53317934 0.034901522 -0.10049296 -1.4611517 -0.8542608
-0.38568687 0.32947606 0.28896055 -0.33791223 -1.2505742 -2.1328738 0.2029404 1.4994284
0.1181143 -0.5807973 -0.36780682 -1.0514559 -1.1430255 1.9556607 -0.028071417 -0.35455915
-1.2524433 0.050853867 0.99889916 0.8543404 0.8956348 0.22597848 -0.34779367 1.3622487
0.54802513 0.66499525 -1.1064979 -0.76592463 -1.2695463 1.1890537 -0.8474625 -1.6030818
0.10170541 0.6946969 -0.7197673 -0.9752076 -1.0564866 -0.87613624 -0.52819574 0.18691471
-0.3507744 1.6076854 -0.16100885 0.6232497 0.036088444 0.563897 0.047022365 0.47483522
1.6278746 0.40444645 -0.45110264 0.093734026 -1.0972534 0.67845285 -0.377229 0.24887046
-0.7337728 0.14023945 -0.11310987 0.21147202 0.5180125 -0.24140699 0.98550534 0.29422304
0.21467854 1.0409278 -0.048569623 -0.6822491 -0.28314123 0.0017722968 0.14952569 2.1150286
0.13079731 -2.0488598 0.5445955 0.6265326 -0.73047024 1.2618343 1.7594885 0.15226977
-0.8521692 -0.22235683 1.2313684 -0.15103753 0.03785042 -0.12431338 -0.27666047 -0.0494331
0.25994048 0.13082811 0.26576626 0.29489484 0.1658053 0.28532732 1.2076098 -1.0457329
0.3188639 1.2500898 0.08031583 -0.08580809 -1.1594642 0.6571327 -1.0223086 1.0540991
0.15397063 -0.13820957 0.62379384 0.9314945 0.7978772 -1.780181 -0.21243115 -0.06078153
1.3786358 0.17960696 -0.9006589 0.09674616 -0.53444517 -0.012890971 1.0586756 0.5597135
0.21397418 -0.29469588 -0.45747888 -0.118664496 -0.78860766 -0.55821735 -0.30358085 -0.37325352
0.2717298 0.34470224 -0.40916434 -0.54519737 -2.2845387 -0.076073915 -0.34046832 0.6733356
-0.8125631 0.042219486 0.5531923 0.33253437 -1.1296031 -0.40922958 1.0844264 -0.025412824
-0.5806037 -1.3051215 0.8230293 0.5609086 -1.0443423 0.0117681725 -0.29653615 0.6947515

fc1.bias f4 [64]
00000000: 6b92 453d 5564 8cbf f7c3 903d c102 e8be
00000010: 0feb 51bf 0a63 8a3e c721 23bf d40d 383f
00000020: 73c8 9c3d 00cc 8fbc abb3 90be 1edb 8e3e
00000030: f9c6 41bf 42fd d03d f3b4 413f e857 83be
00000040: 1106 843d 8da7 f6bf 71f1 4fbf 2cca 6fbe
00000050: 21f3 e0bf 2cb8 88bf 3b28 cdbe eacb 41bf
00000060: 9f7c 0b3f fcdc 483f 698f 0ec0 9936 8ebf
00000070: 3951 f23e 4780 b3bb 917a 0ec0 f098 3e3f
00000080: 029f cc3f a6a6 cebe bffb a53e 4b4c 3fbf
00000090: 9409 c63e 60e6 1a3f 778c f23e 8523 dfbf
000000a0: 3594 1cbf 64ca c6bf 9590 01c0 4661 373f
000000b0: 6ec8 59be 2086 45be 21ad 8d3e 8cf5 a6bc
000000c0: 64a9 d6be cd90 203f 4f36 1e3f 7ce2 8ebf
000000d0: e546 d4be a291 eebf 110e 1ac0 46ff eb3e
000000e0: db03 07c0 1339 3b3e 9904 983e 52be 14bd
000000f0: e4ab d4bf 0790 aa3d 1f02 54bf bf19 43bf
0.04823534 -1.0968119 0.07068627 -0.453146 -0.81999296 0.27028686 -0.63723415 0.718961
0.0765542 -0.01755333 -0.28262076 0.27901548 -0.75694233 0.10204555 0.7566673 -0.25653005
0.064464696 -1.9269882 -0.81227785 -0.23416966 -1.7574197 -1.0681205 -0.40069756 -0.75701773
0.5448703 0.78462195 -2.227503 -1.1110412 0.47327593 -0.0054779383 -2.2262309 0.74452114
1.5986025 -0.40361518 0.3241863 -0.7472579 0.38679183 0.60507774 0.4737279 -1.7432715
-0.61163646 -1.5530515 -2.0244496 0.716328 -0.21267864 -0.19289446 0.2767115 -0.020380758
-0.4192611 0.6272095 0.6180162 -1.1162868 -0.41460338 -1.8638194 -2.4071085 0.46093196
-2.1096103 0.18283491 0.29691008 -0.036314316 -1.6614957 0.08328252 -0.82815737 -0.7621116

fc2.weight f4 [64, 64]
00000000: 507f 273e 2f38 c23d bb4d a83e abe1 863f
00000010: 13ca a8be 6a92 673e dac4 aa3e c1d9 a7be
00000020: 69db 13bf 0278 d9be cc55 2f3e 2042 54be
00000030: 1214 5cbe f8bb 8a3e cc31 443e 9338 02bf
00000040: 50e6 e43c cb0a 7a3e b6e2 953e b775 9c3d
00000050: c58e d1bd 4fdf 9bbf 62b2 633f 0e8b 8d3e
00000060: fa10 5fbf e0ba 2b3f b3e9 53bf ed32 173f
00000070: ae07 f53d 4431 1abe 67dd eb3e 49ed bb3d
00000080: a854 df3e f10b 013f c978 f73e 9a4b 263f
00000090: ae47 05bf 226b a53c 3820 5a3e e7d1 c6bd
000000a0: a2d1 3bbf 9c88 843e 20b7 bebf 4a30 eb3d
000000b0: af50 ef3e 81e2 62bf abc6 02bf 0313 29bd
000000c0: ce96 313f 9829 a8bd 0bce e4bd 6c32 c8be
000000d0: 1fc6 8f3e b0eb 66bf 4206 22bf 23a1 1cbd
000000e0: 40f9 ac3f ed13 943d 5dff 14ba b668 90bd
000000f0: 10b2 f2bd 5719 c33e 3328 44bf 0533 8f3f
00000100: 8c07 35bf e73d bc3d 5ce3 a03f 3113 9ebf
00000110: 3c1d fe3f 1a45 62bd 1712 8fbd a5b3 033f
00000120: dbc2 03bd f56a d6bf d0db 08be c219 893d
00000130: 7ab0 e4be 971a 0dbe ddab 0cbf 1f5f 73bf
00000140: dccd 99be 37db 303f 3d5d eb3e 2843 4abf
00000150: 5baf f2be afc2 ba3d f736 79bf 474f 39bf
00000160: 32f2 fc3e c811 87bf 76aa 6d3f 693d febe
00000170: 6e63 9b3e 67c8 28bf 42e9 a1bf 2d0b 053f
00000180: 6610 b03e d7fe bbbf 37f2 e53e ad10 48bf
00000190: 6ac5 37bf adf8 693f ff1c 383f 86dc b9be
000001a0: 6e0a 7f3f a07d 1f3f 962b f9be 21ad dabb
000001b0: 4c4d aebe 3b6d 89be 9f45 133f 5d4d 2a3f
000001c0: 2804 babe 003c 1cbf 0ed0 f9ba b2f8 01bf
000001d0: da1a 5d3f 4100 27c0 30bc 0040 6006 88bf
000001e0: ec4e 99bf 41d6 8dbe 0b97 483f e812 893b
000001f0: 3fab 88be f452 72be 8b92 fcbe 6ae0 9cbf
00000200: 2ca8 583c 4de5 9a3e 8f16 9e3e 58e1 e0bd
00000210: 81f4 eebe e89c 213f baa7 6cbd 1094 4c3e
00000220: 6312 f93d d01f 183f 5ed4 29be 35b1 113f
00000230: 8bb3 903e 5163 f03e 1a26 b03e 0a13 623e
00000240: 219f d13e 2d90 9ebf 2152 a2be b007 8bbf
00000250: 38a6 93bf 4e1f 53bf 444b 173d fb28 b23d
00000260: 0d6b 4d3f ee3d 9abe 3bdd 5c3f d197 1dbf
00000270: 6267 c3be 5c3f d83d dd95 bcbf 434b 10bd
00000280: 82bb 173f 9f96 553e c750 a0be 1c4c a93e
00000290: e862 a1bd c505 c4be 0f92 353f 1335 f0be
000002a0: 8cec 8c3e 6b2d 1d3f f779 cdbf ae33 f83e
000002b0: 6b0d 0c3f 6d9f 313f 8d42 7f3c 04fb 14bf
000002c0: cf6a e53e e114 88bd cdc4 3a3d 5bed bdbf
000002d0: e078 a13d 5d99 fc3e e778 dfbd 5a5d 843e
000002e0: c07a 7f3e 3e25 edbd 2df0 203f 6717 d4be
000002f0: e7ad 52c0 a751 08bf ca50 e8be d928 57bf
00000300: ad7d 2f3f 7788 ddbf f61a 923e 41d4 673e
00000310: 33f5 eb3e 2780 8dbe dcb1 713c 7db6 16be
00000320: 67cb 46bd e4ea d2bd b23c 1a3f 8c87 ad3e
00000330: 7cba 09bd b071 f7bc 7cd3 9b3e 6fa2 14be
00000340: 0579 4c3d d9cb 09bf 73cd 4b3e d0ee b43e
00000350: 7010 933f d5c4 92bf 044b 09bf a570 0fbe
00000360: 0fad 11bf 43e0 313f 0ecc 91bf 9525 51be
00000370: 5849 dc3e f8e1 553f e45c 25bf 00ee d83e
00000380: ee46 43bd ec28 e63e 044f d83e 82d6 803c
00000390: 5406 7c3f be0b 1c3f f5d4 70bf d254 98be
000003a0: b2ad 85bf 0e3f 9dbf 0cca 96bf 339a b13d
000003b0: 4767 45bf e4e8 773f ef4d a4bf c726 2e3e
000003c0: cf93 c5bd a7c8 193e af40 263e e0d8 2dbe
000003d0: a34b 493d f4da 81bf 8109 5cbe bcaf 1a3e
000003e0: 4b60 8a3f 3447 2c3e 41d7 55be 5d32 6fbe
000003f0: 92b0 fcbf 858c 993e a157 16bf 1b88 333e
0.1635716 0.094833724 0.32871804 1.0537618 -0.3296667 0.22614446 0.3335331 -0.3278332
-0.5775667 -0.4247437 0.17122573 -0.2072835 -0.21492031 0.27096534 0.19159621 -0.50867575
0.027941853 0.2441818 0.2927453 0.0763964 -0.10232309 -1.2177523 0.88944066 0.27645153
-0.8713528 0.67082024 -0.8277847 0.5906208 0.119643554 -0.15057856 0.46067354 0.09176118
0.43619275 0.50408846 0.4833434 0.6495911 -0.520625 0.020192686 0.21301353 -0.097080044
-0.7336675 0.25885475 -1.4899635 0.1148382 0.46741244 -0.8862687 -0.51084393 -0.041277897
0.69370735 -0.082110584 -0.11172112 -0.3910097 0.28080842 -0.9020338 -0.632908 -0.03823961
1.3513565 0.07230363 -0.0005683804 -0.07051222 -0.11850369 0.3810527 -0.7662384 1.1187445
-0.7071464 0.091914944 1.2569385 -1.2349607 1.9852672 -0.05524168 -0.06985872 0.5144599
-0.03216825 -1.6751391 -0.13365102 0.06694366 -0.4466589 -0.13779674 -0.5494974 -0.9506702
-0.3003987 0.69084495 0.45969573 -0.7900872 -0.4739941 0.09119164 -0.97349495 -0.7238659
0.4940353 -1.0552301 0.9283823 -0.49656227 0.30349296 -0.6593079 -1.264931 0.5197018
0.3438751 -1.4687146 0.44911358 -0.78150445 -0.71785605 0.91395074 0.71919245 -0.3630106
0.9962529 0.62301064 -0.48666066 -0.0066734706 -0.34043348 -0.2684115 0.5752811 0.66524297
-0.36331296 -0.6102905 -0.0019059198 -0.50770104 0.863691 -2.6093905 2.011486 -1.0626945
-1.197721 -0.27702525 0.78355473 0.004183162 -0.2669315 -0.23664457 -0.49330553 -1.2255986
0.013223689 0.30253068 0.30876586 -0.10980481 -0.46670917 0.63130045 -0.057777144 0.19978356
0.1216171 0.5942354 -0.16584918 0.5691102 0.2826198 0.46950772 0.3440407 0.22077575
0.40941718 -1.2387749 -0.31703284 -1.0861721 -1.1535101 -0.8246964 0.036937013 0.08699223
0.8024147 -0.30125374 0.8627507 -0.6155978 -0.38164812 0.1055896 -1.4733235 -0.035228025
0.5927049 0.20858239 -0.31311628 0.3306588 -0.07880193 -0.38285652 0.7092599 -0.46915492
0.2752422 0.6139743 -1.6052846 0.48476928 0.54707974 0.6938389 0.015579832 -0.5819552
0.4480805 -0.06644607 0.04559784 -1.483806 0.07884383 0.49335757 -0.10911732 0.25852472
0.24949169 -0.11579369 0.6286648 -0.41424105 -3.2918642 -0.5324959 -0.45374137 -0.84046704
0.6855114 -1.7307271 0.28536195 0.22639562 0.4608551 -0.27636835 0.014751878 -0.14718051
-0.048533823 -0.10298708 0.60248864 0.33892477 -0.03362511 -0.030205578 0.30434787 -0.14515088
0.0499201 -0.5382667 0.19902591 0.3533845 1.1489391 -1.1466318 -0.5363009 -0.14007814
-0.5690469 0.6948282 -1.1390398 -0.20424493 0.43024707 0.83547926 -0.64594865 0.4236908
-0.047675066 0.44953096 0.42247784 0.015727285 0.98447156 0.6095542 -0.94074947 -0.29752213
-1.0443633 -1.2284868 -1.178041 0.08671989 -0.77110714 0.9683974 -1.2836283 0.1700698
-0.09647333 0.15017949 0.16235612 -0.16977262 0.0491444 -1.0144944 -0.21488 0.151061
1.0810636 0.16824037 -0.20882894 -0.23359056 -1.9741385 0.2999002 -0.5872746 0.17532389

fc2.bias f4 [64]
00000000: ce03 6f3f b4fd febd cdfd 473f 4bb4 7e3f
00000010: cb39 5b3f 13a6 fb3e e619 bfbe d90f 3d3d
00000020: 78b2 9a3d 1a44 4a3f 6ba7 e43e 1473 1e3f
00000030: 92bb 373e f21e 86be e863 0bbe 18c4 0cbe
00000040: 8bed b63d 3408 503f db15 143f 26d5 123d
00000050: 82fa dd3e e908 9b3d 2c10 223e 2d46 893f
00000060: 898a 7fbb ba29 07be ab69 803f e74c 32be
00000070: 02ec 47bf 018f 933e 5fc2 e6be e0f8 8d3e
00000080: c33d 2f3f 4bc8 f9bd 7767 6dbe 31fa 9e3e
00000090: e2cf e1bd a79c 843e 8170 583f d474 63be
000000a0: eaec 943e 11d8 173f e9cd f03e f504 a33e
000000b0: 20e2 1d3f b3be 433f 9812 00be 6e9a 8cbc
000000c0: 6e24 5e3e 7a9f 6c3f 8830 cd3d e2ea 0a3b
000000d0: 40ff 823f bfa9 dfbd 7d7e 18be 38fe 54bf
000000e0: d8e2 0d3f 845f 213e 6951 a43f a4b5 8d3d
000000f0: ef7e 033f 8673 553f 7082 4d3e 36f2 a33f
0.9336518 -0.12450734 0.78121644 0.99493855 0.8563506 0.49150142 -0.37324446 0.04615769
0.075535715 0.79010165 0.4465898 0.61894345 0.17942646 -0.26195484 -0.1361233 -0.13746679
0.089320265 0.81262517 0.5784585 0.035847805 0.43355185 0.07570059 0.15826482 1.0724541
-0.0038992485 -0.13199511 1.0032247 -0.17412148 -0.78094494 0.2882004 -0.45070168 0.2772894
0.68453616 -0.12196406 -0.23184 0.31050256 -0.110259786 0.25900766 0.8454667 -0.22212535
0.29087 0.59314066 0.47032097 0.3183972 0.61673164 0.7646286 -0.12507093 -0.017163482
0.21693584 0.9243084 0.10019022 0.002119713 1.0234146 -0.109210484 -0.14892001 -0.8320041
0.5542426 0.15759093 1.2837344 0.06919411 0.5136556 0.833794 0.20069289 1.2808292

out.weight f4 [3, 64]
00000000: 974c a3be 2bc7 56bf 36a3 8e3e 6c31 f0be
00000010: ea8c 92bd 8910 d6be 37c9 e93f 9b68 81bb
00000020: ba00 1c40 d23c febd eecc e6be cf9c 6dbe
00000030: 604a c1be 6696 343f 3bf3 cd3c 303d d3bf
00000040: 2956 47bf fa29 ecbe 3021 bcbe 49be 533c
00000050: a4ad ffbd 94a9 f4bd c351 95bf 342f e4be
00000060: a327 2cbf 7988 d6bf c36c e5be 9329 aa3b
00000070: f5dd 4f3f 3de5 c33f c980 88bf 8d2b 10bf
00000080: ebb1 8ebe 3225 453d 2c1a 74bf 6891 4f3c
00000090: 08c5 14bc bbb1 b93f b0ee 1fbf 496a 7cbf
000000a0: 05c1 15c0 3127 5fbe cd10 d6be d097 00bf
000000b0: f728 99be c541 1040 495d bd3d 7d0c 54bb
000000c0: a483 2bc0 569f 03bf c45f 99bf e2ae a73d
000000d0: f935 34be 31b7 093f f6dd abbd 106e 883f
000000e0: c1b6 9bbe 20d9 1cbf 6b31 01bf b89f 2abd
000000f0: 7fb7 b8be 65a3 a8be 6d1c 80be e7a7 02bf
00000100: 32d3 e3bd 68d4 55bf 8bc8 c93d 82f2 d2be
00000110: 44cf 9fbe dcdc 98be d11e f33f 8aa0 1b3e
00000120: 9ba3 1040 8f44 40be 3988 0bbf b456 063d
00000130: 738a b2be 2069 253f 57af f93b 3127 d9bf
00000140: 3bc1 2abf 30ad bcbe 248f 9fbe 437d 14be
00000150: af41 89be 70b0 67bd 5c99 a7bf a3d6 f7be
00000160: dfb2 36bf c16a f5bf c576 c2be be43 713d
00000170: 57e7 513f 3a73 d13f 969c 7bbf d1ef 21bf
00000180: aa9e b0be 2fef d43d 1e49 5ebf 62d6 36be
00000190: 3fc1 3abd e01a c83f 58db 12bf 9c2d 91bf
000001a0: 5eaa 20c0 9e05 b3be 67b6 07bf 69b8 cdbe
000001b0: 3da7 03be 7bf0 0d40 2be6 98bd db48 53bc
000001c0: 1b91 0ac0 d739 09bf 05d0 bdbf d8ad 6d3c
000001d0: c6c5 85be e0ef 253f 2263 443d 8821 933f
000001e0: 84f2 b0be 09ae e2be aa79 e5be 9827 56bd
000001f0: 2402 04be be1b b8be 2377 9bbe 5998 02bf
00000200: b739 4c3d 9603 77bf c4fa 49be 048d 98be
00000210: d503 1fbf 6807 2abe 24b2 ea3f 9474 5fbd
00000220: 1a26 0340 c8d3 05bd 1f7d 20bf 077d 913e
00000230: 3a71 a7be 7d3e 1e3f 3daa 6cbd 15a9 ecbf
00000240: ba19 1abf 6455 85be fd15 3fbe 3585 403d
00000250: 733e fbbe 30af a6bc 10ef d1bf 7a87 f2be
00000260: f1cf 47bf 5987 19c0 c135 41be f62b a4bd
00000270: b6eb 433f 799c ec3f a57a 46bf 83c4 2ebf
00000280: 82ac f1be 729c ab3b b91f 2ebf c606 dbbe
00000290: f4e2 c73d 3015 d93f ec25 e7be ca7b a2bf
000002a0: 3a79 2ac0 72ff f2be 380b 1abf 80e9 8dbe
000002b0: 203a 0bbe 066c 2040 a8d8 f5bd bcc3 a03d
000002c0: 5d00 bbbf ad68 0dbf 72fa debf ffed 74bb
000002d0: bea2 dcbe b011 4d3f 40e2 9cbc 465c 973f
000002e0: a8fe edbe e1f6 98be a2b5 edbe 54d3 2ebc
000002f0: fa30 0d3e c4fa dabe 10ae b2be 0ff7 00bf
-0.3189437 -0.83897656 0.27858895 -0.46912706 -0.071557835 -0.4180949 1.8264531 -0.0039492375
2.4375443 -0.12413944 -0.45078224 -0.23204349 -0.37752056 0.7054199 0.025140395 -1.6503048
-0.77865845 -0.46125776 -0.3674407 0.0129237855 -0.12484291 -0.11946407 -1.1665577 -0.44567263
-0.6724798 -1.6760398 -0.4480954 0.0051929443 0.81198055 1.5304333 -1.0664302 -0.56316453
-0.27870116 0.048131175 -0.95352435 0.012668945 -0.009080179 1.4507364 -0.62473583 -0.9859968
-2.339906 -0.21792294 -0.41809693 -0.5023165 -0.29914066 2.2540143 0.09246308 -0.0032356076
-2.6799097 -0.51415 -1.198235 0.08187653 -0.17598714 0.5379515 -0.08391945 1.0658588
-0.30412868 -0.61268806 -0.5046603 -0.041656226 -0.36077496 -0.3293716 -0.25021687 -0.5103745
-0.11124267 -0.8352723 0.09852704 -0.41200644 -0.3121282 -0.29856002 1.899378 0.1519796
2.2599857 -0.18776153 -0.54504734 0.03279753 -0.34871253 0.64613533 0.007619779 -1.6965085
-0.66701096 -0.36850882 -0.31163895 -0.14500909 -0.26807925 -0.05656475 -1.3093677 -0.48405942
-0.71366686 -1.9173204 -0.3798124 0.058902495 0.8199362 1.6363289 -0.98285806 -0.63256556
-0.3449605 0.10397183 -0.8683032 -0.17855218 -0.04559445 1.5633202 -0.5736594 -1.1342044
-2.5103984 -0.34965223 -0.530127 -0.40179756 -0.12856765 2.2178028 -0.07465776 -0.012895788
-2.1651065 -0.5360388 -1.4829108 0.01450678 -0.26127452 0.64819145 0.047946103 1.1494608
-0.34560025 -0.44273403 -0.44819385 -0.052283853 -0.12891442 -0.35958666 -0.30364332 -0.51013714
0.04985973 -0.96489847 -0.19724566 -0.29795086 -0.6211522 -0.16604388 1.8335614 -0.054554537
2.0492005 -0.032672673 -0.6269092 0.284157 -0.32703573 0.618141 -0.05777954 -1.84891
-0.60195506 -0.2604171 -0.18660732 0.047002036 -0.49071082 -0.020347208 -1.6401081 -0.47368985
-0.7805167 -2.398886 -0.18868162 -0.080161974 0.7653154 1.8485252 -0.7753089 -0.68268603
-0.47201926 0.0052371556 -0.68017155 -0.42778605 0.09760085 1.6959591 -0.4514612 -1.2694027
-2.663649 -0.47460514 -0.6017337 -0.2771721 -0.13596392 2.5065932 -0.120042145 0.07849833
-1.4609486 -0.5523785 -1.742018 -0.0037373302 -0.43092912 0.80105114 -0.019150853 1.1825035
-0.4648335 -0.29875854 -0.46427637 -0.010670502 0.13788214 -0.42769444 -0.34898424 -0.5037698

out.bias f4 [3]
00000000: 75b4 bf3e 2ccb 48be f191 45bf
0.37442365 -0.19608754 -0.77175814
