acrobot_dqn_25-12-1k-128N.pth (torch, 74477 bytes, 6 tensors)

fc1.weight f4 [128, 6]
-0.40280682 -0.27576944 -0.94461316 -0.28802562 0.47534293 -0.2791903 -1.103155 -0.429269
-0.09683094 0.46261626 1.4270619 -0.08838162 -0.1169703 0.20175217 0.57550824 0.43409353
-0.9394906 -0.2275999 -1.3909024 -1.1423126 -0.45578945 -0.5612478 0.30310673 -0.42086273
-1.9413985 0.5157748 0.6093096 0.571309 0.72330266 0.6134604 -0.8579518 0.34661564
-0.92709327 -0.026763523 0.408688 0.19801182 -0.8246107 -1.0195321 0.024970671 0.20203376
-0.8073064 -0.5169044 -0.98493356 1.4348252 0.6912272 1.5672445 -0.5439028 -0.09134668
-0.7763388 -0.80610085 -1.0968505 -0.42772996 -0.42373013 -0.48226413 -1.1856794 0.2166538
-2.435676 -0.12394059 -0.038381092 0.3939274 -1.0004691 0.46537924 0.83638245 0.49983835
-0.21717471 -0.15735917 -1.2985946 0.51762694 -0.8243187 0.32896805 -0.07384863 0.23288195
-0.9991434 -1.2311896 -0.24027263 0.035264153 0.69504184 0.16114129 -1.1741099 0.078129984
-0.58658344 -0.6533228 -0.9131552 0.45043504 -0.26718104 0.20554256 -0.095593825 0.1562412
0.042098925 0.020624155 -0.3290068 1.0566075 -1.633494 -0.16790445 0.12012385 0.41522685
-0.026450766 0.8064791 -1.3817756 -0.2919638 0.22624014 0.35314453 -0.11587462 0.96147686
-0.7110258 1.4234185 0.3138117 -0.39491323 2.815325 0.2756349 0.29774624 0.28062165
-0.18156052 -0.028434286 2.7993214 -0.018943695 0.41578895 0.31104368 -0.32700348 -0.20764148
-1.1405158 0.42955944 0.6968773 -0.66233766 -0.20059162 0.111262314 -0.24912505 1.2792377
-0.8489929 1.2787001 0.046105113 0.31545 -1.731912 -0.68812287 1.3682845 0.21630892
0.5489569 0.30470765 -0.84610933 -0.024625257 -0.62819815 0.28561115 -0.4871259 -0.3799468
2.1663005 0.0019457951 -0.12821661 -0.49312237 0.26112148 0.15198553 -0.3213803 1.2856755
0.7015435 1.3404192 -0.8053298 -0.4347358 -1.0608993 1.242122 0.71314204 1.6280054
0.6010636 0.33571655 -0.92873394 -0.023690032 0.082127735 0.4651701 -0.41164866 -0.6154433
-0.18054348 0.23268722 -0.94717884 -0.4121281 -0.8278886 0.32980952 -1.47519 -0.9175917
-0.6490003 1.186576 0.3760025 -0.32527557 -1.6616644 1.1722668 -1.282603 -0.05597322
0.48063308 0.13512516 -0.99407434 0.91793 -0.03072602 0.095738925 -1.1011142 -0.61866254
2.8446653 0.18582378 1.1735473 -0.11209552 0.23699999 0.30477837 -0.7139435 1.6598561
-0.9317046 0.36924255 -0.11657689 0.49361888 -0.3506134 -0.69022566 -0.95180935 -1.0349536
0.52051103 0.1972214 -1.4557767 -0.9351258 0.08366946 -1.2033954 0.49150038 0.70820993
-1.3787615 1.5331599 -0.9395712 -0.5932087 0.06486697 0.28988567 -0.5179838 -0.4151551
0.72027445 -0.54514956 -0.8586912 -0.51387304 2.732042 -0.01149723 0.69888544 -0.3333371
0.043408215 0.04358411 -1.8836247 -1.1899964 0.14476113 -0.61274 -0.4200736 -0.3184776
-1.1148479 -0.9916944 -1.6837857 0.31553465 0.1307638 -0.058912612 -0.7996282 -0.7242383
-0.6035868 1.0145156 -0.21875052 -0.18131219 -0.42750257 -0.41301122 0.31149185 -0.7336441
00000000: b23c cebe a731 8dbe 2bd2 71bf 1878 93be
00000010: 2660 f33e 08f2 8ebe 2f34 8dbf 25c9 dbbe
00000020: 4d4f c6bd 0adc ec3e f7a9 b63f 6c01 b5bd
00000030: 208e efbd 1f98 4e3e 8254 133f 8241 de3e
00000040: 7582 70bf f30f 69be 1709 b2bf 4d37 92bf
00000050: 3c5d e9be f0ad 0fbf ce30 9b3e 527b d7be
00000060: bf7f f8bf d109 043f b7fb 1b3f 4e41 123f
00000070: 5d2a 393f be0b 1d3f bba2 5bbf 9b77 b13e
00000080: fc55 6dbf 2d3f dbbc 8e3f d13e 9cc3 4a3e
00000090: b019 53bf 0780 82bf 4b8f cc3c f0e1 4e3e
000000a0: a2ab 4ebf d953 04bf 9b24 7cbf 5aa8 b73f
000000b0: 44f4 303f 789b c83f 373d 0bbf f813 bbbd
000000c0: 24be 46bf a05c 4ebf 9965 8cbf 6cff dabe
000000d0: 28f3 d8be 53eb f6be 58c4 97bf 7eda 5d3e
000000e0: 1ee2 1bc0 90d4 fdbd 7e35 1dbd dab0 c93e
000000f0: 5f0f 80bf 3046 ee3e 291d 563f d0ea ff3e
00000100: 0c63 5ebe c322 21be 5938 a6bf 3383 043f
00000110: 8d06 53bf 806e a83e f33d 97bd 9b78 6e3e
00000120: ddc7 7fbf 9f97 9dbf 070a 76be 2571 103d
00000130: 43ee 313f 3902 253e 3c49 96bf 9d02 a03d
00000140: 552a 16bf 2a40 27bf 8ac4 69bf 6c9f e63e
00000150: f4cb 88be c079 523e b2c6 c3bd b1fd 1f3e
00000160: ec6f 2c3d fdf3 a83c 9473 a8be ea3e 873f
00000170: 5516 d1bf 25ef 2bbe 7e03 f63d 9d98 d43e
00000180: 47af d8bc 6a75 4e3f 06de b0bf 477c 95be
00000190: 7fab 673e 5ccf b43e ac4f edbd 5923 763f
000001a0: c905 36bf 9432 b63f edab a03e 1132 cabe
000001b0: 492e 3440 0520 8d3e 3272 983e a4ad 8f3e
000001c0: 00eb 39be 05ef e8bc 1528 3340 cf2f 9bbc
000001d0: 4ae2 d43e 1e41 9f3e 006d a7be f89f 54be
000001e0: 6cfc 91bf 37ef db3e 8d66 323f f68e 29bf
000001f0: e467 4dbe 7fdd e33d a31a 7fbe 10be a33f
00000200: 9957 59bf 72ac a33f b7d8 3c3d aa82 a13e
00000210: 4baf ddbf d228 30bf f223 af3f 1680 5d3e
00000220: 7088 0c3f a402 9c3e 9f9a 58bf e8ba c9bc
00000230: 98d1 20bf a03b 923e 9168 f9be 6388 c2be
00000240: aba4 0a40 0d0a ff3a 374b 03be 897a fcbe
00000250: b7b1 853e 18a2 1b3e f58b a4be 0491 a43f
00000260: 5b98 333f db92 ab3f 182a 4ebf b195 debe
00000270: 8ccb 87bf dbfd 9e3f 7a90 363f 7b62 d03f
00000280: 4edf 193f 0ae3 ab3e 82c1 6dbf 9911 c2bc
00000290: 9632 a83d c62a ee3e 9dc3 d2be b18d 1dbf
000002a0: 64e0 38be 8f45 6e3e 507a 72bf 7402 d3be
000002b0: 82f0 53bf cbdc a83e 07d3 bcbf 4ae7 6abf
000002c0: e224 26bf b9e1 973f 6683 c03e 858a a6be
000002d0: 6bb1 d4bf d70c 963f 562c a4bf 2d44 65bd
000002e0: 8a15 f63e 405e 0a3e a87b 7ebf 76fd 6a3f
000002f0: 22b5 fbbc c512 c43d 4ff1 8cbf ab60 1ebf
00000300: ff0e 3640 9748 3e3e cc36 963f 5692 e5bd
00000310: 20b0 723e e90b 9c3e 00c5 36bf 2a76 d43f
00000320: 3184 6ebf 5c0d bd3e ddbf eebd 9dbb fc3e
00000330: 9983 b3be a1b2 30bf c7a9 73bf 5c79 84bf
00000340: 3640 053f 68f4 493e e456 babf 6864 6fbf
00000350: e55a ab3d dc08 9abf f0a5 fb3e 3f4d 353f
00000360: 427b b0bf 953e c43f bd87 70bf 86dc 17bf
00000370: f9d8 843d e56b 943e 969a 04bf 368f d4be
00000380: e863 383f ec8e 0bbf 30d3 5bbf 2f8d 03bf
00000390: c7d9 2e40 e15e 3cbc 28ea 323f 29ab aabe
000003a0: d0cc 313d 4085 323d 9d1a f1bf cd51 98bf
000003b0: 433c 143e 87dc 1cbf e313 d7be 7f0f a3be
000003c0: 56b3 8ebf afdf 7dbf 4a86 d7bf c28d a13e
000003d0: f2e6 053e 5a4e 71bd 6fb4 4cbf ae67 39bf
000003e0: aa84 1abf a6db 813f 2300 60be e7a9 39be
000003f0: 9ee1 dabe 3576 d3be dc7b 9f3e 1ad0 3bbf

fc1.bias f4 [128]
-2.1478152 -0.0047563016 -2.2322142 -1.2714204 -0.2939447 1.8708425 -0.5068165 -0.83748597
-1.3259795 -0.5027404 2.6112936 -1.2350191 -0.5255973 -2.0982528 1.807158 -1.0253509
-1.4377719 -2.477196 3.4253726 3.5560904 -0.032527372 -1.1453365 -0.45735824 2.2990482
2.9542456 -1.9933282 -1.1273751 -1.3154081 -1.1530471 -1.1006998 -0.6680343 -0.82900834
3.5127873 -1.2104702 1.794545 -1.665715 -1.5539454 -1.3283567 3.0169694 -0.7460051
-0.62504524 -0.44820058 1.580075 -1.5022283 -0.8913532 -0.4013903 2.7808018 -1.4466808
0.77732766 -1.4910039 1.534132 2.2658393 -2.0049183 1.5556585 1.636444 1.5512035
-1.9933665 0.9382808 -0.82922643 -1.5158412 -0.7391259 -0.7375258 2.4880195 -1.4973966
-2.1518288 -0.96559626 0.08087481 2.916507 -1.0557724 -1.6221743 1.8450747 -1.2067142
2.1238883 -1.3495016 -0.77547795 0.61586845 0.7445922 -0.48963842 0.92108035 0.13649695
-1.7246152 -1.8389155 -0.7885521 -1.5421852 -1.6111627 0.37157214 -0.81310385 -0.55328494
-1.2398671 -1.1330678 3.1918664 -0.57474947 -0.6077183 -2.8451161 -1.244202 -0.7173744
1.9386897 1.4924375 -0.9740069 0.3613384 -1.851604 1.1454386 0.41278222 0.6542073
-0.58074665 -0.9105082 -0.8854094 -0.73776925 -2.6808648 1.3844656 -0.78479946 -1.2777112
-1.5415645 -1.8065568 -0.92789215 -0.90332747 0.54731196 -1.2794168 -1.0431893 -0.9489559
3.0042493 -1.006932 -1.2099264 -1.7341825 0.64509755 -0.31195262 -1.9898181 -0.805399
00000000: ce75 09c0 c0da 9bbb 99dc 0ec0 e7bd a2bf
00000010: eb7f 96be c477 ef3f babe 01bf 7b65 56bf
00000020: b2b9 a9bf 98b3 00bf 6f1f 2740 1b15 9ebf
00000030: 8b8d 06bf c649 06c0 f450 e73f b33e 83bf
00000040: e908 b8bf 618a 1ec0 4e39 5b40 fc96 6340
00000050: 6c3b 05bd 639a 92bf dc2a eabe 9b23 1340
00000060: 5c12 3d40 6125 ffbf d44d 90bf 4b5f a8bf
00000070: 0c97 93bf bbe3 8cbf 4c04 2bbf e439 54bf
00000080: 82d1 6040 b0f0 9abf a7b3 e53f 2636 d5bf
00000090: afe7 c6bf 9807 aabf 0716 4140 31fa 3ebf
000000a0: f702 20bf 8c7a e5be e63f ca3f 0449 c0bf
000000b0: b92f 64bf 0883 cdbe a8f8 3140 d62c b9bf
000000c0: f2fe 463f 37d9 bebf 705e c43f 8303 1140
000000d0: 9550 00c0 d11f c73f ff76 d13f d68d c63f
000000e0: a226 ffbf 2c33 703f 2f48 54bf 1607 c2bf
000000f0: 5b37 3dbf 7ece 3cbf b63b 1f40 b1aa bfbf
00000100: 90b7 09c0 5131 77bf b1a1 a53d 0da8 3a40
00000110: 8d23 87bf 68a3 cfbf 682b ec3f 9c75 9abf
00000120: c9ed 0740 78bc acbf b985 46bf 8ea9 1d3f
00000130: 989d 3e3f e3b1 fabe eccb 6b3f dbc5 0b3e
00000140: 31c0 dcbf 9561 ebbf 8dde 49bf 5366 c5bf
00000150: 943a cebf b43e be3e 9327 50bf 15a4 0dbf
00000160: f7b3 9ebf 5e08 91bf 8a47 4c40 c822 13bf
00000170: 6d93 1bbf 6216 36c0 0342 9fbf d9a5 37bf
00000180: fc26 f83f 3108 bf3f 8458 79bf 5901 b93e
00000190: 5c01 edbf bb9d 923f 3158 d33e 217a 273f
000001a0: d0ab 14bf 1117 69bf 31aa 62bf 72de 3cbf
000001b0: 4a93 2bc0 2b36 b13f 9ee8 48bf 0a8c a3bf
000001c0: fc51 c5bf 413d e7bf 578a 6dbf 7840 67bf
000001d0: a31c 0c3f eec3 a3bf 3a87 85bf c6ee 72bf
000001e0: 9f45 4040 26e3 80bf dede 9abf b1f9 ddbf
000001f0: 1d25 253f 41b8 9fbe 5cb2 febf a12e 4ebf

fc2.weight f4 [128, 128]
-0.009957936 -0.045494094 -0.075238295 -0.035250474 -0.042254087 0.02088938 0.045736007 -0.01271385
-0.021364367 0.057793323 -0.0032777821 0.025814518 0.051359147 0.048381828 -0.092675485 -0.034309532
0.029007219 -0.021939563 0.030657923 -0.08959051 0.047481347 0.041146837 0.032773785 0.026780041
-0.08796659 0.03433657 -0.039628047 -0.062440462 -0.00392776 0.043230124 -0.0053732917 0.034752443
-0.063351765 0.067123935 0.06637066 0.040005274 -0.07472986 -0.011928931 -0.0561301 0.009408258
0.010888313 0.0313967 0.0055809617 -0.06686088 0.07097243 0.005502118 -0.05422538 -0.07737343
0.0029473028 -0.01596892 -0.011238777 -0.09663601 -0.07406541 0.015921142 0.056528423 -0.073464625
0.042432033 -0.09088288 -0.10318957 0.01856743 0.0097198635 -0.011941431 -0.096461646 -0.06344221
-0.039687853 -0.049675632 -0.08363322 -0.05764347 0.031458333 0.058042333 -0.013808973 -0.0019304411
0.0478597 0.021630496 0.02298215 -0.058012456 -0.03108968 -0.08563608 0.023008134 -0.045922596
-0.02979092 0.031027563 0.019637793 -0.08615475 0.011179486 0.009281056 -0.0074786562 -0.020428233
0.06776925 0.080860905 -0.09982121 -0.021145493 -0.030483183 -0.012598388 0.06964191 0.029470101
-0.08507035 -0.014253371 0.049894165 -0.050329484 -0.10060151 -0.100673795 -0.029669676 0.0034124108
0.02739989 0.050937466 0.0084316395 -0.047675714 0.03587784 -0.06090198 0.076072 0.071957886
0.03406252 0.027769364 0.068831176 0.035318434 0.07300443 -0.0147423325 0.0452014 0.059827037
0.05721291 -0.028744444 -0.051936742 -0.055817906 -0.06998682 -0.0154554695 -0.02006657 0.05888406
0.034513757 -0.034231625 0.009463738 -0.08225094 0.07218603 -0.05877192 -0.0075048734 0.072435215
-0.00017615558 0.07230667 -0.048061147 -0.14453615 -0.18650271 0.0018860725 -0.07970017 -0.06133407
0.043972205 -0.109773554 0.017583001 0.013994488 0.07723784 0.014230356 -0.022168972 -0.034607526
0.012885303 -0.06296991 0.040987536 0.010501496 -0.045569062 0.08181804 -0.06963432 -0.104499444
0.0041449103 -0.020894935 -0.10326692 -0.0114245005 -0.08173186 -0.1735679 -0.12406497 -0.09582082
0.0642532 -0.0060596876 -0.107059486 -0.086387 -0.032680146 -0.09095633 0.028518848 -0.07634645
0.03509216 -0.218175 -0.08715485 -0.08510347 -0.046537496 -0.06997379 -0.01008857 0.009019122
-0.09201048 -0.10842586 -0.17397688 -0.03571208 -0.12088975 0.039715685 -0.10528165 0.009520379
-0.10103446 -0.03396706 -0.069279 -0.0005257812 -0.085607424 0.034893893 -0.023658425 -0.1169835
-0.14404005 0.031559564 0.033296414 0.00394484 0.05255567 -0.07847442 -0.124516025 0.029817369
-0.059791744 -0.16470027 0.08907283 -0.078240216 -0.07853906 -0.031476326 0.029812684 -0.09908435
-0.102589294 0.016037429 -0.0896783 0.09348311 0.06710195 -0.095091425 -0.08735681 0.00737008
-0.026973903 0.028122386 -0.05390528 0.02935077 -0.04226235 -0.008443175 0.020719709 -0.016375568
0.01492021 0.03903009 -0.047615506 0.021469474 -0.052569043 -0.017999448 0.09387583 0.103155226
-0.084222935 -0.10586299 -0.0053781983 -0.11774606 -0.10512978 -0.07903723 -0.19844083 -0.003163915
-0.03629972 -0.08501957 -0.056032233 -0.0065048044 -0.11319725 -0.03153762 0.023250194 -0.03706699
00000000: 9c26 23bc 0458 3abd 8916 9abd cd62 10bd
00000010: 9f12 2dbd 3420 ab3c ae55 3b3d c04d 50bc
00000020: 5304 afbc b1b8 6c3d 0fd0 56bb f878 d33c
00000030: f85d 523d 062c 463d a5cc bdbd 2788 0cbd
00000040: 8ca0 ed3c 99ba b3bc 5326 fb3c 3b7b b7bd
00000050: cd7b 423d 9689 283d ce3d 063d d161 db3c
00000060: d427 b4bd 81a4 0c3d 0551 22bd 92c1 7fbd
00000070: 70b4 80bb 1212 313d 7012 b0bb 9458 0e3d
00000080: 92be 81bd 4678 893d 57ed 873d 92dc 233d
00000090: f80b 99bd 9071 43bc ade8 65bd 1825 1a3c
000000a0: e564 323c d399 003d 80e0 b63b 5bee 88bd
000000b0: fe59 913d 1c4b b43b 6f1b 5ebd f675 9ebd
000000c0: 8927 413b 41d1 82bc d922 38bc 1ae9 c5bd
000000d0: 9baf 97bd 0e6d 823c 598a 673d 9f74 96bd
000000e0: 36cd 2d3d ce20 babd 0e55 d3bd b91a 983c
000000f0: 1040 1f3c fea5 43bc af8d c5bd fded 81bd
00000100: bb8f 22bd ad78 4bbd e547 abbd 8f1b 6cbd
00000110: 74da 003d ccbd 6d3d 083f 62bc db06 fdba
00000120: 8808 443d 7032 b13c 1045 bc3c 789e 6dbd
00000130: c9af febc f861 afbd 8e7b bc3c 5519 3cbd
00000140: 160c f4bc 842d fe3c 70df a03c e771 b0bd
00000150: 2a2a 373c 920f 183c 840f f5bb 1c59 a7bc
00000160: 9bca 8a3d 679a a53d 106f ccbd 5039 adbc
00000170: deb7 f9bc 7869 4ebc 6ba0 8e3d 486b f13c
00000180: 5d39 aebd f986 69bc d35d 4c3d 4a26 4ebd
00000190: 2a08 cebd 102e cebd d20d f3bc c1a2 5f3b
000001a0: bc75 e03c cea3 503d dc24 0a3c 9c47 43bd
000001b0: a4f4 123d 5b74 79bd a3cb 9b3d a85e 933d
000001c0: 2485 0b3d 947c e33c 5cf7 8c3d 10aa 103d
000001d0: 5983 953d d389 71bc 1a25 393d 320d 753d
000001e0: 1658 6a3d 7879 ebbc 9fbb 54bd 51a1 64bd
000001f0: 4055 8fbd f038 7dbc a662 a4bc 6930 713d
00000200: 4c5e 0d3d 7636 0cbd cb0d 1b3c 2e73 a8bd
00000210: 45d6 933d d3ba 70bd 71eb f5bb ea58 943d
00000220: 67b6 38b9 8515 943d c4db 44bd 4901 14be
00000230: 91fa 3ebe 1736 f73a d839 a3bd 6f39 7bbd
00000240: 331c 343d f5d0 e0bd 3a0a 903c 2349 653c
00000250: df2e 9e3d 7026 693c b49b b5bc 9fc0 0dbd
00000260: e11c 533c 5ef6 80bd 8ce2 273d 770e 2c3c
00000270: a0a6 3abd 3790 a73d 709c 8ebd ce03 d6bd
00000280: 07d2 873b db2b abbc 9b7d d3bd d42d 3bbc
00000290: 0963 a7bd c9bb 31be c615 febd b53d c4bd
000002a0: 2f97 833d 5890 c6bb 0142 dbbd abeb b0bd
000002b0: 9edb 05bd 5047 babd 5ca0 e93c 875b 9cbd
000002c0: ccbc 0f3d 4469 5fbe 3e7e b2bd ba4a aebd
000002d0: 1a9e 3ebd 6b4e 8fbd 884a 25bc f1c4 133c
000002e0: fe6f bcbd 610e debd ff26 32be d446 12bd
000002f0: 0c95 f7bd eaac 223d e89d d7bd 5dfb 1b3c
00000300: 28eb cebd 0b21 0bbd 26e2 8dbd 94d4 09ba
00000310: f252 afbd e6ec 0e3d 50cf c1bc 0c95 efbd
00000320: 3c7f 13be 9a44 013d d261 083d b743 813b
00000330: 9d44 573d 32b7 a0bd 4202 ffbd 8e43 f43c
00000340: 30e8 74bd 30a7 28be d16b b63d 683c a0bd
00000350: 16d9 a0bd 52ed 00bd bb39 f43c bcec cabd
00000360: 561a d2bd ed60 833c 42a9 b7bd 1374 bf3d
00000370: bf6c 893d 4bbf c2bd 21e8 b2bd b680 f13b
00000380: 60f8 dcbc eb60 e63c c8cb 5cbd 0771 f03c
00000390: 491b 2dbd 3e55 0abc 61bc a93c 0e26 86bc
000003a0: e573 743c 04de 1f3d 7a08 43bd c0e0 af3c
000003b0: a352 57bd 9473 93bc f941 c03d 0c43 d33d
000003c0: 137d acbd b2ce d8bd 993b b0bb d924 f1bd
000003d0: 484e d7bd 45de a1bd 1334 4bbe af59 4fbb
000003e0: 04af 14bd be1e aebd 0e82 65bd 4126 d5bb
000003f0: f6d3 e7bd 972d 01bd 3177 be3c 8ed3 17bd

fc2.bias f4 [128]
0.023898771 -0.043067366 0.030857155 -0.027874254 0.005227574 1.9059647 2.082611 0.55718374
4.20505 1.8735652 1.8966621 -0.010250416 2.0317852 0.61194026 0.006962262 1.2626606
-0.08974031 0.49711332 -0.017335901 0.58337396 0.4465419 0.7695857 -0.10698734 0.7514021
-0.016752576 3.7536504 3.5935678 1.9004279 -0.06119801 2.0021675 1.2479362 -0.08201781
2.0620158 0.16490783 1.8942517 -0.073639154 1.975779 -0.013564845 -0.054107543 1.9126889
-0.035787117 0.053588115 1.8544663 0.007842912 0.41624236 0.47469622 0.20168665 2.012457
0.12557727 -0.1192879 0.9171697 0.8139623 0.26645693 2.332543 -0.034950648 0.019510573
0.8156655 0.5677249 0.5071589 -0.024352 1.1302842 -0.03264087 0.31125653 1.8087888
0.4238643 0.041328754 1.2305366 0.02707332 0.11637663 -0.16286825 0.16809146 0.22349764
-0.03488909 0.09995544 0.4260876 1.8985511 -0.2786245 0.74267304 1.9261945 2.4723928
4.3688374 0.6191608 -0.057786543 0.053635906 2.963891 -0.11729736 1.7675786 1.3632362
1.9536527 -0.12349131 3.742555 -0.06919225 0.7911339 0.4798354 0.30808836 1.0083002
0.5588168 -0.38831306 2.1177511 2.0614839 -0.0021507533 1.2345827 0.24550259 0.43578252
-0.07794243 -0.011011515 0.05354781 -0.13229866 -0.15112749 0.43972665 0.21796046 -0.015411874
0.011358439 -0.12946706 1.8008877 -0.019174682 1.352638 -0.053731363 -0.1088446 4.150113
-1.0571805 1.8666515 0.531613 0.26280516 0.6969411 0.003851984 -0.22495247 1.5358474
00000000: 5bc7 c33c 6867 30bd 25c8 fc3c 8c58 e4bc
00000010: 124c ab3b a7f6 f33f 8049 0540 98a3 0e3f
00000020: c58f 8640 fcd0 ef3f d3c5 f23f 5cf1 27bc
00000030: c508 0240 1ea8 1c3f b023 e43b dd9e a13f
00000040: c5c9 b7bd a385 fe3e 0504 8ebc ff57 153f
00000050: 24a1 e43e 9203 453f 2e1c dbbd e35b 403f
00000060: b33c 89bc cf3b 7040 04fd 6540 3941 f33f
00000070: c4aa 7abd 8323 0040 60bc 9f3f f4f8 a7bd
00000080: 11f8 0340 99dd 283e d776 f23f 20d0 96bd
00000090: 54e6 fc3f 153f 5ebc df9f 5dbd fdd2 f43f
000000a0: 8395 12bd 367f 5b3d 275f ed3f 8f7f 003c
000000b0: b81d d53e 620b f33e f286 4e3e 18cc 0040
000000c0: 5497 003e 374d f4bd a2cb 6a3f d55f 503f
000000d0: 0b6d 883e 6248 1540 6928 0fbd a3d4 9f3c
000000e0: 74cf 503f 6b56 113f 2ad5 013f d87d c7bc
000000f0: 27ad 903f 6fb2 05bd 045d 9f3e 6486 e73f
00000100: be04 d93e 5748 293d 3982 9d3f dec8 dd3c
00000110: df56 ee3d efc6 26be 2b20 2c3e 91dc 643e
00000120: dde7 0ebd 70b5 cc3d 2728 da3e b903 f33f
00000130: dfa7 8ebe d21f 3e3f 8b8d f63f af3b 1e40
00000140: 84cd 8b40 5281 1e3f 95b1 6cbd 53b1 5b3d
00000150: 64b0 3d40 9939 f0bd 0440 e23f 867e ae3f
00000160: 4b11 fa3f 03e9 fcbd 0586 6f40 abb4 8dbd
00000170: c087 4a3f fcac f53e c2bd 9d3e fb0f 813f
00000180: 9e0e 0f3f f8d0 c6be 3c89 0740 5aef 0340
00000190: a7f3 0cbb ce06 9e3f 0865 7b3e e31e df3e
000001a0: 48a0 9fbd a469 34bc f354 5b3d 4d79 07be
000001b0: 2ac1 1abe da23 e13e 0731 5f3e 1682 7cbc
000001c0: bf18 3a3c 0393 04be 7d83 e63f 3914 9dbc
000001d0: 3e23 ad3f 6b15 5cbd ebe9 debd bacd 8440
000001e0: b151 87bf 70ee ee3f ca17 083f 668e 863e
000001f0: bb6a 323f 9171 7c3b f159 66be a696 c43f

out.weight f4 [3, 128]
0.03363027 -0.0036633143 1.0168561 0.058067042 -0.06570766 -0.124420255 -0.8073112 0.28008145
-0.27391955 -0.1924808 -0.19192284 0.0048672915 -0.50445384 0.0061333524 0.011109248 0.9359316
0.048621964 0.012947251 -0.09421746 0.028839339 -0.00503053 0.013973084 -0.0049365736 -0.02584712
0.018882629 -0.2804921 -0.13870919 -0.159381 -0.033722505 -0.108223476 -0.672257 0.019574102
-0.17953335 -0.060391586 -0.1458021 -0.0982441 -0.10079478 0.03632068 0.00537595 -0.084680416
-0.047802184 0.011269718 -0.04839895 0.046052672 0.84307516 -0.018399786 0.0029995246 -0.17735605
0.0102457665 0.04343147 -0.3507545 -0.005427244 0.01675059 -0.8611796 0.05977799 0.03763425
-0.019138297 -0.1523095 -0.026750252 -0.038161237 -0.040103238 -0.40084228 -0.013749944 -0.06902616
0.016904863 0.030473271 -0.010914782 -0.021582134 0.088570595 0.061804075 -0.012161011 0.03878877
0.017324893 -0.019685538 0.02506527 -0.108989485 0.09265763 0.007300377 -0.20773712 -0.28923643
-0.34221125 -0.0036099446 -0.00034202923 -0.05407071 -0.47433916 0.19265176 0.13517699 -0.040618237
-0.29648235 -0.058970883 -0.2407911 -0.14943199 -0.65972054 1.1372669 -0.039541434 0.07708378
0.5612038 1.257996 0.022087712 -0.81012297 -0.0011330836 0.13511191 0.048330132 -0.019288411
0.070903316 0.062941715 -0.04442935 -0.07272528 0.06260335 0.19946744 0.015521349 0.034771964
-0.046819028 -0.0048824064 -0.11084919 -0.076395884 0.12475018 0.009739628 0.05790419 -0.36941466
0.9538775 -0.10730353 -0.038382944 -0.00013389415 0.0008567143 -0.049873184 0.09475862 -0.021334928
-0.0641836 -0.011772912 1.1817096 -0.03785382 0.056127172 0.024779044 -0.8178858 0.06782758
-0.2886137 -0.17001213 -0.12683493 0.0021830066 -0.4152796 0.006520854 0.07706005 1.0046315
-0.0037913234 -0.02307811 0.012269377 -0.016273871 -0.014752861 0.007515945 -0.030989429 -0.046789803
0.05882734 -0.25440335 -0.07902137 -0.20055586 -0.013844881 -0.19872817 -0.6212422 -0.03513246
-0.17878972 0.007571129 -0.21008986 0.023467593 -0.18735267 0.037296023 0.06267689 -0.15689309
-0.01583988 0.011966166 -0.17763543 -0.008729832 0.7880244 0.030202262 -0.0109058 -0.16797532
-0.05114886 0.07599638 -0.11848484 -0.0117729 0.00021264907 -0.82461494 0.06533272 0.015226535
-0.015562755 -0.14828147 -0.01703379 -0.021060104 0.02685836 -0.52796495 -0.026174303 -0.120700814
0.033740167 -0.08615762 0.061712548 0.057651844 -0.07927941 0.15252289 0.006676694 -0.028197609
-0.04064759 -0.0029034931 -0.009183044 -0.1659417 0.10975665 -0.02509276 -0.17667632 -0.25584066
-0.31910777 -0.012667172 -0.031088416 0.022569466 -0.4595059 0.06601416 -0.21905339 0.01011342
-0.18569595 0.07805712 -0.2889975 -0.10527853 -0.5778613 1.0915987 -0.013364546 -0.06359963
0.5889731 1.3475358 -0.017473381 -0.8113851 0.043936417 0.015329141 0.027863057 -0.0006337794
0.050743915 -0.013396248 -0.021984018 0.041056585 0.012653669 0.23713924 -0.03992806 -0.15492886
0.0074789133 0.12697081 -0.13543428 0.009729194 -0.02971876 -0.06784637 0.07781576 -0.3609291
0.8892303 -0.0034372269 -0.05640325 -0.023855815 -0.01686985 0.0043636495 -0.038700357 0.015298984
00000000: e5bf 093d 3714 70bb 5728 823f b5d7 6d3d
00000010: bd91 86bd 0cd0 febd f2ab 4ebf d666 8f3e
00000020: 2f3f 8cbe b019 45be 6c87 44be cd7d 9f3b
00000030: e323 01bf 4afa c83b 9003 363c 3799 6f3f
00000040: d327 473d b520 543c 15f5 c0bd 7a40 ec3c
00000050: 25d7 a4bb 5def 643c fbc2 a1bb 57bd d3bc
00000060: beaf 9a3c a99c 8fbe c809 0ebe c634 23be
00000070: 9c20 0abd 45a4 ddbd 0919 2cbf de59 a03c
00000080: 97d7 37be 2b5d 77bd 254d 15be 3434 c9bd
00000090: 7e6d cebd fec4 143d bd28 b03b ed6c adbd
000000a0: 39cc 43bd a0a4 383c fa3d 46bd baa1 3c3d
000000b0: c6d3 573f 26bb 96bc ac93 443b d39c 35be
000000c0: dcdd 273c 32e5 313d 1896 b3be 06d7 b1bb
000000d0: 8938 893c 4476 5cbf c4d9 743d 5f26 1a3d
000000e0: ebc7 9cbc 06f7 1bbe 5823 dbbc f54e 1cbd
000000f0: 4b43 24bd 333b cdbe 7247 61bc 965d 8dbd
00000100: 117c 8a3c 15a3 f93c ead3 32bc 04cd b0bc
00000110: 8064 b53d 4526 7d3d fa3e 47bc f9e0 1e3d
00000120: efec 8d3c 9143 a1bc ae55 cd3c e135 dfbd
00000130: 49c3 bd3d 0038 ef3b 0ab9 54be cc16 94be
00000140: 5036 afbe d294 6cbb 6352 b3b9 4079 5dbd
00000150: 95dc f2be 8146 453e d66b 0a3e 4f5f 26bd
00000160: 89cc 97be 748b 71bd f191 76be b304 19be
00000170: 72e3 28bf f691 913f 33f6 21bd 1ade 9d3d
00000180: 0dab 0f3f 0306 a13f 4af1 b43c 3864 4fbf
00000190: fa83 94ba c75a 0a3e d1f5 453d bb02 9ebc
000001a0: c235 913d 96e7 803d 8dfb 35bd fef0 94bd
000001b0: 2f36 803d 3141 4c3e 424d 7e3c 0c6d 0e3d
000001c0: 4fc5 3fbd 98fc 9fbb e604 e3bd 7275 9cbd
000001d0: 067d ff3d f692 1f3c f22c 6d3d eb23 bdbe
000001e0: 5131 743f f4c1 dbbd 6f37 1dbd f065 0cb9
000001f0: 2095 603a d347 4cbd cf10 c23d 96c6 aebc
00000200: b172 83bd 2ce3 40bc 4342 973f 9b0c 1bbd
00000210: 9be5 653d 6cfd ca3c f760 51bf 30e9 8a3d
00000220: 2dc5 93be a917 2ebe 04e1 01be c610 0f3b
00000230: 879f d4be e3ac d53b a9d1 9d3d c497 803f
00000240: da77 78bb 4e0e bdbc 7f05 493c c850 85bc
00000250: fcb5 71bc 5148 f63b 8bdd fdbc aaa6 3fbd
00000260: f0f4 703d 2841 82be f5d5 a1bd 845e 4dbe
00000270: a4d5 62bc 667f 4bbe bb09 1fbf 0ee7 0fbd
00000280: a714 37be 3c17 f83b cc21 57be 1c3f c03c
00000290: 61d9 3fbe b7c3 183d be5c 803d 95a8 20be
000002a0: a3c2 81bc bd0d 443c 10e6 35be 9207 0fbc
000002b0: f8bb 493f bc6a f73c 3eae 32bc b901 2cbe
000002c0: 7881 51bd fda3 9b3d 2ea8 f2bd 1fe3 40bc
000002d0: 8dfa 5e39 f719 53bf 29cd 853d b778 793c
000002e0: edfa 7ebc 19d7 17be 728a 8bbc 3d86 acbc
000002f0: 1006 dc3c b628 07bf 7e6b d6bc fd31 f7bd
00000300: 2133 0a3d 6873 b0bd 4cc6 7c3d 5724 6c3d
00000310: 3e5d a2bd f62e 1c3e 2bc8 da3b acfe e6bc
00000320: 167e 26bd 8848 3ebb 7a74 16bc 9fec 29be
00000330: 18c8 e03d 558f cdbc a3ea 34be 8cfd 82be
00000340: 1862 a3be f889 4fbc 22ad febc 9ae3 b83c
00000350: 5b44 ebbe 6f32 873d 884f 60be c2b2 253c
00000360: 1427 3ebe 69dc 9f3d 7bf7 93be 459c d7bd
00000370: b8ee 13bf 82b9 8b3f f8f6 5abc 8640 82bd
00000380: f1c6 163f 0e7c ac3f 5624 8fbc efb6 4fbf
00000390: acf6 333d 1427 7b3c 1141 e43c 3724 26ba
000003a0: dad8 4f3d f07b 5bbc d417 b4bc f32a 283d
000003b0: 5651 4f3c a1d4 723e 9b8b 23bd aca5 1ebe
000003c0: ac11 f53b a304 023e 49af 0abe 3367 1f3c
000003d0: c274 f3bc 0af3 8abd df5d 9f3d b3cb b8be
000003e0: 99a4 633f 1943 61bb 1807 67bd 456d c3bc
000003f0: a432 8abc f2fc 8e3b 4484 1ebd 97a8 7a3c

out.bias f4 [3]
-3.264076 -2.6186445 -3.061338
00000000: 9fe6 50c0 df97 27c0 f6ec 43c0
