acrobot_dqn_25-12-5k-64N.pth (torch, 22497 bytes, 6 tensors)

fc1.weight f4 [64, 6]
0	0xbf5be611	-0.8589793
1	0x3faaf4b5	1.3355929
2	0xc01530de	-2.3311076
3	0xbeaab1eb	-0.33338866
4	0xbe0aaabb	-0.13541691
5	0x3ed6b6ca	0.41936332
6	0xbebabd0c	-0.36472356
7	0xbec6f2ca	-0.38857108
8	0xbfc2ca5d	-1.5218006
9	0x3facabc1	1.3489915
10	0x3e38c718	0.18044698
11	0xbf3f1ef9	-0.74656636
12	0x40c62195	6.1915994
13	0xbe15f13e	-0.14642808
14	0x3f478f8d	0.77953416
15	0xbef87d9e	-0.48533338
16	0xbb4c5a06	-0.0031181588
17	0x3dbeca63	0.09315946
18	0xc0025eb3	-2.03703
19	0xbdf6f52e	-0.12058483
20	0xbf058bab	-0.5216624
21	0x3ec73970	0.3891101
22	0xbec79d17	-0.38987038
23	0x3ee0e40c	0.43923986
24	0xbfbf3bb4	-1.4940095
25	0x3f80f2da	1.0074112
26	0x3eba3529	0.36368683
27	0xbf96acef	-1.1771525
28	0x3ca37e84	0.019957788
29	0xbed69dc8	-0.41917253
30	0xbe94e305	-0.29079452
31	0x3fc6a852	1.5520117
32	0xc0320115	-2.781316
33	0xbf1c7efb	-0.61131257
34	0x3f6871f9	0.9079891
35	0x3f8fc516	1.1232021
36	0xbff3e854	-1.9055276
37	0x3fad860a	1.355653
38	0xbf5fca44	-0.8741801
39	0xc01e1674	-2.4701204
40	0xbec966f1	-0.3933635
41	0x3e6e453f	0.23268603
42	0xc002a442	-2.0412755
43	0x3ea0e586	0.31425112
44	0x3f96ae75	1.177199
45	0xbd78acc1	-0.060711626
46	0x3f68d87a	0.9095532
47	0x3f288a5b	0.65836114
48	0xbff16d64	-1.8861508
49	0x3f095de2	0.5365888
50	0x3fa4cb7c	1.2874599
51	0x3f066266	0.52493894
52	0xbf8512e4	-1.039639
53	0xbedc7772	-0.4305988
54	0xbf4ecb30	-0.8077879
55	0xbf58fcdb	-0.84760827
56	0xbed8e101	-0.42359164
57	0x3ff96638	1.948432
58	0xbf8fbf22	-1.1230204
59	0xbf167c1b	-0.5878312
60	0xc013abc5	-2.307359
61	0xbe138d4c	-0.14409369
62	0xbfc2c5e6	-1.5216644
63	0xc0095ff0	-2.1464806
64	0xbda44aba	-0.080220655
65	0x3f0fc215	0.5615552
66	0xbe400395	-0.18751366
67	0x3f8ceac2	1.1009142
68	0x3f717d00	0.9433136
69	0x3f8e9e02	1.114197
70	0xbfb3fc0a	-1.4061291
71	0xbd2831ec	-0.041063234
72	0xc01d6b11	-2.4596598
73	0xbcac5ec0	-0.021041274
74	0x3eef0bf8	0.4668882
75	0xbfbf52d9	-1.4947158
76	0xbfcd7c0c	-1.6053481
77	0xbe04b758	-0.12960565
78	0xc02842d3	-2.6290786
79	0x3f743aa7	0.95401996
80	0xc03763b4	-2.8654604
81	0x3f4ed722	0.80797017
82	0x3f394139	0.72365147
83	0x3f217438	0.6306796
84	0x3e808016	0.25097722
85	0x3c564f5e	0.013080446
86	0xbf808c02	-1.0042727
87	0x3f9211d6	1.1411693
88	0xbf27330c	-0.65312266
89	0xbf37aff1	-0.7175284
90	0x3d0b0d8f	0.033948477
91	0x3f9f32ea	1.2437413
92	0xbf210b7b	-0.6290814
93	0x3f74f29b	0.95682687
94	0xbf96c07f	-1.1777495
95	0xbf2cebb6	-0.67547166
96	0xc00aff6e	-2.1718402
97	0x3f8d762d	1.1051689
98	0x3d0fc765	0.035102267
99	0x4019f6f9	2.405699
100	0x3f5c0d68	0.85957956
101	0x3e081475	0.13289054
102	0xbeabadea	-0.33531123
103	0x3f7627a3	0.9615423
104	0x3e941de9	0.2892907
105	0xc01d798f	-2.4605443
106	0x3f6b5828	0.9193139
107	0x3f0db86e	0.5535954
108	0xc0098d29	-2.1492407
109	0x3f554331	0.8330565
110	0xbf8ee0a6	-1.1162307
111	0x3f8b8eb9	1.090293
112	0x3fc2f960	1.5232353
113	0xbe07751f	-0.13228272
114	0x3dfc34a1	0.12314726
115	0xbd73f1f5	-0.05955692
116	0xbdc91984	-0.0981932
117	0xbee3fede	-0.44530386
118	0xbfcc18f1	-1.5945112
119	0x3d90a934	0.07063523
120	0xbff5ae03	-1.9193729
121	0x3f66bae6	0.90128934
122	0x3ff36bef	1.9017314
123	0x3f2ca663	0.67441386
124	0x3d196e19	0.037458513
125	0xbb9e0314	-0.0048221443
126	0xc0299698	-2.6498165
127	0xbe8c549f	-0.2740831
128	0xbeb9c56f	-0.36283442
129	0x3e99effb	0.30065903
130	0xbf9edc5d	-1.2411
131	0xbf014252	-0.5049182
132	0xbfeb7e06	-1.8397834
133	0xbf717ada	-0.9432808
134	0xbffdf3a2	-1.9839976
135	0xbee3672b	-0.44414648
136	0xbf824a70	-1.0178967
137	0x3e65fd7b	0.22459976
138	0xbfd43a1e	-1.6580236
139	0xbea1a953	-0.31574497
140	0x3f0ceb52	0.5504657
141	0xbf00595b	-0.50136346
142	0x3e334706	0.17507562
143	0x3d154571	0.036443178
144	0xbf3b5958	-0.731832
145	0x3f258f7d	0.6467207
146	0xbfad40d1	-1.3535405
147	0xbf8a54dc	-1.0807147
148	0x3efe8b46	0.49715632
149	0x3f131c21	0.57464796
150	0xbe76d4f0	-0.24104667
151	0xbf123805	-0.5711673
152	0xbdcaa91c	-0.09895536
153	0x3f48af72	0.7839271
154	0xbe8ff20a	-0.2811435
155	0xbe1d10a2	-0.15338376
156	0xbf97fd91	-1.1874257
157	0x3f97c5bd	1.185722
158	0xbe260031	-0.1621101
159	0xbf0f5348	-0.5598645
160	0x3b955204	0.004556896
161	0x3e1ff5d6	0.15621123
162	0xbf5e23d4	-0.8677342
163	0xbfbaf8a4	-1.4607129
164	0xbd2fcb6f	-0.04291862
165	0xbf8b816e	-1.0898874
166	0xbf86fe4e	-1.0546358
167	0xbf4d098e	-0.80092704
168	0xbfd802f7	-1.6875905
169	0x3ecb5a84	0.39717495
170	0xbe1bc3d6	-0.15211424
171	0x3c3eb700	0.01164031
172	0x3ea0ab0f	0.31380507
173	0x3e73b778	0.23800457
174	0xbfda70fd	-1.7065731
175	0x3f201dfb	0.62545747
176	0xbf8d2fff	-1.1030272
177	0xbd64b377	-0.055835214
178	0xbf3f4b6f	-0.7472448
179	0x3f05a5dc	0.52206206
180	0xbfae8acd	-1.3636109
181	0xbf87e6b4	-1.061728
182	0xbf08e818	-0.53479147
183	0xbf95412c	-1.1660514
184	0x3f09ecae	0.5387677
185	0xbdfc6a74	-0.12324992
186	0x3eb25993	0.34833965
187	0xbef12c9d	-0.4710435
188	0xbf90a14c	-1.1299224
189	0xbdc50d72	-0.09621705
190	0x3f7986b5	0.9747117
191	0xbe257a49	-0.1615993
192	0x3effbf0b	0.49950442
193	0xbe32ed64	-0.1747337
194	0x3d3fa464	0.046787634
195	0x3dfec946	0.124407336
196	0x3f88bc86	1.0682533
197	0xbd3dda57	-0.046350803
198	0xbf892969	-1.0715762
199	0xc030487e	-2.7544246
200	0xbeac6872	-0.33673435
201	0xbfc49019	-1.5356475
202	0xbe2686e2	-0.16262391
203	0xbf3fa9aa	-0.7486826
204	0xc043c621	-3.0589678
205	0xbf12ddd2	-0.5736972
206	0xbea1f66e	-0.31633323
207	0xbe12b401	-0.14326479
208	0x3f11d43d	0.56964475
209	0x3e14f0dd	0.14545007
210	0xbfac623c	-1.3467479
211	0xbe7c16f5	-0.24618132
212	0x3f4dbeb5	0.8036912
213	0x3e5f0df8	0.21782672
214	0xbe96ab78	-0.29427695
215	0xbe67682d	-0.22598334
216	0xbff170bf	-1.8862532
217	0x3dc2abdd	0.095054366
218	0xbf993859	-1.1970321
219	0x3faab7d2	1.3337348
220	0xbdd53870	-0.10411155
221	0xbf69e522	-0.91365254
222	0xbef4c70d	-0.47808114
223	0xbf6df2a4	-0.92948365
224	0xbe4e84d4	-0.20167857
225	0xc01242de	-2.2853312
226	0x3ea4783e	0.32122988
227	0x3f8002c5	1.0000845
228	0xc00c55e9	-2.1927435
229	0x3e3713fb	0.17878716
230	0xbea97e75	-0.33104292
231	0x3f1eb6b6	0.61997545
232	0x3f784386	0.9697803
233	0x3dab63e9	0.08368666
234	0xbf95d844	-1.1706624
235	0x3fe469ee	1.7844827
236	0xbda58d18	-0.08083552
237	0x3f60395b	0.8758752
238	0x3f9ace75	1.2094256
239	0x3f89343d	1.0719067
240	0x3f99fc9d	1.2030216
241	0x3fa2cc6f	1.2718638
242	0xbfdcf7c6	-1.7263114
243	0xbf1fe053	-0.62451667
244	0x3dee182e	0.11625706
245	0x3e6f955c	0.2339682
246	0xbec171c0	-0.37782097
247	0xbfa9f096	-1.3276546
248	0xc0318a29	-2.7740576
249	0xbf5f5624	-0.87240815
250	0x3c99f020	0.018791258
251	0xbf0608a1	-0.52356917
252	0xbfb0599e	-1.3777349
253	0xbfa7cbc6	-1.3109062
254	0x3fc24ef2	1.5180342
255	0xbf97da6b	-1.1863531

fc1.bias f4 [64]
0	0xbfe51b1a	-1.7898896
1	0xc055ac86	-3.338655
2	0x408d5bda	4.4174623
3	0xbfa43784	-1.2829442
4	0xc017d4d0	-2.372364
5	0xc024417b	-2.5664966
6	0xc016dc71	-2.3572047
7	0x3f670253	0.9023792
8	0x3f3f7021	0.7478047
9	0xc026880d	-2.6020539
10	0xbf926730	-1.143774
11	0xc066b0c0	-3.604538
12	0xc02bf192	-2.6866193
13	0xbff0790e	-1.8786943
14	0xc026df06	-2.6073623
15	0xbfa4fafd	-1.2889096
16	0xbfec908b	-1.8481611
17	0xc001537f	-2.0207212
18	0xc030264d	-2.7523377
19	0xbfb8f35d	-1.4449269
20	0x3e5883b1	0.21143986
21	0xbff8ebc0	-1.9446945
22	0xc0177b60	-2.3669052
23	0x40075f67	2.115198
24	0xbdcfce61	-0.101467855
25	0x3ddf8edb	0.109159194
26	0x3e96caa1	0.2945147
27	0xc00def88	-2.2177448
28	0x4006858d	2.1019013
29	0xc0754aab	-3.8326824
30	0x3f173873	0.5907051
31	0xbfd80abc	-1.6878276
32	0xbf1fc3d7	-0.624082
33	0xbfb15b88	-1.3856058
34	0xc009f8b1	-2.155804
35	0x3fd06881	1.6281892
36	0xc02cbaa3	-2.6988914
37	0xc0288b57	-2.6335046
38	0xc01b5379	-2.4269698
39	0xbfb90ab5	-1.4456393
40	0xbf83ab4e	-1.0286653
41	0xbff60c9d	-1.9222599
42	0xbea158c8	-0.31513047
43	0x3fa2152a	1.2662709
44	0xc089b81f	-4.3037257
45	0xbfcd486e	-1.6037729
46	0xbfbd86b3	-1.4806732
47	0xbfce7e58	-1.6132307
48	0xbfd62f8a	-1.6733258
49	0xc00d9b4f	-2.2126043
50	0xbf2b75be	-0.66976535
51	0xc0025eb5	-2.0370305
52	0xc02b587a	-2.6772752
53	0xbf9f0947	-1.2424706
54	0xbd92a2ad	-0.07159934
55	0x3da356be	0.07975529
56	0xbda2a41f	-0.0794146
57	0xbf686c04	-0.9078982
58	0x3e9f7cb8	0.3114984
59	0xbf861b74	-1.0477128
60	0x3ef59eac	0.4797262
61	0x3ffc37e0	1.9704552
62	0x3f814193	1.0098137
63	0xbfff970a	-1.9967968

fc2.weight f4 [64, 64]
0	0xc0971031	-4.7207265
1	0xbdccf759	-0.10008115
2	0xbed0c2df	-0.40773675
3	0xc0402c6c	-3.0027113
4	0xbe957087	-0.29187414
5	0x4054d165	3.3252804
6	0xc0470ad3	-3.1100357
7	0x3fb6603a	1.4248116
8	0x3e6ef123	0.23334174
9	0x4014f9d9	2.3277495
10	0x3eb0ac76	0.34506577
11	0x4034d900	2.8257446
12	0xbe11a9ee	-0.1422498
13	0xbeec6e0b	-0.46177706
14	0xbf00e52f	-0.50349706
15	0x3f323811	0.696168
16	0x3e711e5e	0.2354674
17	0xc0889d0d	-4.269171
18	0x3f3a10d1	0.7268191
19	0xbd12dbe9	-0.035854254
20	0x3e949f28	0.29027677
21	0x3f8f1983	1.117966
22	0xbf8cef5c	-1.1010547
23	0xbf65f189	-0.8982168
24	0x3f01aded	0.50656015
25	0x3f6953e1	0.91143614
26	0xbe992220	-0.29908848
27	0x3d12eb16	0.035868727
28	0xbf04ba20	-0.51846504
29	0xbfa368d4	-1.2766366
30	0x3eb03f15	0.34423128
31	0xbd836bfd	-0.064170815
32	0xbd5d0b55	-0.053965885
33	0x3f9cd35e	1.2252004
34	0xbf0f0a36	-0.55874956
35	0x3e803cde	0.25046438
36	0x3ed4c7de	0.41558737
37	0xbfec3aa2	-1.8455393
38	0xbfa24e5c	-1.2680163
39	0x3fc219c3	1.5164112
40	0x3fe29da1	1.7704355
41	0x3f0bb8fb	0.5457913
42	0xbf22c3da	-0.63580096
43	0xbf031df0	-0.51217556
44	0x3f6160e6	0.8803848
45	0xbee5e8e0	-0.44904232
46	0x3df5c979	0.120013185
47	0xbed6e144	-0.4196874
48	0xbedca208	-0.4309237
49	0xbfe90e5a	-1.8207505
50	0xbee10401	-0.43948367
51	0xc112e3a4	-9.180576
52	0xc08eab74	-4.4584293
53	0x3e4e2c73	0.20134144
54	0x3f332b86	0.69988286
55	0x3f066f93	0.52514
56	0x3fb836b8	1.4391699
57	0xbef042e4	-0.46926033
58	0x3e3896dc	0.18026298
59	0x3eddd129	0.4332364
60	0x3efdddc2	0.4958325
61	0xbead62ef	-0.33864543
62	0xbebb86f9	-0.36626413
63	0xbf5567f1	-0.83361727
64	0xbd847c15	-0.06468979
65	0x3bd843fb	0.006599901
66	0xbd15959a	-0.036519624
67	0xbdaa4c88	-0.083153784
68	0xbe206a8d	-0.15665646
69	0x3bd5d4d7	0.0065256166
70	0xbd1fd066	-0.039017104
71	0xbdc070f4	-0.09396544
72	0xbd54b2da	-0.05192838
73	0xbb68c3ca	-0.003551709
74	0xbbb37c41	-0.0054774587
75	0xbe072e65	-0.13201292
76	0xbdb7d1f9	-0.08975596
77	0xbe515928	-0.20444167
78	0xbd2994a9	-0.04140154
79	0xbd3fe274	-0.046846822
80	0xbdf8c985	-0.12147812
81	0x3cb6e423	0.022325581
82	0x3cabdf2e	0.020980444
83	0xbd4745a5	-0.048650403
84	0xbd9a2cc7	-0.07528072
85	0xbd91d58d	-0.0712081
86	0xbd3d5e76	-0.046232663
87	0xbd9f9edb	-0.07793971
88	0xbd2f0ab3	-0.042734813
89	0xbb7e1f4c	-0.0038775979
90	0xbc80d5ab	-0.015726885
91	0xbe3b57e4	-0.18295246
92	0xbe5be7ab	-0.21475093
93	0xbdde308a	-0.10849102
94	0xbe4ade37	-0.1981133
95	0xbc98b807	-0.018642439
96	0x3d189429	0.03725067
97	0xbd7cdb60	-0.06173265
98	0xbe406823	-0.18789725
99	0xbdd1465d	-0.10218499
100	0xbcdbaa0f	-0.026814489
101	0xbd46c3f9	-0.048526738
102	0xbdb4bac5	-0.08824686
103	0xbdc1b0de	-0.09457563
104	0xbe081553	-0.13289385
105	0xbe2f8838	-0.17141807
106	0xbd51eef5	-0.051253278
107	0xbe9f2565	-0.31083217
108	0xbe0c091b	-0.13675348
109	0xbe1bcaa8	-0.15214026
110	0xbd872601	-0.065990455
111	0xbe2b8245	-0.16748913
112	0xbc8c87ad	-0.017154539
113	0x3da1402b	0.07873567
114	0x3b200809	0.0024418852
115	0xbc893043	-0.016746646
116	0xbe16f979	-0.14743604
117	0x3baeeab0	0.0053380355
118	0xbe4f5030	-0.20245433
119	0xbdc7a7bd	-0.097487904
120	0x3b85cbf6	0.004083152
121	0xbd68b837	-0.056816306
122	0xbdfa1565	-0.12211112
123	0xbdcc548c	-0.099770635
124	0xbe1542ed	-0.14576311
125	0xbe7519e0	-0.23935652
126	0xbb90e207	-0.004421476
127	0xbe6cb5ad	-0.23116179
128	0x3e56ff9e	0.20995948
129	0xc025752f	-2.5852773
130	0xbe97bf31	-0.29638055
131	0xbff9ff3b	-1.9531015
132	0xc000e19f	-2.0137708
133	0xc04196a9	-3.0248206
134	0x3e583fb5	0.21118052
135	0x3f8471c6	1.0347221
136	0xbea554c0	-0.32291222
137	0x401c82ba	2.445479
138	0xbf245154	-0.64186597
139	0x3d2177bb	0.039420824
140	0xbfe05c0a	-1.7528088
141	0x3f8789a4	1.058888
142	0xbd4bc0b3	-0.04974432
143	0x3ed95022	0.4244395
144	0xbf82212d	-1.0166374
145	0xbd73dc06	-0.059536003
146	0xc00f1a26	-2.235971
147	0xbf6c001e	-0.9218768
148	0x3f024081	0.50879675
149	0x3f8081d2	1.0039618
150	0x3ef9e090	0.4880414
151	0x3e03d5a1	0.12874462
152	0xbe7e5a13	-0.24839048
153	0xbf0c69b1	-0.5484877
154	0x4033c979	2.809172
155	0x3fbb5b82	1.4637301
156	0x3ef365e2	0.47538668
157	0xc047c3a3	-3.1213157
158	0xbf8e5fd8	-1.1122999
159	0x3f20d0a9	0.6281839
160	0x3fc7aa4a	1.5598843
161	0xbf240f02	-0.640854
162	0x3ee34a08	0.4439242
163	0x3f16aa4c	0.588536
164	0xc0306cc3	-2.7566383
165	0x3fd1e263	1.6397213
166	0x4057d0ce	3.3721194
167	0xc08f00fd	-4.4688706
168	0xbf9a0125	-1.2031599
169	0x3dc834b7	0.097756796
170	0xbfbfb522	-1.4977152
171	0x3f836aa6	1.0266922
172	0xbc5bd990	-0.01341857
173	0xbec21961	-0.37909988
174	0x400566bb	2.0843952
175	0x3f9eb21c	1.2398105
176	0xbe1196c9	-0.14217676
177	0x3f3f8695	0.7481473
178	0xc00f59b8	-2.239851
179	0xbe60094d	-0.21878548
180	0xbf8b5049	-1.0883876
181	0xbfbe7504	-1.487946
182	0xbf5cf46b	-0.8631045
183	0x3e567c20	0.20945787
184	0x3d2a1fa0	0.041534066
185	0x3ecd4dea	0.40098506
186	0xbf3a8f75	-0.7287515
187	0xbebcbab1	-0.36861184
188	0xbf5f80f6	-0.87306154
189	0x3f624123	0.8838064
190	0xbecc6b44	-0.39925587
191	0xbfaa77d5	-1.331782
192	0xbe0b7a12	-0.13620785
193	0x3ebbdbe0	0.3669119
194	0xbe856729	-0.26055267
195	0xbf637351	-0.88847834
196	0x400bd3f2	2.184811
197	0x4029a09e	2.6504283
198	0x3f061ec6	0.52390707
199	0x3f672134	0.9028504
200	0x3e6e05b0	0.23244357
201	0x3fb5b520	1.41959
202	0xbe08e51a	-0.13368645
203	0x3fd7a471	1.6847059
204	0x40171a85	2.3609936
205	0x40152529	2.330393
206	0x3f679122	0.9045583
207	0xbfee5377	-1.8619221
208	0xbcaf1304	-0.021371372
209	0x3f5ad178	0.85475874
210	0x3f7dd239	0.991489
211	0x3e2f2cf9	0.17107
212	0x3ef8d3ef	0.48599193
213	0xbe10aa28	-0.1412741
214	0xbe937930	-0.28803396
215	0xbeadc42f	-0.3393874
216	0xbfc10c0e	-1.5081804
217	0xbf6b2768	-0.91857004
218	0x3f2d6bb2	0.67742455
219	0xbfb6786c	-1.42555
220	0xbeb744a7	-0.35794565
221	0x3f7182a2	0.94339955
222	0xbdff5663	-0.12467649
223	0x3eb3054e	0.34964985
224	0x3f05b82e	0.5223416
225	0xbeb96317	-0.36208412
226	0x3f68d717	0.909532
227	0xbe00b70e	-0.1256983
228	0xbf05bd26	-0.5224174
229	0xc030cca4	-2.7624903
230	0xc091fa21	-4.5617833
231	0xc076043c	-3.8440084
232	0xc0a6e6f9	-5.215695
233	0x3e2d1bed	0.16905184
234	0xbf319a14	-0.6937573
235	0xbf03d03c	-0.51489615
236	0x3f980b55	1.1878458
237	0x3ed20a14	0.41023314
238	0x3f887839	1.0661689
239	0xc0087b6d	-2.1325333
240	0xbe317f23	-0.17333655
241	0x3f653005	0.89526397
242	0x3f086b91	0.53289133
243	0x3faacfbb	1.3344644
244	0xc0630974	-3.547452
245	0xbd88dbea	-0.0668257
246	0xbfa5c576	-1.2950885
247	0x3f78cf9d	0.9719179
248	0xbf1d42c0	-0.6142998
249	0x3f963194	1.173388
250	0xbec7d939	-0.39032915
251	0x3f0ada29	0.54239136
252	0xbf023cbd	-0.5087393
253	0xbf26e4d3	-0.6519291
254	0xbf22311a	-0.63356173
255	0xc00213d8	-2.0324612

fc2.bias f4 [64]
0	0xbf289121	-0.6584645
1	0xbdf04787	-0.11732393
2	0x3fbfeb43	1.4993671
3	0xbf5d9af4	-0.86564565
4	0x4037574d	2.8647034
5	0x3f551e3c	0.8324926
6	0x3bddd935	0.006770278
7	0xbe927483	-0.28604516
8	0x40b2c06c	5.585989
9	0xbd30da8c	-0.043177173
10	0xbe31f99b	-0.17380373
11	0xbe3290b4	-0.17438012
12	0x40b0a679	5.5203214
13	0x4002ae20	2.0418777
14	0x4083fa51	4.124306
15	0x40b674d3	5.701761
16	0x3e7efc97	0.24901043
17	0x40bb4957	5.8527026
18	0x3fd39527	1.6529893
19	0xbea0cc3e	-0.31405824
20	0x3fa888f8	1.31668
21	0x3f7ab744	0.9793589
22	0x40ba0d43	5.814119
23	0x4036b09c	2.8545294
24	0x3f7f8182	0.9980699
25	0x40a93e19	5.2888303
26	0xbf461ea9	-0.77390534
27	0x40758240	3.8360748
28	0x408d00ef	4.406364
29	0x408cb0a9	4.396565
30	0xbe124105	-0.14282615
31	0x3fd21383	1.6412205
32	0xbe166d72	-0.14690188
33	0x3fbb0f43	1.4614033
34	0x404efbca	3.234118
35	0x3ffd6255	1.9795634
36	0x3fc678c6	1.5505607
37	0x40ad05f8	5.4069786
38	0x3fe1a6e8	1.7629061
39	0x402df38a	2.7179894
40	0x401892d3	2.3839614
41	0x3c4e8e9e	0.012607245
42	0x3fe38b66	1.7776916
43	0x4086e3ac	4.215292
44	0x4059a1b5	3.4004948
45	0x409b67ed	4.8564363
46	0xbe2fa338	-0.17152107
47	0xbde3eda9	-0.111293145
48	0x4002e194	2.0450182
49	0xbe1b76bc	-0.15182012
50	0xbdc0078c	-0.093764395
51	0x4090905a	4.517621
52	0x3f9caf75	1.2241045
53	0x402b79be	2.6793056
54	0xbe31cabf	-0.17362498
55	0x40b160ef	5.5430827
56	0xbe3de283	-0.18543439
57	0xbc8ae84a	-0.016956467
58	0x403ded7c	2.96762
59	0xbeb105eb	-0.34574828
60	0x3feec12f	1.8652705
61	0x3f65ad3f	0.8971748
62	0x3fefd863	1.8737911
63	0x40281922	2.626534

out.weight f4 [3, 64]
0	0x3fbed674	1.4909196
1	0x3bd1a910	0.0063983276
2	0x3ece3896	0.40277547
3	0x3f4dc932	0.80385125
4	0x3f1cfda9	0.61324555
5	0x3f037e66	0.51364744
6	0xbbb4496f	-0.005501918
7	0xbcf8946a	-0.030344207
8	0xbe939282	-0.28822714
9	0x3ca7c7c3	0.020480996
10	0x3c279ff6	0.010231009
11	0x3d81dfba	0.063415006
12	0xbe4daabc	-0.20084661
13	0xbee4ff66	-0.44726104
14	0xbe468970	-0.19388366
15	0xbe25ce80	-0.16192055
16	0xbf81ffb1	-1.0156156
17	0xbea04ab3	-0.3130699
18	0xbf01fa46	-0.5077251
19	0xbc2dddba	-0.010611946
20	0x3fc559ec	1.5418067
21	0xbbee2f78	-0.0072688423
22	0xbe6e64c0	-0.2328062
23	0xbedc7e8b	-0.43065295
24	0xbc15e1ae	-0.0091480445
25	0xbea41044	-0.3204366
26	0x3f91b117	1.1382169
27	0xbeb4f8b8	-0.35346007
28	0xbe764c4e	-0.24052545
29	0xbeae30cf	-0.34021613
30	0xbc838cef	-0.016058413
31	0xbecae6c3	-0.39629182
32	0xbd77a3d0	-0.06045896
33	0xbeb48d48	-0.3526404
34	0xbe2d3f3f	-0.16918658
35	0xbf674a48	-0.9034772
36	0xbea9bb02	-0.33150488
37	0xbe8d8eb6	-0.27647942
38	0xbdc91e2e	-0.098202094
39	0x3ea6cfc8	0.325804
40	0x3d8519da	0.064990714
41	0x3d44201e	0.04788219
42	0xbe5f0542	-0.2177935
43	0x3d81696e	0.06318937
44	0xbedff7e9	-0.43743828
45	0xbe98068f	-0.29692504
46	0xbde79424	-0.113075525
47	0x3cfa64da	0.030565668
48	0xbfaf880e	-1.3713396
49	0xbf93a894	-1.1535821
50	0x3fb7c940	1.4358292
51	0xbe238b02	-0.15970996
52	0xbec894db	-0.39176068
53	0xbee935b1	-0.45548776
54	0xbf61939a	-0.8811585
55	0xbeaab019	-0.33337477
56	0x3dc759f6	0.097339556
57	0xbc1b04bf	-0.009461581
58	0xbe90d5e3	-0.28288183
59	0x3d4d60a3	0.050140988
60	0xbe33cff1	-0.17559792
61	0xc000e935	-2.0142338
62	0xbe14892a	-0.14505449
63	0xbe5d4c4f	-0.2161114
64	0x3fb86637	1.4406193
65	0xbaeb65a9	-0.0017959374
66	0x3ec32013	0.38110408
67	0x3f4afb2c	0.7928951
68	0x3f097840	0.5369911
69	0x3ec904f6	0.39261597
70	0x3d5b4c55	0.053539593
71	0x3d047fab	0.032348316
72	0xbe8f2f61	-0.27965835
73	0x3c911efa	0.017714966
74	0x3cdc444b	0.026888033
75	0x3ca656a5	0.020304987
76	0xbe502a94	-0.20328742
77	0xbec9b399	-0.39394835
78	0xbe8a7b75	-0.27047315
79	0xbe06413b	-0.13110821
80	0xbf80e3f1	-1.0069562
81	0xbea9e5e1	-0.33183196
82	0xbf118a5a	-0.5685173
83	0x3c882a81	0.01662183
84	0x3fb2da27	1.3972825
85	0xbc006b81	-0.007838131
86	0xbe66aa5d	-0.22525926
87	0xbeb614b0	-0.35562658
88	0x3af4cd1c	0.001867685
89	0xbe966a3c	-0.29377925
90	0x3f8ffd6f	1.1249217
91	0xbee2bec5	-0.4428617
92	0xbe6745cf	-0.22585224
93	0xbe9da5e2	-0.3079062
94	0x3cd8cae0	0.026463926
95	0xbebc6f7b	-0.36803803
96	0x3d48630b	0.04892258
97	0xbeab1400	-0.33413696
98	0xbd1e8404	-0.03870012
99	0xbf876652	-1.0578101
100	0xbe750fb1	-0.23931767
101	0xbea6cd6e	-0.32578605
102	0xbe10dcf2	-0.14146784
103	0x3e5032fe	0.20331952
104	0x3e6ca8c0	0.23111248
105	0x3d292172	0.04129166
106	0xbe823843	-0.2543355
107	0xbe03c124	-0.12866646
108	0xbed714e4	-0.42008126
109	0xbe9e0bd8	-0.3086841
110	0xbccfaff5	-0.025352458
111	0x3d593aef	0.05303472
112	0xbf94306b	-1.1577276
113	0xbf8e4532	-1.1114867
114	0x3f841f0e	1.0321977
115	0xbe8ba974	-0.2727772
116	0xbeb07646	-0.34465235
117	0xbeed2138	-0.46314406
118	0xbf69c211	-0.91311747
119	0xbe9ad28b	-0.30238757
120	0x3da0f0d5	0.07858435
121	0xbc2fc13f	-0.010727226
122	0xbda230c5	-0.07919458
123	0x3dba2557	0.09089153
124	0xbe8b88a3	-0.27252683
125	0xbfe9e865	-1.8274046
126	0xbe30d6e1	-0.1726947
127	0xbd962637	-0.07331508
128	0x3fb4da55	1.412913
129	0xbe191dcc	-0.14952773
130	0x3eb3745a	0.35049707
131	0x3f5a0b7c	0.85173774
132	0x3f13545d	0.57550603
133	0x3ed3a845	0.41339317
134	0x3d0c54f0	0.03426069
135	0xbc002692	-0.007821696
136	0xbe7d2baa	-0.24723688
137	0xbdc4ae65	-0.096035756
138	0xbd4b0b5b	-0.049571376
139	0xbd38d34f	-0.045123395
140	0xbe752433	-0.2393959
141	0xbecacdb5	-0.39610067
142	0xbeba73a0	-0.3641634
143	0xbe114bf4	-0.1418913
144	0xbf8e97af	-1.114004
145	0xbea4b4d2	-0.32169205
146	0xbf10d78b	-0.5657889
147	0xbce79d97	-0.028273387
148	0x3fa8c09d	1.3183781
149	0xbae03a98	-0.0017107306
150	0xbe56b5ef	-0.2096784
151	0xbeaabbd5	-0.3334643
152	0x3be06073	0.006847435
153	0xbe8ad46d	-0.27115193
154	0x3f8f4594	1.1193109
155	0xbf0bc4b5	-0.54597026
156	0xbe54e5cd	-0.20790787
157	0xbe950ea7	-0.2911274
158	0x3d4b277f	0.049598213
159	0xbeb7fece	-0.35936588
160	0x3d686b13	0.05674274
161	0xbe33e244	-0.17566782
162	0x3d98fb1e	0.07469772
163	0xbf92a760	-1.1457329
164	0xbe48dc21	-0.19615223
165	0xbeb4c49c	-0.3530625
166	0xbe88a29d	-0.26686564
167	0x3c39112e	0.0112956
168	0x3ee14a21	0.44001868
169	0xbd4ad13b	-0.049515944
170	0xbe8cb2ac	-0.27480066
171	0xbea6eb17	-0.32601234
172	0xbebf058a	-0.37308913
173	0xbeaaa46c	-0.3332857
174	0xbd31f942	-0.0434506
175	0x3dcfac94	0.101403385
176	0xbf667ca6	-0.9003395
177	0xbf8fd911	-1.1238118
178	0x3eaf4efa	0.34239942
179	0xbebb7df2	-0.36619526
180	0xbeaa0926	-0.33210105
181	0xbee9042c	-0.45510995
182	0xbf7abcb4	-0.9794419
183	0xbe8e003a	-0.27734548
184	0xbcd7c084	-0.026336916
185	0x3d81dcd0	0.06340945
186	0x3e16c41a	0.14723244
187	0xbcc4418d	-0.023957038
188	0xbe6c7c78	-0.23094356
189	0xbfc34674	-1.5255876
190	0xbe0ba8a0	-0.13638544
191	0x3e2317c9	0.15927042

out.bias f4 [3]
0	0xc03c2b76	-2.9401526
1	0xc040cc10	-3.012455
2	0xc038e385	-2.8888867
