acrobot_ddqn_10-01-5k-128N.pth (torch, 74489 bytes, 6 tensors)

fc1.weight f4 [128, 6]
000000 94 84 92 3e 5d bb 0b bf ad f9 3f 3f 42 9e 57 3d
       0.28616774 -0.5458277 0.7499035 0.05264116
000010 f1 55 32 bf 11 3b ed be 0a 9c ca bf d0 c8 5d be
       -0.69662386 -0.46334127 -1.5828869 -0.21658635
000020 36 28 75 bd 09 55 86 3f 3e 37 b1 3e 8a 54 e2 3d
       -0.0598528 1.0494701 0.3461246 0.11051281
000030 7b 5c df 3d 53 5e 95 bf 4c 63 91 3f 25 3b 9f 3f
       0.10906311 -1.166941 1.1358428 1.2439924
000040 f0 79 f4 bd 1e a3 94 3d 79 a0 ca 3f aa cf 6e 3f
       -0.1193732 0.07257675 1.5830222 0.9328562
000050 2c ea 04 3f c1 69 9e be de 70 df be fb 0f 07 be
       0.5191982 -0.3094006 -0.43640798 -0.1318969
000060 c0 f0 dd be 9e fe ce 3d 94 3f 7c be 67 09 34 bf
       -0.4334774 0.10107158 -0.24633628 -0.70326847
000070 c4 73 11 bc 60 0a 92 3d aa 23 cf 3e 9d 82 14 3f
       -0.008877698 0.07130885 0.40456897 0.580118
000080 3c 91 47 3e 2f 07 d4 3e 73 c4 93 3c a3 19 ba 3e
       0.19488996 0.4141173 0.01803801 0.36347684
000090 11 7a 8d 3e 6d e2 75 bf cb 49 71 be 63 f8 88 3f
       0.27632192 -0.96048623 -0.23563306 1.0700802
0000a0 d5 22 a2 be 78 d6 d4 be be 39 5a bf d0 ca 2d 3e
       -0.316672 -0.41569877 -0.8524436 0.16971898
0000b0 ee 65 84 bf d3 21 4b be 59 43 e1 bc b7 2b 23 3f
       -1.0343606 -0.19837122 -0.027497934 0.6373858
0000c0 ef 4d 90 3e e4 b0 9f 3f 05 ac 8d bf 50 7b 8a bf
       0.2818446 1.2475858 -1.1068121 -1.0818882
0000d0 57 a7 8c 3d de 88 01 3f cb 0a 04 c0 2f 4e 77 3e
       0.06867855 0.5059947 -2.0631588 0.24150918
0000e0 45 dd b9 bc 03 6f 8e 3f 4c bf 23 3f e8 1f ac 3e
       -0.022688517 1.1127628 0.6396377 0.33618093
0000f0 e5 4d 65 3f cc e9 87 bf aa 65 94 3e 8c ab ec 3f
       0.8957198 -1.0618224 0.28983814 1.8489852
000100 ba f7 8c be d8 27 2c bf bf 78 c9 3e 49 a6 96 bd
       -0.2753275 -0.67248297 0.39349934 -0.07355935
000110 75 ff f8 3e d8 a0 96 3e f3 dd 00 3f 71 87 c4 3e
       0.48632398 0.2941959 0.5033867 0.38384584
000120 67 76 3e 3e cc 8a 34 bf 23 95 c2 be 79 f0 9e 3c
       0.18599854 -0.7052429 -0.38004407 0.019401776
000130 a8 42 22 3e 1b 4f 09 bf 80 77 62 bf fd d5 3b 3f
       0.1584574 -0.5363633 -0.8846359 0.73373395
000140 d0 6f 95 bf 00 8c 7d 3d 54 2c 5e bd 93 be 57 bc
       -1.1674747 0.061901093 -0.054241493 -0.013167995
000150 e5 c2 d8 3d b7 db 22 3f 4f 2b b7 3e 57 ef 8f 3a
       0.10584048 0.6361651 0.3577523 0.0010981363
000160 c0 68 99 bc e5 86 98 bd 5c ea dc be 73 3c 81 3f
       -0.018726707 -0.07447604 -0.43147552 1.0096573
000170 5e d4 b8 bf 5d 31 21 3f 7e 5a 4c bd 58 e2 30 3e
       -1.4439809 0.6296595 -0.049890988 0.17273843
000180 1a d4 68 3f 63 73 64 3f d1 02 66 3f 95 ae 3a be
       0.9094864 0.89238566 0.8984805 -0.1823066
000190 f3 55 bb 3d ea 8f 67 3e 27 5a 9b 3d a6 f2 29 3f
       0.09147253 0.22613493 0.075855546 0.6638588
0001a0 ca 67 45 bf a7 a8 e6 3d 47 39 f4 3e b2 5b 22 3f
       -0.77111495 0.11262637 0.4769995 0.63421166
0001b0 04 85 96 be 5d 80 17 be f9 4f 08 3f 4f 7d 0f 40
       -0.29398358 -0.1479506 0.5324703 2.2420232
0001c0 f2 a8 95 3e 48 26 d4 be 89 bc ce 3e 1d bb 48 3f
       0.29230458 -0.41435456 0.40378216 0.7841051
0001d0 40 a0 d5 3e d8 fd 3e bf 74 03 99 bc f5 cf b7 3c
       0.41723824 -0.74606085 -0.018678404 0.022438029
0001e0 c3 da a0 be 19 f5 46 3f 33 18 20 bf c2 c2 b7 bf
       -0.31416902 0.7771774 -0.62536925 -1.435631
0001f0 dc d3 7d 3e 76 00 a4 be 5b 69 93 3e 1e ef df be
       0.24787849 -0.32031602 0.28791317 -0.4373712
000200 85 78 b2 be a8 d2 d9 bf d3 6f 1f 3f d9 81 d1 3e
       -0.34857574 -1.7017412 0.62280005 0.40919378
000210 9a d6 f9 3d ff 48 08 bf 6c 82 35 3e bb 27 fb be
       0.12199135 -0.53236383 0.17725533 -0.4905375
000220 f7 ea c4 be 10 27 53 3b da 02 50 3e f6 3e ba 3f
       -0.38460514 0.0032219328 0.20313588 1.4550464
000230 34 4e 8b bc 55 7e d7 bf e9 60 af 3e c4 80 e4 3e
       -0.017005064 -1.6835428 0.34253624 0.4462949
000240 8d 58 61 bf ab 7c 0e 3f e0 24 c2 bf 49 a5 04 3f
       -0.8802574 0.5565898 -1.5167503 0.51814705
000250 07 3f b7 3e 86 97 51 be bc 77 86 3e 06 2a 0c bf
       0.35790274 -0.20467958 0.26263225 -0.5475162
000260 9b 76 8a bf c5 3f 8a 3c 57 13 21 bf 09 74 4b bf
       -1.0817446 0.01687611 -0.62920135 -0.7947393
000270 b4 ad 1e bf 90 89 d9 3e b4 20 86 bf 15 ef 83 3e
       -0.619838 0.42487764 -1.047873 0.25768343
000280 37 95 36 be 3b 00 e8 3e 00 a0 f8 3f c6 67 2f be
       -0.17830358 0.45312676 1.9423828 -0.1712943
000290 4f 18 b2 3e 15 62 0c 3f a0 4d 1d bf 3d 8c a5 be
       0.3478417 0.5483716 -0.6144657 -0.32333556
0002a0 6e fb 92 bd 33 c2 9e 3e 15 eb cc 3d cc 11 01 bf
       -0.07176863 0.31007537 0.10005776 -0.5041778
0002b0 1f 6b c3 bd 43 84 44 3e cd 6a a4 3f e5 f2 2d 3d
       -0.09541916 0.19191079 1.2845093 0.04246797
0002c0 f5 f5 c8 3d 84 97 fc 3e 06 23 69 3b 2f 40 f4 bd
       0.098125376 0.49334347 0.0035573854 -0.119263045
0002d0 e7 0a aa 3d 52 b5 c4 3f 24 fc 92 3c 20 ac 06 bf
       0.08302861 1.5367835 0.017942496 -0.5260639
0002e0 d4 53 23 3f 19 29 4a 3f f5 9a bb bf d5 7f a6 bf
       0.63799787 0.7896896 -1.4656664 -1.3007761
0002f0 9a 35 9f bf ff 60 2c 3f b4 12 e6 be e1 be 14 bf
       -1.2438233 0.67335504 -0.44936144 -0.5810376
000300 76 ac 89 bf 02 fa 88 bf 8f a1 4c bf ca 03 3c 3f
       -1.0755756 -1.0701296 -0.7993402 0.7344328
000310 49 29 ae 3d dd 4a 74 3d 7e 8a a4 bf d3 00 4f 3e
       0.08503968 0.059641708 -1.2854764 0.20215158
000320 dd 70 94 3d 4f 24 97 bf 00 3b 15 bf d7 8e d6 bc
       0.072480895 -1.1807956 -0.5829315 -0.026191158
000330 dc 94 12 3e cb a2 b5 3f 52 7b 54 bf 66 7e d6 bf
       0.14314598 1.4190305 -0.8300067 -1.6757324
000340 07 d1 d3 bb e9 8c 09 3e 8f c6 53 bf a9 5e 64 bf
       -0.006464127 0.13432659 -0.8272485 -0.8920694
000350 2a d8 70 bf eb 12 13 be 7f 19 9d 3e 31 5e 0a bf
       -0.9407984 -0.14362685 0.30683514 -0.54049975
000360 5b 72 9e 3e f6 29 9c bf d6 22 00 bf e2 ef 3c 3f
       0.3094662 -1.2200305 -0.50053155 0.7380353
000370 6e 29 06 be bc d0 8d be d0 a9 d5 3d bf bc 2e bf
       -0.13101742 -0.27698314 0.1043278 -0.68256754
000380 f0 e3 2a 3e 8b 14 70 3f c1 8b 6a be 86 d9 92 be
       0.16688514 0.93781346 -0.22904874 -0.28681582
000390 32 63 82 bc bf f1 90 3f f0 cd cc 3e 8f ab ce bf
       -0.01591644 1.1323775 0.40000868 -1.6146106
0003a0 4e 43 60 3d bc 33 db bb 07 c0 e5 bd 8c 4e f7 bf
       0.054751687 -0.006689517 -0.11218267 -1.9320846
0003b0 46 b2 3d 3f c8 8d ee be 41 a8 12 bf 9b e3 f2 be
       0.7410015 -0.46592546 -0.57287985 -0.47439274
0003c0 7b ee 5f 3f 5a 4d 6f 3f 28 af e1 3e 13 ed e7 bf
       0.8747327 0.93477404 0.44078946 -1.8119224
0003d0 17 15 97 3d a8 bf ab 3e bb 39 b2 3d 86 5e a3 3e
       0.073770694 0.3354466 0.087024175 0.31908053
0003e0 a6 97 b1 bf 8d 2e 7e bf b0 af eb 3d 67 0a 65 3f
       -1.3874404 -0.9928978 0.11508119 0.89469
0003f0 03 38 74 be ef d0 a1 bc 4b 83 4a 3e 94 e8 37 be
       -0.23849492 -0.019752948 0.19776647 -0.17959815

fc1.bias f4 [128]
000000 81 2a 12 c0 0a d5 7a bf d7 7f 00 bf 72 df 57 be
       -2.2838442 -0.9798132 -0.5019507 -0.21081331
000010 29 53 a8 3e 05 c7 35 bf cf 6c 56 be 80 58 1b c0
       0.32875946 -0.71006805 -0.20939945 -2.4272766
000020 cd b7 78 be c7 3e b0 bf 7f cf 07 3e ba 77 6e 3e
       -0.24288864 -1.3769158 0.13262747 0.2328786
000030 e7 88 4d bf 2b 51 89 3e e2 35 07 bf f4 c9 86 bf
       -0.8028702 0.2681974 -0.52816594 -1.0530381
000040 61 32 4a 3e 92 b3 ee bf bb b4 8b 3d c2 38 fd bd
       0.1974578 -1.864855 0.06821581 -0.12364341
000050 66 38 04 c0 62 77 05 c0 13 7f c1 3e ba 1d 06 bf
       -2.0659423 -2.0854115 0.37792262 -0.5238911
000060 1e 2c 86 bf 5a 03 e2 bf 6d ab 33 c0 36 11 4b be
       -1.0482213 -1.7657273 -2.807338 -0.19830784
000070 e9 c8 d5 3d 90 35 c8 3d 18 9d ca be 18 22 4a bf
       0.10438711 0.09775841 -0.39572978 -0.7895827
000080 88 7f 10 bf d6 d4 8a bf 95 41 ad bf 7b 78 23 c0
       -0.564446 -1.0846202 -1.3535639 -2.5542285
000090 b1 84 38 3e 32 44 01 3e 21 36 be be 1f ad cf bf
       0.18019368 0.1262367 -0.37150672 -1.6224707
0000a0 06 d7 39 bf e8 16 b5 bf d9 a9 06 bf 93 7c 83 bf
       -0.72593725 -1.4147615 -0.52602917 -1.0272392
0000b0 b5 88 a3 bf ad bb 45 be a0 91 a3 bd 3c 4d 97 bf
       -1.2776095 -0.19309874 -0.0798676 -1.1820445
0000c0 29 df 9a bf 66 5f cf bf 81 7c 8f 3d 8c b6 80 bf
       -1.2099353 -1.6200988 0.07006169 -1.0055709
0000d0 08 cf 39 bc f6 d0 5e bf cd ae 14 c0 5c 73 80 3e
       -0.011340864 -0.870376 -2.323169 0.25088012
0000e0 e7 94 ae bf 4f 0b 82 3b 2a 8b db 3e 12 90 6c bf
       -1.3639191 0.0039686332 0.4287961 -0.92407334
0000f0 7f 16 eb bf 7c 3f a5 bf c7 10 f6 bf 31 c4 2b 3d
       -1.836624 -1.2909999 -1.922387 0.04193515
000100 6d 9f 0d bf 4f fa c6 be 48 12 84 be 99 9b 88 bf
       -0.5532139 -0.38862845 -0.25795197 -1.0672485
000110 99 05 ee 3e b6 d7 0f c0 20 9b 13 bf a1 e6 f1 be
       0.46488646 -2.247541 -0.57658577 -0.47246268
000120 79 ac 68 bf 90 4c b3 3e 7f 1e 04 3e 75 c0 b9 bf
       -0.9088817 0.3501935 0.12902258 -1.4511858
000130 dd 5b d2 bf d6 54 3a be 2f df 63 bf e6 f1 8d bf
       -1.6434284 -0.18196425 -0.89012426 -1.1089447
000140 9c 47 fa be 72 ae 7b 3d 5d e4 cf bf dd bd 3e 3d
       -0.4888276 0.06144566 -1.6241566 0.046567786
000150 ef 99 dd bf 5e 41 ab bf e4 b1 f0 3e 25 cf b6 3e
       -1.7312602 -1.3379323 0.4701072 0.35704914
000160 14 cd 25 bf e7 f6 bc bf 87 c2 00 3f 27 51 3d 3e
       -0.6476605 -1.4762849 0.50296825 0.18487988
000170 34 c8 8e 3d f1 32 2a be ed 14 a7 be f6 37 ca be
       0.069717795 -0.16620995 -0.32633153 -0.3949582
000180 07 82 a4 bd 63 1d b6 bf 11 4d 24 3e aa 5a 74 bf
       -0.08032613 -1.4227718 0.16045024 -0.9545084
000190 71 3c 87 3c a2 37 99 be 11 a0 92 bf f7 d4 17 be
       0.016508313 -0.29925257 -1.1455098 -0.14827333
0001a0 e6 02 3e be b9 73 17 3f 26 b1 d9 bf 93 b9 92 bf
       -0.18555793 0.59160954 -1.7007186 -1.1462883
0001b0 0b e1 16 c0 d8 49 8e bf cc 0f 24 3f 53 ca 4d bf
       -2.3574855 -1.1116285 0.64086604 -0.8038685
0001c0 59 b8 8d bf 86 a7 2c bf de dc b0 bf db ae d2 bf
       -1.1071883 -0.6744312 -1.3817403 -1.6459612
0001d0 cb 44 46 bf 6e 4f 83 bf ff 72 43 bd 84 7c e0 3e
       -0.7744872 -1.0258615 -0.04771709 0.43844998
0001e0 84 2b ee be 31 e1 be 3e 83 9b 7a bf 6f b8 69 bf
       -0.46517575 0.37281182 -0.9789354 -0.9129705
0001f0 10 9e 98 bf c8 32 a3 be a1 68 9e bf be ef 8d 3e
       -1.1923237 -0.3187468 -1.237568 0.2772197

fc2.weight f4 [128, 128]
000000 fe 28 23 bf 79 c2 b9 3e 83 43 49 bf d5 c8 4a 3f
       -0.63734424 0.36281183 -0.7861864 0.79212695
000010 8f e1 88 3e c5 6f 1a bb 2e f7 39 bf 4c c0 8c 3f
       0.26734588 -0.0023565155 -0.7264279 1.0996184
000020 16 1a b5 3e d1 6e 98 3f f6 23 74 be a6 88 2f 3f
       0.35371464 1.1908818 -0.23841843 0.68567884
000030 88 47 4d 3d 84 55 f9 3e 07 c7 56 bc ce 32 10 bf
       0.050117046 0.48698056 -0.013108975 -0.5632752
000040 a6 b5 9e bc 37 64 6d 3f 27 b0 63 bc eb a0 68 3e
       -0.019373726 0.9273104 -0.013896978 0.22717635
000050 ec 0d ec 3f 2f 31 50 bf 4b e8 d3 3e f1 a0 47 bf
       1.8441749 -0.8132505 0.41388163 -0.7797995
000060 29 b1 dc bd a9 fa 69 3f 6f 8f cf bf 44 c7 6a 3c
       -0.10775978 0.913981 -1.6215647 0.014329735
000070 b8 58 22 bc 7f 36 14 3e 40 62 d4 3e c1 ae 27 3e
       -0.0099088475 0.14473914 0.4148121 0.16375257
000080 e4 81 4e 3f 8c fe 29 bf 1d 5a 09 bf 00 ef db 3e
       0.8066695 -0.6640403 -0.53653127 0.4295578
000090 d9 a6 e7 be c7 68 01 bf 33 f6 88 bf d5 4a 91 3d
       -0.45244482 -0.505505 -1.0700134 0.07094351
0000a0 4f 33 ac be cf 40 04 3f 41 e1 52 3d c7 5d e1 be
       -0.33632895 0.5166139 0.05148435 -0.4401686
0000b0 2e 8a e0 bd dc 1b 23 bf 7a 70 8c bd 09 4f b1 bd
       -0.10963856 -0.63714385 -0.06857391 -0.08657653
0000c0 d6 c9 ed 3e 19 a4 ef bf 2b 7a c2 be 89 74 4f 3e
       0.4644305 -1.8721954 -0.37983832 0.20259298
0000d0 9e f4 28 3f 6d 46 25 be ed 16 df bc 03 96 94 3e
       0.65998256 -0.16140147 -0.027232612 0.290207
0000e0 f8 4d 99 be 05 ff 67 3e f8 b3 c3 3d fe ae 55 bd
       -0.29942298 0.22655876 0.09555811 -0.05216884
0000f0 6e 1c 5a bf 0f 1d 78 bf db b9 c9 3d f5 42 06 be
       -0.8519963 -0.9691934 0.09849902 -0.1311148
000100 28 f4 21 3f 07 a0 4d 3e 3f 0a e2 be 1c 06 1f bf
       0.6326318 0.20080577 -0.44148442 -0.621187
000110 18 9a 6f 3d 5a e9 95 bf ee 65 50 bf 99 3f 6d 3e
       0.058496565 -1.1711838 -0.8140553 0.23168792
000120 02 64 1f be 01 23 1d be 55 27 95 be b4 90 13 3f
       -0.15565494 -0.15345384 -0.2913157 0.57642674
000130 e4 ab 7f bf f2 1c 13 bf 0d 5d cc 3e 11 d6 fa be
       -0.9987166 -0.5746604 0.39914742 -0.48991445
000140 43 81 eb be a9 81 e9 3e 18 4f 94 3f 39 47 02 3e
       -0.45997056 0.45606735 1.1586637 0.12722482
000150 d1 72 d2 bc 00 4d 04 3f e9 2b 23 3e 7e 45 ef bb
       -0.025689514 0.5167999 0.15934719 -0.0073019853
000160 82 a2 12 3f 8c 26 68 be d2 b3 20 3e fc 48 53 3e
       0.5727922 -0.22670954 0.15693596 0.2063331
000170 dc ad 04 bf 66 e6 b3 be 2c d1 43 3f e4 45 a8 3d
       -0.5182779 -0.35136718 0.76491046 0.082164556
000180 45 52 37 be 50 80 d7 3d 68 ad 98 3e fd 35 1f bf
       -0.17902477 0.105225205 0.29819798 -0.62191755
000190 7f 46 1d be 75 cc b1 3d 90 32 96 be fa c7 a5 3e
       -0.15358923 0.08681575 -0.2933545 0.32379133
0001a0 15 5b e2 be bf c8 c2 be 5b d1 cb 3e aa 78 16 bd
       -0.44210115 -0.38043782 0.39808163 -0.036736168
0001b0 4f dd ba bf dd b0 5e bd 47 4f 28 3e 44 ed 59 3e
       -1.4598788 -0.05436789 0.16436492 0.21281916
0001c0 7b 22 86 be f3 44 d5 bd 24 85 af bd ba bb 54 3f
       -0.26198182 -0.10413542 -0.085703164 0.8309895
0001d0 9a 35 83 3e 90 54 eb be f9 6e b4 bf 56 67 00 3f
       0.25626832 -0.45962954 -1.4096366 0.5015768
0001e0 e3 64 01 3e 21 0a 9d bb e9 26 b4 3e 9e 79 6b bf
       0.12636141 -0.004792467 0.35185936 -0.9198245
0001f0 3a 9a 07 be 53 d4 0d 3f 8a a1 0e be 32 dd cc 3d
       -0.13242427 0.55402106 -0.1392881 0.10003127
000200 f7 63 cc bf 09 00 23 bf 0d 1c 8b 3d f7 18 1f bf
       -1.5968007 -0.6367193 0.0679246 -0.6214747
000210 90 5d d0 3e 40 30 fa 3b a8 1c 68 3e eb 22 07 40
       0.40696383 0.0076351464 0.22667181 2.1115062
000220 54 e9 02 3e 10 2c b1 be 0f 05 7e 3d 1d b0 53 3e
       0.1278432 -0.3460393 0.062016543 0.2067265
000230 53 2e 8e be f9 f8 92 3b 4f bb f3 be bd 57 9c bf
       -0.27769718 0.0044852463 -0.47603843 -1.2214276
000240 f6 50 19 3f 26 72 14 3f dd 42 c8 3e 2c 56 90 bf
       0.5988916 0.57986677 0.39113513 -1.1276298
000250 a7 e9 8b 3f 30 62 2f 3e 17 d1 e1 3e d2 36 7c bf
       1.093068 0.171273 0.44104835 -0.9852115
000260 26 39 2f 3f 9c ed 32 3f e3 49 2e c0 3a 7e 31 3f
       0.68446577 0.69893813 -2.7232597 0.6933323
000270 f3 5f 89 be 30 19 2f bf 4b fe 02 3f fe e4 ea 3e
       -0.26831016 -0.6839781 0.5116927 0.45877832
000280 be a2 24 bf e3 0a dc 3e bb 70 42 bf f0 94 34 be
       -0.64310825 0.42977056 -0.75953263 -0.1763494
000290 2b 28 de 3c df 3c ca 3d cf b9 32 be 4b 86 c5 3e
       0.027118763 0.098748915 -0.17453693 0.3857902
0002a0 80 36 21 c0 ab ca 15 bf ff 9e 2b bd 3b 4d c1 3c
       -2.5189514 -0.5851237 -0.041899677 0.023596397
0002b0 e1 d4 c8 be 4e 3d 63 3f 74 44 ee 3e b1 e6 1c bf
       -0.39224914 0.8876542 0.465366 -0.6128951
0002c0 b8 0d de 3d 3a 52 a9 be 82 ff 14 3e 7b d6 f4 3e
       0.108424604 -0.33070546 0.14550593 0.47819886
0002d0 d5 3e 73 be f3 d5 9a bf 8d 8a ec 3e 15 8f 57 be
       -0.23754437 -1.2096542 0.46199456 -0.21050675
0002e0 5b 95 c4 3d 63 0e 21 3f 28 af b9 3e 2e 94 89 bf
       0.095988 0.6291258 0.36266446 -1.0748346
0002f0 c0 f1 00 bf e6 4e 1b be da a1 95 bf a0 21 66 bf
       -0.5036888 -0.15166816 -1.1690018 -0.8989506
000300 97 5e a2 3e 5b b1 f0 bd 0e c8 83 3d 7c a4 a7 3f
       0.3171279 -0.11752578 0.06434642 1.3097072
000310 4f e2 0a be f0 de 59 be 80 e1 a2 bf 75 4b 7b 3e
       -0.13562892 -0.2127645 -1.2725067 0.24540503
000320 fe 1d 1a bf 0b 66 ce be 54 f7 8d bf 39 be 11 3f
       -0.60202014 -0.40312228 -1.1091104 0.5693088
000330 f6 dc 76 bf 0d d2 04 be 2e 42 a8 be 56 ec f0 3e
       -0.9643091 -0.12970753 -0.3286299 0.4705531
000340 7f 6c 2e 3f 1f 1e 98 be f9 0b 47 3f 15 ee c2 be
       0.681343 -0.2971048 0.77752644 -0.38072267
000350 a9 93 f6 3e 53 5a 9b 3e 5a ef 89 bf bc 5d 2c bf
       0.4815953 0.3034235 -1.0776169 -0.6733053
000360 05 da 94 be 7d d9 5e bf 66 42 53 bf c9 24 c8 be
       -0.29072586 -0.8705061 -0.8252319 -0.39090565
000370 59 e6 b2 3d 44 e5 14 3f 75 25 80 be 5e a5 86 bd
       0.087353416 0.5816233 -0.25028577 -0.0657451
000380 39 36 55 be 7c a5 b6 bf bf de 85 be 50 98 93 bf
       -0.20821466 -1.4269252 -0.26146504 -1.1530857
000390 56 a3 55 3f 45 2a 47 bf ac 14 8a 3d 3f 57 19 3e
       0.83452356 -0.77798873 0.06742224 0.14974688
0003a0 0e d4 59 be 8b e3 59 3e 94 5a 41 3f 24 cd 06 bf
       -0.21272299 0.21278207 0.75528836 -0.5265677
0003b0 07 41 19 bf c9 47 8b be e9 d2 93 3e 95 9e 99 3e
       -0.5986485 -0.27203205 0.2887185 0.300038
0003c0 f4 c9 9c 3e 96 49 5d 3d 56 b4 8a 3f a1 d8 5c 3f
       0.30622828 0.054025255 1.0836284 0.8626805
0003d0 93 85 ee bd 84 96 01 3f 6d be 8c 3b 2d fd 87 3e
       -0.11646571 0.50620294 0.0042951615 0.26560345
0003e0 51 e0 1b 3f 93 67 a3 bf f7 00 e0 3e eb 77 48 3e
       0.60889155 -1.2765983 0.43750736 0.19576995
0003f0 98 31 e6 bf 89 00 e2 3e 64 07 4b 3f 0d 50 fb 3e
       -1.7983885 0.44141033 0.7930815 0.4908451

fc2.bias f4 [128]
000000 d2 19 22 3f 32 7c 28 3f f1 42 07 bd 91 29 82 3f
       0.6332065 0.65814507 -0.033022825 1.0168935
000010 6e 6d 4c 3d 18 6e 02 be 87 53 34 3f c0 45 12 3d
       0.049909048 -0.1273731 0.7043995 0.03571105
000020 f6 6a 5f bd bb c3 06 bc 1e ca 6f 3f e4 46 95 3f
       -0.054545365 -0.008225377 0.9366778 1.1662259
000030 8d 7a 9f 3b a3 35 dc bd 78 a1 73 bd 6b 17 27 3f
       0.004866904 -0.10752418 -0.05948016 0.6527011
000040 a3 c7 d6 bc ef 12 78 3f d4 a2 86 3f 10 44 31 3f
       -0.026218241 0.9690389 1.0518441 0.6924448
000050 be ad 73 bd 62 c0 91 3f 42 ec 1e 3f 00 0d cf be
       -0.059491865 1.1386836 0.6207925 -0.40439606
000060 e1 96 d9 bd 13 b3 f9 3d f9 fa 33 3d df 32 32 3f
       -0.10624481 0.12192359 0.043940518 0.69608873
000070 c9 fa 94 3f fe c6 1c 3f 53 bf 91 3e f7 0c fa bd
       1.1639034 0.6124114 0.2846628 -0.12209504
000080 70 27 4f 3c 6c 4b 4b 3f 0d c5 ea bd 39 c5 fc bd
       0.01264368 0.7941196 -0.11463366 -0.12342305
000090 d8 e4 72 3c d3 53 fd bd c8 b3 43 bd 9e 04 93 3d
       0.014825068 -0.12369504 -0.047778875 0.07178615
0000a0 e1 2a 1e bd 36 f9 ad 3f 1c 3b f4 bc d5 f6 d3 bd
       -0.03861511 1.3591678 -0.029813342 -0.10349814
0000b0 82 2a 1f bf a1 ed a7 bd 56 87 b3 bd 1c 75 c0 bd
       -0.62174237 -0.08199621 -0.08766048 -0.09397337
0000c0 89 26 0f bf 09 6f 7e 3c de a8 f7 bd 0e 8e f2 3c
       -0.55918175 0.0155294025 -0.12092756 0.029608753
0000d0 5c 61 02 3f e4 57 80 3f e4 b6 0c 3c 67 14 ff 3e
       0.5092981 1.0026822 0.008588526 0.49820253
0000e0 80 36 04 be 0b 66 5c 3e a4 70 ed 3b 3b e4 7a 3f
       -0.12911415 0.21523301 0.007246094 0.980045
0000f0 55 5a de bd 9b df 14 3d e9 b6 c4 bd 52 e4 ec 3c
       -0.10857073 0.03634606 -0.096052 0.028917465
000100 2c 8b 93 bb 77 ef 77 3c b7 07 8b 3b a2 72 f0 bd
       -0.0045026746 0.015132776 0.004242863 -0.117406145
000110 67 ce 44 bb 3e 89 b8 bd 0a 88 3a bd 50 e2 13 3f
       -0.0030030252 -0.09010552 -0.045539893 0.577672
000120 a4 7b 49 3f 48 cb 4b 3f f6 c8 a2 bd 9e fe aa bc
       0.78704286 0.7960706 -0.079484865 -0.020873364
000130 b4 62 b1 bd 9c 4a 77 bc 15 eb 53 bc 47 3c 80 3e
       -0.08661404 -0.015093472 -0.012934466 0.25045988
000140 f0 8b cf bd 12 cc 03 be da 70 67 bb c0 dc 46 bd
       -0.10134113 -0.12870815 -0.0035315068 -0.048550367
000150 1e 23 cf 3e 1d 87 40 3f a0 e0 19 bd 6c 57 9c 3f
       0.4045648 0.75206167 -0.037567735 1.2214179
000160 fb 17 ee be 48 57 58 bf 66 d5 8f ba 7c e9 82 3c
       -0.4650267 -0.8450818 -0.0010973632 0.015980475
000170 94 f3 41 be 03 cc ed bd e5 c1 6e bd a1 e2 a1 3a
       -0.18940574 -0.11611178 -0.05829038 0.0012350866
000180 25 1b e4 bc 29 47 f2 3e 58 df 3d be 65 8a b6 be
       -0.027844975 0.47319916 -0.1854223 -0.35652462
000190 5f 73 86 3f 46 e3 ab bd 6f 63 82 bd fc 4b a7 3f
       1.0503958 -0.08392958 -0.06366622 1.3070064
0001a0 f4 76 96 3e c9 8a 2a 3e 65 08 04 bd 96 d7 98 3f
       0.2938763 0.16654505 -0.03223457 1.1940792
0001b0 44 bd a3 3c b9 cf 9c bd 80 3a a7 3b 4d 19 e3 bb
       0.01998771 -0.076568075 0.0051034093 -0.0069305063
0001c0 c8 22 3f 3e e1 91 eb bd 60 8d b1 3d 88 f2 2d 3f
       0.18665612 -0.115024336 0.08669543 0.679482
0001d0 cb e0 3d 3d 10 86 01 be 73 c9 71 3f 3e 68 97 bc
       0.046356957 -0.12648797 0.9444801 -0.018482324
0001e0 a9 5f b9 bd 66 48 2c 3d 2e c8 54 3e af 69 1e bb
       -0.09051449 0.042061232 0.20779487 -0.002417188
0001f0 13 c5 be bd ba 91 20 3f 77 6c d6 3e 89 18 f6 bc
       -0.09314933 0.6272236 0.41879627 -0.030040996

out.weight f4 [3, 128]
000000 c5 5a d7 be 76 55 c9 be 44 8f 15 3b 27 57 d6 be
       -0.4206144 -0.39323014 0.0022820989 -0.41863367
000010 80 3f f1 be fe 70 1a 3c b2 b2 37 bf 2b 39 1e 40
       -0.4711876 0.0094263535 -0.7175704 2.4722393
000020 0e be ac 3f 52 95 9e bb 43 8d 72 be 13 7b 89 be
       1.34955 -0.0048395777 -0.236867 -0.2685171
000030 33 4c 1a 3d 48 91 21 3d 8f bb 6b bb 42 fe 31 be
       0.037670325 0.03944519 -0.0035969948 -0.17382148
000040 d0 12 4e 3d 2e 54 e6 3c 91 60 46 be 79 2d c4 3d
       0.05031091 0.028116312 -0.19372775 0.09578986
000050 a3 52 dc bc cd 0d c7 be aa 37 6d be 43 22 6e 3f
       -0.026894873 -0.38877717 -0.23165765 0.9302103
000060 b3 7e 78 3c 70 f2 91 3f 2b 5c 82 3a 81 f4 a2 be
       0.015166926 1.1402111 0.0009945681 -0.31827167
000070 c9 6b b2 be c1 68 24 bf 20 19 5d bf f4 2d a7 3c
       -0.3484786 -0.6422234 -0.8636646 0.020407654
000080 2a a0 95 3d c3 3f a2 be 45 1b 53 bd 75 c3 7c bc
       0.073059395 -0.3168927 -0.051539678 -0.01542746
000090 46 81 80 3d e4 c0 19 3c 79 3c 87 bc 06 ce 92 3d
       0.06274657 0.009384368 -0.016508328 0.07168202
0000a0 b2 d8 0c 3d d8 1e a3 be e5 31 b2 3c 4f 9c cb bc
       0.034386344 -0.3185947 0.021752307 -0.024854807
0000b0 89 1a 47 3f ea 9b 78 bd 25 b0 a7 3d 8f a4 07 3d
       0.77774864 -0.060695566 0.08187894 0.03311592
0000c0 da d0 8b 3f 3a d0 71 bd 59 c5 b2 3c 9d 3f 32 3d
       1.0923111 -0.05903647 0.021822618 0.043517698
0000d0 17 9c e0 be 66 43 f5 be b5 6c 5d 3d ec e9 28 bf
       -0.43869087 -0.47902983 0.05405875 -0.65981936
0000e0 85 79 e2 bb 00 9b 47 bf 1e 97 c8 bb a2 d1 4a be
       -0.006911459 -0.77970886 -0.00612153 -0.19806531
0000f0 8d 58 b1 3c 61 14 bb 3f d3 a7 1a bd e0 fd b0 3b
       0.02164867 1.4615594 -0.037757706 0.005401358
000100 54 3b 4d c0 4d b4 ba bd 6e fb 19 bd 8e 0e ba 3b
       -3.206746 -0.09116421 -0.037593298 0.0056780046
000110 b7 b8 43 3d ca 1c f3 3c 5e 3a be bc c3 bf ec be
       0.04778358 0.029676814 -0.023221191 -0.46240053
000120 cf 9a 9f be 8d 27 bd be 9c 03 93 bc e0 71 82 be
       -0.31172797 -0.36944237 -0.017946057 -0.25477505
000130 6a 39 7e 3c 77 55 63 bd 31 22 e0 3c c2 3c 0d bf
       0.015516618 -0.055501428 0.027360054 -0.55170834
000140 88 5a 2d bd 3e 0c 98 3c c1 e6 96 3d 6e f1 0b bd
       -0.042322665 0.018560525 0.073682316 -0.034165792
000150 e1 b3 ed be ae 89 a1 be d4 9c 00 bd 45 57 18 bf
       -0.464263 -0.31550354 -0.031399563 -0.5950816
000160 89 6b 0a c0 da db fd 3e c0 d8 80 bd 2b 4c 05 bd
       -2.1628134 0.49581796 -0.06291342 -0.032543343
000170 a1 99 c7 bc bc 72 06 bb 26 54 b3 3c 5d e3 1b 3f
       -0.024365248 -0.0020515164 0.021890711 0.60893804
000180 db c8 98 bc 1b cc 6a be 15 4d c9 bf 4d 05 97 be
       -0.018650463 -0.22929423 -1.5726649 -0.29496232
000190 62 8d 86 be 3f f2 e9 3b 03 e1 82 3d 63 07 e5 be
       -0.26279742 0.0071394737 0.06390574 -0.44732198
0001a0 f6 26 12 3e 1a a1 8c 3f 60 c9 d1 3c a6 ff 25 bf
       0.14272675 1.0986664 0.025608718 -0.64843214
0001b0 0b e2 30 3c 5b 81 9a bd 04 64 8e 3d e7 ec 7d 3c
       0.01079608 -0.07544204 0.0695267 0.015498376
0001c0 5d 8e 86 bf 67 db 88 bb 3c c0 87 be 85 f5 8a be
       -1.0512196 -0.0041765454 -0.2651385 -0.27140442
0001d0 e9 6c 02 3c cd 59 d7 bb da 19 de be 23 93 77 3d
       0.0079605365 -0.0065719844 -0.43379098 0.060443055
0001e0 53 0c 4d bd 25 63 7a 3d 1b 22 02 40 55 41 69 3d
       -0.05006058 0.061129708 2.0333316 0.05694707
0001f0 95 b5 2a bd b4 28 f9 bd b7 1f 6e be 0e f1 84 3d
       -0.041677076 -0.12165967 -0.23254286 0.0649129
000200 15 74 b2 be 2d a7 e5 be c4 72 7e 3d 72 d2 bd be
       -0.3485419 -0.44854107 0.062121168 -0.3707462
000210 fb 5c 17 bf 1c a2 67 3d f0 ca 08 bf 17 70 0c 40
       -0.5912625 0.056551084 -0.5343466 2.1943414
000220 68 99 ad 3f fa 69 ab 3c 20 11 62 be e6 76 cd be
       1.3562441 0.020924557 -0.22076845 -0.40129775
000230 89 4f a1 bc 1a 28 f5 3c 3f 03 25 3c a5 4e a1 be
       -0.019691246 0.029926348 0.010071575 -0.31505314
000240 7a ec 71 ba d2 95 85 bb 9f 6b 9c be 0f c6 a0 bd
       -0.0009228658 -0.004076698 -0.30550858 -0.07850277
000250 9c 97 28 3d fc 77 9b be b8 d4 e0 be fc 3b 67 3f
       0.04116021 -0.30364978 -0.43912292 0.90325904
000260 03 63 0f bd 06 16 9b 3f fc ae 8c 3d 87 42 63 be
       -0.035006534 1.2116096 0.06869313 -0.22193347
000270 9f 0a 89 be 0b 4d 05 bf 64 b4 4a bf 2c 74 ca 3b
       -0.26765916 -0.52070683 -0.79181504 0.0061783995
000280 87 34 c3 bd 29 5c 8c be 5f fa 12 3d 0b 0c b1 bc
       -0.09531503 -0.27414063 0.035883304 -0.021612188
000290 1b 94 b4 3d 99 85 6c 3d 12 ac 02 3c 49 69 73 3e
       0.088173114 0.057744596 0.007975595 0.23770632
0002a0 79 0d a9 bc 68 92 85 be fe 34 d6 bb ee 7f a5 3d
       -0.020636307 -0.26088262 -0.006537079 0.08081041
0002b0 a7 97 1e 3f be 0d 25 3d 08 4b 53 3d d9 05 3a 3d
       0.61950153 0.04029631 0.051585227 0.045415733
0002c0 2b 52 9d 3f 57 59 39 3d 53 ca c7 3d 31 1d d3 bd
       1.2290701 0.045251217 0.09755387 -0.10308302
0002d0 54 cc 05 bf 62 a1 81 be b0 1d 20 3d a9 d1 0f bf
       -0.52264905 -0.25318438 0.039090812 -0.5617929
0002e0 ac 28 f7 bc 8d d0 53 bf b2 3e 84 3d 00 93 af be
       -0.030170761 -0.827401 0.06457271 -0.3429184
0002f0 f6 4b 31 3d d4 06 8d 3f 4a 1e d6 3c c6 db 1c 3d
       0.043285333 1.1017709 0.02613749 0.03829553
000300 68 44 db bf cf 50 a4 3c 2b d8 67 bd 3d 5d 14 3d
       -1.7130251 0.020058064 -0.05660264 0.03622173
000310 52 81 be bb 09 be 50 3d e2 f9 84 3c 23 42 01 bf
       -0.005813756 0.05096248 0.016232435 -0.5049154
000320 1d 94 c4 be b0 8e db be 16 7f 7c 3c cf f5 b4 be
       -0.3839425 -0.428823 0.015411159 -0.35343787
000330 6d be ee bc d3 fb 13 bd e4 ad e1 bc 39 69 0c bf
       -0.029143536 -0.03612883 -0.027548738 -0.5484806
000340 68 c7 26 bd fa ed 6f 3d f3 1b 8d 3c c3 3d 0b 3d
       -0.040717512 0.05857656 0.017225241 0.033994447
000350 42 f1 16 bf e5 70 30 be 73 f8 91 bd f8 18 17 bf
       -0.5896188 -0.17230566 -0.07127466 -0.59022474
000360 13 20 d9 bf d3 14 fd 3e ae 66 71 3c 5f ab da 3b
       -1.6962913 0.4942995 0.014733953 0.006673261
000370 d0 3f 78 3b 1b 37 a1 bd 9f 41 18 3d e2 40 2e 3f
       0.0037879832 -0.07871839 0.037171956 0.68067753
000380 0c 30 33 3d 82 67 9e be 7a d3 d4 bf 97 e1 9b be
       0.043746993 -0.30938345 -1.6627038 -0.3044555
000390 e1 3f cd be 01 9b 3a 3d e1 99 88 bd f8 41 eb be
       -0.40087798 0.04555798 -0.06669975 -0.45948768
0003a0 80 d0 45 bf 75 00 a2 3f 24 24 20 bd e6 cd da be
       -0.7727127 1.265639 -0.039096966 -0.42735213
0003b0 0f 69 5e 3d c7 2a 31 bd c0 48 f5 3b 84 b3 63 bd
       0.05429941 -0.043253686 0.007485479 -0.05559112
0003c0 4a d4 2b bf 0e 24 6b bd 43 67 db bd 2e fb ed be
       -0.671208 -0.05740743 -0.10713055 -0.46480697
0003d0 6f 6b f7 3c 56 0c aa bc 0f dc f8 be 6a 36 6f bc
       0.030202596 -0.020757835 -0.4860539 -0.014600376
0003e0 d5 ae af 3d 47 4e 49 3d fa 45 f2 3f 1f 10 1b 3c
       0.085782684 0.049146917 1.8927605 0.009464293
0003f0 ee 9a 20 3d 4f ab a7 be 94 78 9a be 27 0a a1 3c
       0.039210252 -0.32747886 -0.3017012 0.019658161

out.bias f4 [3]
000000 8d 48 de be 4e 3e fc be a1 cb 38 bf
       -0.43414727 -0.49266285 -0.72185713
