acrobot_dqn_25-12-3k-128N.pth (torch, 74477 bytes, 6 tensors)

fc1.weight f4 [128, 6]
000000 cd f9 09 c0 8f db 24 bf 96 a4 8f bf f6 d0 2e 3f
       -2.1558716 -0.6439752 -1.1222103 0.682876
000010 f7 b9 36 3f d9 3f 92 be 81 9b 22 bf cc 47 ac bf
       0.7137751 -0.28564337 -0.6351853 -1.3459411
000020 4f 2f 9d bf 81 0c e5 be b5 b8 ab be 75 a3 e4 be
       -1.2280062 -0.44736102 -0.33539358 -0.44655958
000030 9d f2 0a bf 89 2c d9 bd 60 02 bd 3d d5 fa aa bd
       -0.5427645 -0.106041975 0.092289686 -0.08348624
000040 b5 fa ac 3e 35 f5 87 3d 8c 0c 7d be 09 93 34 3d
       0.33785024 0.066385664 -0.24711818 0.044085536
000050 94 d1 40 3f ab a9 16 bf a2 f0 50 3f f8 c1 63 3e
       0.7531979 -0.5885264 0.81617177 0.22241962
000060 7f bd 3b be 41 80 a6 3d 84 6a 9b bd 21 40 e7 3d
       -0.18334006 0.08129931 -0.075886756 0.112915285
000070 df 5d 2d bb 7a 26 94 3c 33 1a d9 bf ff 62 80 3f
       -0.0026453657 0.018084753 -1.696112 1.0030211
000080 40 b7 35 3f bc 92 e5 3f 0e cf 8d 3f 12 6b 78 3e
       0.7098274 1.7935405 1.1078813 0.24259594
000090 dc 31 bf be 38 1d 2a bf e9 c1 12 c0 f2 24 82 bf
       -0.37342727 -0.66450834 -2.2930853 -1.0167525
0000a0 f9 04 44 bd bd 0e 4f 3e 9e 95 a8 bf b8 41 a7 bf
       -0.047856305 0.20220466 -1.317066 -1.3066931
0000b0 b1 69 1f bf c5 94 ec 3f 97 e6 1d 3e e6 3b 8c be
       -0.6227065 1.8482901 0.15419994 -0.2738945
0000c0 ce 39 ec bf de 3d a8 be bb 8e a3 bf 23 63 f2 bf
       -1.845514 -0.328597 -1.2777933 -1.8936504
0000d0 51 34 3d bf 6c f2 02 3f 5a 6e 56 3f 69 61 31 bf
       -0.73907954 0.51151156 0.83762133 -0.6928926
0000e0 64 8b f7 be 7e 0d 6c bf 16 d6 8b 3f 89 16 96 be
       -0.48348534 -0.9220809 1.0924709 -0.29314068
0000f0 0d 9c a8 bf 13 67 75 3f b4 7f 6a be 0b f0 26 bf
       -1.3172623 0.95860404 -0.22900277 -0.65210027
000100 88 f4 39 3f e7 03 7d 3f 6c 40 7f bf a2 4b db bf
       0.7263875 0.9883408 -0.99707675 -1.7132456
000110 f2 d3 c6 bf 43 17 b3 3e 1f cb 11 bf 99 7b b3 be
       -1.553343 0.34978685 -0.56950563 -0.35055235
000120 55 27 1f c0 18 52 65 bf 2c 84 c5 be f1 15 d2 3e
       -2.4867756 -0.8957839 -0.38577402 0.41032365
000130 6f 4a b2 be 1a f0 d0 be a2 a9 55 bf f9 1e a6 be
       -0.34822413 -0.40808183 -0.83461964 -0.32445505
000140 0d e4 36 3f 54 a6 1a bf 3a 1b 8a 3e c2 da 0d 3e
       0.7144173 -0.60410047 0.26973897 0.1385298
000150 36 78 b7 bf c3 e4 0c bf d2 14 3f be 15 f9 24 bf
       -1.433356 -0.5503656 -0.18660286 -0.6444257
000160 b8 76 8f 3e 58 41 c8 3d 7b 13 db bf a7 ad c9 bf
       0.28020263 0.09778088 -1.711532 -1.575612
000170 49 d1 ed 3d 58 08 8c be cd 65 a6 bf fd 7b 5d bf
       0.116121836 -0.27350116 -1.2999817 -0.86517316
000180 55 79 8f bf 31 76 b9 bf 90 5c f9 bf 91 69 34 3f
       -1.1208903 -1.4489194 -1.9481373 0.7047358
000190 c8 f6 37 be d9 7b 06 bf ef ba 72 be 17 2b 50 3e
       -0.17965233 -0.52532727 -0.23704122 0.20328937
0001a0 46 b5 0a be f0 c3 52 3e 91 f8 8f bc f0 72 51 3c
       -0.13545713 0.20582557 -0.01757458 0.012783751
0001b0 20 ac be bd 2b 3c 3e bd 8c 39 83 be 71 43 37 3d
       -0.09310174 -0.0464441 -0.25629842 0.04474205
0001c0 0f 2c 04 3d 79 c0 fe bb 88 9e 19 3f 71 e1 03 40
       0.03226858 -0.0077744094 0.60007524 2.0606349
0001d0 d4 e0 92 bf 2e ef 90 3f 84 f4 49 3d 20 de 11 3f
       -1.1474862 1.1322992 0.049305454 0.5697956
0001e0 b2 9b 34 be 60 e5 f2 3f 4e fd 7c bf 55 3f 11 c0
       -0.17637518 1.897625 -0.9882401 -2.2694905
0001f0 c5 04 0f 3f 38 09 4d 3f 01 49 0c c0 c8 1d 5b 3e
       0.5586665 0.8009219 -2.1919558 0.2139808
000200 cf cc 9d bf 2b 13 57 bf 1f a4 0d be f0 6d 56 3e
       -1.2328128 -0.84013623 -0.13832138 0.20940375
000210 a0 69 68 40 09 41 3c be 39 7a d7 3e a7 8c 9c bc
       3.6314468 -0.18384184 0.42085436 -0.019110037
000220 36 94 94 3e 42 2c 91 3d 85 05 3d bf 26 91 a5 be
       0.29019326 0.0708852 -0.7383655 -0.32337302
000230 fe ae f7 3f 00 c1 a9 bd 15 41 6d 3f 8b 79 61 3e
       1.9350278 -0.08288765 0.9267743 0.22019021
000240 6b 02 2d c0 fa 61 46 bf 32 59 1e bf 39 7b c3 bf
       -2.7032726 -0.7749325 -0.6185485 -1.527198
000250 43 03 91 bd 5d 4b 05 be 4b 13 3c bf b6 fb 73 bf
       -0.070807 -0.1301703 -0.7346694 -0.95305955
000260 08 18 1b c0 75 81 3c 3e 4a f1 04 be 4e 45 01 bf
       -2.4233418 0.18408759 -0.1298267 -0.50496376
000270 0c ce 5f 3d e6 a9 b9 bf 19 e2 b3 bf 72 0c 9a be
       0.05463986 -1.4504974 -1.4053375 -0.3008762
000280 d1 47 2f be 33 e6 10 bf 75 d2 fd bf 7e a0 88 3e
       -0.1711724 -0.56601256 -1.9829851 0.26684946
000290 01 8c 5d 3e df 5c a6 bd fa 26 32 3f b9 b6 ec 3e
       0.21635439 -0.081231825 0.69590724 0.46233156
0002a0 ab bf 08 bf cb 77 b5 bc 24 ef bd 3d 11 48 96 bd
       -0.5341746 -0.022151848 0.09274128 -0.07337964
0002b0 e2 70 82 3c 27 25 3b 3c ed 13 59 bf d2 0e 92 3d
       0.015922967 0.011422432 -0.8479603 0.07131733
0002c0 96 4f a0 bf 07 f3 d1 3f bd ec 5e 3e da 4c a3 be
       -1.2524288 1.6402291 0.21769996 -0.3189457
0002d0 d1 95 b8 bf a5 9e d1 3f 1b 96 70 3d 13 ec 94 3f
       -1.442072 1.637654 0.0587369 1.1634544
0002e0 53 52 61 3f b2 00 4d 3f ce 9e 85 3d dc aa 36 3d
       0.8801624 0.80079186 0.0652443 0.044596538
0002f0 10 16 0d bf d3 cd 9c 3e b8 30 e6 3b 8d 1b ae 3d
       -0.5511179 0.3062578 0.0070248507 0.08501349
000300 97 cd 3b bf 4a 21 c4 3f 7b 82 1d bf 48 d8 71 bf
       -0.7336058 1.5322659 -0.6152722 -0.94470644
000310 61 a2 37 3f fe 4b f0 3e f2 05 08 bf 2f ee f7 bd
       0.71732146 0.46932977 -0.5313407 -0.12105977
000320 99 30 61 3d 57 1e ce bd 21 aa 5f 3e 27 49 a2 3d
       0.054977987 -0.100643806 0.21842243 0.07924109
000330 77 01 d8 bf 58 a2 77 3f 57 ec 73 bf ad 57 f7 be
       -1.6875447 0.9673209 -0.952825 -0.4830908
000340 8d 68 16 bf d6 75 8f 3d 1a 74 e7 bf 16 ee 0d 3e
       -0.5875328 0.07004897 -1.8082306 0.13860354
000350 8f 1c ab 3f 44 b4 94 3e fa 70 20 be fa 1c d0 bd
       1.336809 0.29043782 -0.15668097 -0.10161777
000360 ac 2d 13 c0 11 40 95 3e 0c c5 79 bf 4c 7f c6 3e
       -2.2996626 0.2915044 -0.97566295 0.38768995
000370 88 db 07 3f f3 2c c3 3e 5b 0d 95 40 d1 57 71 be
       0.53069353 0.3812023 4.6578803 -0.23568656
000380 c5 65 0f 3f 0f f6 83 3e 60 51 a5 3d 4c 0c cf 3c
       0.56014663 0.25773665 0.08072162 0.025274418
000390 6e 1e 88 3f 20 28 c3 bd 03 d8 fb bf 81 53 7d bf
       1.0634286 -0.095291376 -1.9675297 -0.9895554
0003a0 b5 72 a4 3e 15 21 e9 3e 11 61 a8 bf ac fa 83 bd
       0.32118765 0.45533052 -1.3154622 -0.06444296
0003b0 65 16 8d 3e 27 93 29 bf 46 15 44 3f 2e 81 df 3e
       0.27556148 -0.6624016 0.7659496 0.43653244
0003c0 26 97 49 c0 f2 34 31 3e aa 7c 96 bf 4f d0 93 3f
       -3.1498504 0.17305353 -1.1756794 1.1547946
0003d0 5f 26 20 3f dc 29 f6 3d 8a c9 1d bf a2 20 27 bf
       0.6255855 0.12019703 -0.6163565 -0.6528417
0003e0 00 ab 82 bf b1 44 9d be 63 65 02 3f cb a8 06 bf
       -1.0208435 -0.3071647 0.50935954 -0.5260131
0003f0 40 55 f3 bf 04 a7 68 bf bd e4 56 bf 72 83 b5 3e
       -1.9010391 -0.90879846 -0.83942777 0.35451847

fc1.bias f4 [128]
000000 41 83 ea bf 91 44 c3 bf 81 7c 82 bf d4 19 1d c0
       -1.8321306 -1.52553 -1.0194246 -2.4547014
000010 82 b7 1f bf fe 05 db bf ed 0e 8b bf 9d 35 ef bf
       -0.62389386 -1.7111204 -1.086393 -1.8688236
000020 9c 94 43 c0 fb ab 11 c0 26 94 cd bf 15 be 85 bf
       -3.0559454 -2.2761219 -1.6060836 -1.0448633
000030 52 f6 ef bf d1 cd 70 3d 40 96 e9 3f af de c7 bf
       -1.8747046 0.05879003 1.8248978 -1.5614833
000040 12 bd f4 bf ed 2d 58 bf 4c 0d 39 bf 32 b5 c7 bf
       -1.91202 -0.8444508 -0.72285914 -1.5602171
000050 9e 32 7a bf ac fd 1e bf 43 7b 52 40 5f e4 c1 bf
       -0.97733486 -0.6210582 3.2887733 -1.5147818
000060 8f f6 64 bf d8 4a 8f bf 9a 59 0a c0 93 d7 a8 bf
       -0.8943872 -1.1194715 -2.1617188 -1.3190788
000070 a1 52 38 bf 89 3c 8f bf 15 42 4f bf 72 ed 0e bf
       -0.7200108 -1.1190349 -0.8096021 -0.5583106
000080 80 d2 ab bf cf 3a 7b bf 65 9d 06 c0 b7 9b fe 3f
       -1.3423615 -0.9813661 -2.1033566 1.989127
000090 f5 26 ba be a7 1a 85 40 eb 1c 15 c0 bd 2f 02 40
       -0.36357847 4.1595035 -2.32989 2.0341637
0000a0 22 66 75 bf a3 45 43 c0 eb af 11 c0 c4 64 0b c0
       -0.9585897 -3.0511253 -2.2763622 -2.1780252
0000b0 6c 42 64 bf a8 5f d2 bd 73 92 4f bd 5f a0 4e bd
       -0.8916385 -0.10272151 -0.050676774 -0.05044591
0000c0 c6 4b 29 c0 04 6c 04 c0 e2 85 16 c0 fd b1 21 bf
       -2.6452498 -2.0690928 -2.3519216 -0.63162214
0000d0 5d 1e e1 bf d9 f6 9b bf 62 53 58 3e 74 34 47 bf
       -1.7587391 -1.2184707 0.21125558 -0.7781441
0000e0 0e b0 ff bf fa 55 ed bf 2c 33 af bf 1a fc f1 bf
       -1.9975603 -1.8541863 -1.3687491 -1.890506
0000f0 9d 8a 94 bf 40 04 bf be eb af f3 be 91 96 5e bf
       -1.1604801 -0.3730793 -0.47595152 -0.86948496
000100 29 d9 bd 3b 0f 23 2c bf 03 e3 1c bf 02 5e 69 40
       0.00579371 -0.67240995 -0.6128389 3.6463628
000110 37 47 6c bf 4f e9 ea be f6 c3 89 3f 3c c5 e6 bf
       -0.92296165 -0.45881125 1.0762928 -1.8028941
000120 29 5e a8 bf d6 60 90 bf 76 8b 09 bf b4 00 f3 bf
       -1.3153735 -1.1279552 -0.53728426 -1.898459
000130 43 3f 9f bf f8 59 01 c0 54 67 0b bf fa ee 94 bf
       -1.2441181 -2.0211163 -0.5445454 -1.163543
000140 13 f5 03 c0 4b 23 49 3f 8b 23 fb be 07 16 09 40
       -2.0618331 0.7856948 -0.49050555 2.1419694
000150 34 05 d4 bf db 68 6a 40 b5 3a 23 bf ed 24 b9 3f
       -1.6564088 3.6626499 -0.63761455 1.4464394
000160 7d 6a f7 bf 81 63 08 c0 0f 6a 24 bf af 8b b9 bf
       -1.9329373 -2.1310732 -0.6422433 -1.4495753
000170 3b f8 15 bf 70 a9 17 c0 ff aa a3 3f 33 6c cb be
       -0.58581895 -2.3697166 1.2786559 -0.39730987
000180 c2 51 73 bf 3a f4 20 40 af ea 20 bf f5 e2 b1 bf
       -0.9504663 2.5149064 -0.628581 -1.3897387
000190 44 7e c6 bc c1 01 d7 bf 44 68 04 c0 17 19 ad bf
       -0.02423013 -1.679741 -2.0688639 -1.3523282
0001a0 f6 6d 27 bf b9 14 bc bf 9a 49 0a c0 f5 38 7c 3e
       -0.6540216 -1.4693824 -2.1607423 0.24631102
0001b0 a4 0c d3 be 40 30 70 bf 4e 06 c6 be 61 cc 1c bf
       -0.41220582 -0.93823624 -0.38676685 -0.6124936
0001c0 45 f7 0f bf 2c 28 b1 bf bc 36 e2 bf b9 fa 5c bf
       -0.5623668 -1.3840384 -1.7672954 -0.8632007
0001d0 2e e0 ab bf 9c c9 b1 bf 8f 29 5d c0 d7 f4 1b c0
       -1.3427789 -1.3889651 -3.4556615 -2.4368188
0001e0 1f ee 94 3f 69 ac d1 bf 1b ad f2 bf f8 f2 1d c0
       1.1635169 -1.638074 -1.8959078 -2.4679546
0001f0 f7 c7 16 bf 9e 41 8d 40 94 8f 5f bf a9 0d 81 bf
       -0.5889887 4.41426 -0.8732846 -1.0082294

fc2.weight f4 [128, 128]
000000 1d c3 bc be 28 d0 88 be 69 fc 6f 3d e6 2a 87 bc
       -0.3686761 -0.2672131 0.058590326 -0.016499948
000010 ec ff 2e bd 42 44 b0 3d 63 36 d5 3e 84 e3 1b be
       -0.042724535 0.08606769 0.41643056 -0.15223509
000020 09 9f 8b be 22 68 32 bd f6 fc 3a be 4d 51 69 be
       -0.27269772 -0.04355634 -0.1826056 -0.2278492
000030 80 19 d3 bd 85 bc 2a be 37 f6 e6 bd 0a 5d 8d 3c
       -0.10307598 -0.16673477 -0.112774305 0.017256279
000040 4f e5 53 bd 45 a7 14 be ab 62 c4 bc 38 e4 54 3e
       -0.051732358 -0.14516933 -0.02397283 0.20790184
000050 09 f5 74 bd 55 f0 8f 3d 98 db 14 3d 9c 5c 99 bc
       -0.059803996 0.070282616 0.036342233 -0.018720917
000060 e1 52 5c 3d 43 32 56 bd 78 63 34 3e 41 18 d0 3e
       0.053789977 -0.052294027 0.1761607 0.40643504
000070 21 06 42 be f9 74 86 bd 28 b1 20 3e 93 ab af bd
       -0.1894765 -0.065652795 0.1569258 -0.08577647
000080 12 1d de 3e 9d b4 7f bd 41 bc 80 3e f5 0f 0b be
       0.43381554 -0.062428106 0.25143626 -0.13580306
000090 95 8b 4d bd db 8e cf bd 0c bd ba bd af 6c f9 3d
       -0.050181944 -0.101346694 -0.09118089 0.12178933
0000a0 0f 6f 63 3e ae f9 48 bf 2e 1a 9a be 34 b7 ed 3e
       0.22210334 -0.7850598 -0.300981 0.46428835
0000b0 d0 9d 58 be 91 a3 a1 3b 71 28 ff bd 13 b5 d2 bc
       -0.2115395 0.0049328287 -0.124588855 -0.025721109
0000c0 d0 55 74 be 4d 27 f4 be 47 6e aa 3e ae 57 79 3d
       -0.2386086 -0.47686234 0.3328726 0.060874633
0000d0 a3 40 9e bc a5 81 fd 3d b2 44 25 be 49 fb d9 3d
       -0.01931793 0.12378243 -0.16139486 0.10643632
0000e0 45 ce 1d be 21 17 29 bd 38 2d 08 3f 6e 27 a2 3e
       -0.15410717 -0.041281823 0.53194 0.31670707
0000f0 be f2 8d 3e cf dd c6 3e db 8b 9e bc 31 1e 2f 3d
       0.2772426 0.38841102 -0.019353798 0.042753402
000100 44 7e 94 be c5 bc 01 3d 83 13 d4 3c 8b 7c 36 be
       -0.29002583 0.031674165 0.02588821 -0.17820947
000110 0e 7e 1e be cb 9e 76 be c1 c8 59 bb ff 49 f6 bd
       -0.15477774 -0.24084012 -0.003323123 -0.120258324
000120 08 3b ee bd f0 dc c9 be f3 54 9b be 31 a7 96 3e
       -0.11632353 -0.39426374 -0.3033825 0.29424432
000130 26 b0 2a 3e 31 35 f4 3d 35 df 9a be 49 e3 21 bf
       0.16668758 0.11924208 -0.30248418 -0.63237435
000140 65 67 c5 be 4a 99 c2 bd 89 78 a0 bb df 56 46 bd
       -0.38555446 -0.09501894 -0.0048971814 -0.04842269
000150 39 8d 41 3e e9 1a 9f be b7 a6 9c 3e a4 cb 86 bd
       0.18901528 -0.31075218 0.30595943 -0.0658181
000160 d1 65 10 be 66 ce c2 bd b1 99 6f bb 91 58 46 3e
       -0.1410134 -0.09512024 -0.0036560113 0.19369723
000170 d6 29 c0 bd ab 62 91 be 58 48 a8 bb 29 88 10 3d
       -0.093829796 -0.2839559 -0.005135577 0.035286102
000180 8d 53 fe 3d 62 11 f5 bd a8 b0 19 bd 63 04 2e be
       0.1241828 -0.11966206 -0.03752199 -0.16993861
000190 2a 4b 25 bc 13 44 cb be cc 72 8c 3c 65 0b d8 3d
       -0.010088721 -0.39700374 0.017144583 0.10549048
0001a0 0c 9c 04 bf 8e 2f ce bd 4c 91 f9 bd 34 2a 48 3d
       -0.5180061 -0.10067664 -0.12185916 0.048868373
0001b0 ea ea 52 be a6 71 bb 3d fa bf 68 be 89 99 04 bf
       -0.20597425 0.09152536 -0.22729483 -0.51796776
0001c0 aa ca 88 bc f9 58 9e bd 2f 77 44 be c0 35 c3 be
       -0.0166982 -0.07731814 -0.1918609 -0.38126945
0001d0 26 ab 0a 3f b2 96 1b 3e b8 e4 cc be d5 bb e1 be
       0.541674 0.15194204 -0.4001825 -0.44088617
0001e0 39 7c 8a be d3 b5 42 bd 95 a9 79 be aa 43 00 bf
       -0.270479 -0.047536682 -0.24381097 -0.5010325
0001f0 db ad b0 3d 1d d0 05 be 2d f6 3b be be 12 81 bc
       0.0862691 -0.1306767 -0.18355627 -0.015756007
000200 f8 43 16 be a8 2b 24 3d ba ab 83 3d bf 15 51 bd
       -0.14674366 0.040080696 0.064292386 -0.05104613
000210 8e 87 a0 bd af 29 9e 3b c5 60 86 bc 55 4e 11 be
       -0.07838355 0.0048267464 -0.016403565 -0.14190038
000220 c6 4c 11 bd 65 31 61 bc c9 55 ad bd e9 99 81 3d
       -0.035473607 -0.013744687 -0.08463628 0.06328184
000230 cc 65 eb bc d1 8b fe bd df 72 44 bd 95 97 12 be
       -0.028735064 -0.124290116 -0.047961112 -0.14315636
000240 40 09 6e 3d b8 f2 cb bd 72 a5 0a 3a 45 6d 27 bd
       0.05811429 -0.09958404 0.00052889355 -0.040875692
000250 cf 85 2a 3d 88 ec f6 3c a1 8c 08 be 79 91 48 bd
       0.041631516 0.030142084 -0.13334896 -0.04896686
000260 90 16 85 bd d1 e6 a8 bd ba 5c 15 bd 01 bf 92 3c
       -0.06498444 -0.0824715 -0.036465384 0.017913343
000270 cb f3 93 3d 7b 68 19 3d f2 96 a6 bd a0 66 89 bd
       0.07224234 0.037453156 -0.08134259 -0.06709027
000280 be 7d 8e bc 02 eb 97 bd ae 04 9b 3c ae cd 7d bd
       -0.017393943 -0.07417871 0.01892313 -0.06196373
000290 8d 1d 02 bc 15 49 1b be 2f ce 1a bb 83 73 85 bd
       -0.007941616 -0.15164597 -0.002362143 -0.06516173
0002a0 24 6b 1c 3d 14 52 15 be d6 8d 71 3d 59 42 4d 3d
       0.038188115 -0.14582092 0.058973156 0.050112102
0002b0 13 69 56 3d 85 39 54 be 73 46 c9 bb b6 41 ab bd
       0.0523463 -0.20725067 -0.0061424314 -0.08362143
0002c0 df ab 33 bd ed f3 80 3c e8 e7 9e bd 35 c4 12 bd
       -0.04386508 0.015741313 -0.07759076 -0.03583165
0002d0 c2 c9 30 bc a9 73 2f bd e8 4d 27 be b0 bb 44 bd
       -0.01079029 -0.04283491 -0.16338313 -0.048030555
0002e0 c6 9e d2 3d ce 74 f6 3d 78 7e 13 bc 27 fe ea bd
       0.1028419 0.120339975 -0.0090023205 -0.11474257
0002f0 ec 7d e1 bc bf ef f5 bd 0d a5 2c bd bc 8d 45 3d
       -0.027525865 -0.120086186 -0.042149592 0.04823087
000300 a8 f9 e0 bd 8d 6b c7 bd a6 f2 3c bd 20 5f a3 bd
       -0.10985118 -0.097373106 -0.046129845 -0.07977128
000310 9e f1 83 bd 6d e8 7a 3c 0b 0b 3b bd 39 49 c4 3d
       -0.06442569 0.015314204 -0.04566483 0.095842786
000320 d8 4f c6 bd 13 38 e7 bd e1 47 c1 3d 61 73 bf bc
       -0.09683198 -0.11289992 0.09437538 -0.023370447
000330 38 b3 80 bd 6a a6 34 be cc 87 7f 3d 9f 35 79 3c
       -0.06284183 -0.17641607 0.062385365 0.015210538
000340 ea 79 a2 3d 1e d8 dd bd 0d 27 21 3d 8a d6 20 3d
       0.079334095 -0.10832237 0.039343882 0.0392671
000350 ad 99 51 3d c6 c0 c8 bd 7f 47 1d bd c0 bf 8c bd
       0.051171947 -0.098023936 -0.038398262 -0.06872511
000360 fe fe 6c bd 20 11 7a 3c c5 70 86 bc d0 3e 08 bc
       -0.057860367 0.015262872 -0.016411195 -0.008315757
000370 85 1b af 3d 2c 7b 00 be 0e bb 67 bd 4f a7 99 3d
       0.08550171 -0.12546986 -0.056574874 0.07502615
000380 2f 31 c4 bd af 1c 99 bd dc 24 a5 bd 7e c0 26 be
       -0.095796935 -0.07476174 -0.08063671 -0.16284367
000390 f5 a5 48 bd cb 05 46 3d 7c 35 ca bd 8b 22 a4 bd
       -0.048986394 0.04834537 -0.098734826 -0.08014401
0003a0 b5 b9 f2 3d f9 1a bc 3c 1f f0 25 bd 1d ca 64 3d
       0.11851827 0.02296208 -0.0405122 0.055856813
0003b0 9a e1 c3 bc d5 74 f8 bd a8 13 1f be 17 8f 8b bd
       -0.023911286 -0.12131659 -0.15534842 -0.068144016
0003c0 6b 57 8e bd 8a bc bb 3c 6b 59 67 bc fe 69 c4 bd
       -0.069502674 0.02291705 -0.01412044 -0.09590529
0003d0 f1 22 87 bd 1e 7d 47 bc 41 3e 8f bd 13 80 3b 3d
       -0.065984614 -0.012175826 -0.06994296 0.045776438
0003e0 03 23 15 be 04 ee da 3c 8a fa bb bd d2 d8 cc bc
       -0.14564137 0.026724823 -0.09178646 -0.025005732
0003f0 b5 a2 8a bd 74 e4 1d bd 88 87 95 3c b4 b6 82 bd
       -0.06769315 -0.038547948 0.018253103 -0.06382504

fc2.bias f4 [128]
000000 8d 19 84 3f 62 64 d2 bd 5d 4f 4d 40 09 1e 74 bd
       1.0320297 -0.10273053 3.207969 -0.059598956
000010 3d c4 f7 3f 3b 81 97 40 fd 8c 7a bd 53 6d a1 bd
       1.9356762 4.734525 -0.061169613 -0.0788218
000020 3a 86 84 bd 9e 13 95 3d 98 64 2e 3f 13 12 18 3f
       -0.06470914 0.07279132 0.68122244 0.5940258
000030 e7 af bd be 7b b8 14 bf 48 0a 84 be b0 59 cb 3f
       -0.37048265 -0.58093995 -0.25789094 1.5886745
000040 a2 80 b1 40 03 c0 f1 bd ef e7 79 3f 67 65 26 40
       5.5469522 -0.118042015 0.9761953 2.599939
000050 7f b1 11 3f 1b 9d af 3f 70 73 44 bd 62 fb 2d 40
       0.5691146 1.371982 -0.047961652 2.7184682
000060 41 57 c6 bf 23 d7 01 40 8b 46 b7 3b 1b 95 9d 3f
       -1.5495378 2.028756 0.005593126 1.2311128
000070 69 63 88 bd df d4 7e 40 60 ef 55 be 23 e5 b6 40
       -0.06659586 3.9817426 -0.20892096 5.715471
000080 13 02 c1 bd 8a 1c 01 3e f4 10 23 be a2 00 20 bd
       -0.09424224 0.12608543 -0.15924436 -0.039063103
000090 29 9b 2c 3f 1f 91 e4 3d 78 8a af be 46 08 c9 bc
       0.67424256 0.11160492 -0.3428533 -0.024540078
0000a0 cc f3 f5 3f ce 95 30 be d9 1b 0d 3f fe a7 29 40
       1.9215026 -0.17244646 0.5512062 2.6508784
0000b0 ff 52 d3 3f 59 44 30 3f 9c 89 26 40 54 27 c4 bd
       1.6509703 0.6885429 2.602149 -0.09577814
0000c0 9f 47 23 40 61 f5 2b 40 64 bc 9c 3f 89 8a 04 40
       2.5512464 2.6868517 1.2244992 2.0709555
0000d0 38 a7 56 40 a6 0e 12 bb 28 61 93 3e 79 d5 8b be
       3.3539562 -0.0022286563 0.28785062 -0.27311304
0000e0 90 f0 e5 3f 32 dc 52 bc 55 8d 0e 3f 23 f2 0e 40
       1.7964039 -0.0128698815 0.55684406 2.2335289
0000f0 88 ca c0 40 9f 13 6b bd b9 77 29 3f 92 8b 3b 3f
       6.024723 -0.05739176 0.6619831 0.7325984
000100 7c ad 04 40 12 45 2c 3f e3 55 76 3f bc 54 35 bd
       2.0730886 0.6729289 0.962248 -0.044270262
000110 6b 5f 52 be 69 a8 b5 40 1e 84 c9 3c 45 0b cc bd
       -0.20544212 5.676808 0.024599131 -0.09963087
000120 d9 45 d9 3d 66 c5 82 bc 37 fc 80 40 ee 00 0b be
       0.106090255 -0.015963268 4.030788 -0.13574573
000130 e2 f0 07 3d 70 27 76 bd 56 f6 a9 bd 38 6c 25 3f
       0.033188708 -0.060096204 -0.08298938 0.64618254
000140 90 61 94 bd 73 1e 1f 40 4d b2 1e 3e 28 1b 25 bd
       -0.07245171 2.4862335 0.15497704 -0.0403091
000150 dc 26 08 3f 23 b6 35 40 0e 5c 25 3d 53 fd 35 3d
       0.53184295 2.8392417 0.040370993 0.044431042
000160 6e 79 c2 3f 92 1a 89 3c 6d f4 24 40 d0 3d ed 3f
       1.5193307 0.016736303 2.5774186 1.8534489
000170 61 89 0c 3c 77 5b c2 3f da 65 97 40 ed e9 7d 3f
       0.008577676 1.5184163 4.731183 0.9918507
000180 ac c8 77 3d 5b 6b 72 bc 23 8e ed 3c 5f 43 f8 3f
       0.06049411 -0.014796103 0.02899844 1.939556
000190 6a 43 44 bc b6 83 6a bd ca 06 6a 3f f8 b7 b9 3f
       -0.011978963 -0.057254516 0.9141661 1.4509268
0001a0 99 03 a2 3e 05 6b af bd 4c c1 93 3f 33 37 11 3d
       0.3164337 -0.08565334 1.1543365 0.035453033
0001b0 2d 6c c7 3f 3c b9 4a bd 1c 99 9b bd ff 06 8d 40
       1.5579888 -0.04949306 -0.07597563 4.407104
0001c0 49 e5 c3 3f a7 76 08 bd a0 af 82 bc 84 fc cf 3f
       1.5304347 -0.03331628 -0.015952885 1.6248937
0001d0 36 53 9c 3f ec 34 18 3d ca 6d ba 3e 0b 92 d4 bd
       1.2212894 0.037159845 0.36411887 -0.10379418
0001e0 e6 15 46 bd 4e 79 ab bd c3 d1 95 3e 29 bc af 3c
       -0.048360728 -0.083727464 0.29261598 0.021452026
0001f0 d2 94 19 bd 3b ea 52 3f 36 0f 33 3d 28 c0 27 3f
       -0.03749544 0.8238866 0.04371568 0.6552758

out.weight f4 [3, 128]
000000 d0 61 a3 3b fd 8f 41 bd a1 c3 57 bf 1c 82 2d 3d
       0.0049860254 -0.04725646 -0.8428288 0.04236041
000010 f4 2c 0e be 1c 00 c3 be 0e 9c 89 3c 33 66 af bc
       -0.13884336 -0.3808602 0.016798045 -0.021411037
000020 0a ca a1 bb 5d 3c 67 bc 50 2e 0c 3e 96 20 2a bb
       -0.004937415 -0.014113513 0.13689542 -0.0025959364
000030 e1 3a 31 3c 70 1d 8c 3f 85 fd 71 3b 0e 83 84 be
       0.0108172605 1.0946484 0.003692479 -0.25881237
000040 28 2e 2b be af 0e 7b 3d ba 56 01 bc b6 68 b9 bf
       -0.16716826 0.0612933 -0.007894212 -1.448508
000050 d2 4a 19 3b b0 91 12 bf 44 e9 6c bd bf 22 38 bf
       0.0023390544 -0.5725355 -0.057839647 -0.7192802
000060 4c 1b 97 3e 33 36 ac be c9 e7 e5 bc 2e d4 7d 3f
       0.29513013 -0.336351 -0.028064625 0.99151886
000070 58 e3 b8 bc a0 2a 1d be d4 ea 49 3d da 48 34 be
       -0.022569343 -0.15348291 0.049296215 -0.17605916
000080 1e 24 01 3d 71 17 a0 bd 42 bf ae 3d df cf 8a bd
       0.031528585 -0.07816971 0.08532573 -0.067779295
000090 e0 cc 12 bf 19 d3 30 3d 3e 07 c4 3d 54 4d 11 bd
       -0.57343864 0.04317007 0.09571694 -0.035474136
0000a0 6f f1 a3 bf 70 b9 f0 bc 65 57 6b 3d e1 f8 a7 bf
       -1.2808055 -0.029385298 0.057456393 -1.3122827
0000b0 10 39 06 bf c2 d2 72 3f 85 ed ff bd a3 03 09 bd
       -0.5243082 0.9485284 -0.12496475 -0.033450734
0000c0 ac c8 25 3d bf a0 2c be 42 fd 7f bf c3 5c c8 be
       0.04047458 -0.16858195 -0.99995816 -0.39133272
0000d0 46 8a 0d bf 82 65 e0 3b 9a 28 77 3d d1 4c dd bd
       -0.55289114 0.006848038 0.060341455 -0.10805667
0000e0 d5 69 35 3f 90 e7 33 bc 81 99 c4 3e d8 20 a4 3e
       0.7086461 -0.010980502 0.38398364 0.32056308
0000f0 4d 55 a0 be c2 98 78 bd 0f 41 39 3d 0e 23 5b bf
       -0.3131508 -0.060692556 0.04522806 -0.85600364
000100 70 8f dd be f2 57 52 bf 53 20 ac be 1f f7 3d bd
       -0.43273497 -0.82165444 -0.3361841 -0.04637825
000110 03 d6 51 3d d3 e6 83 be f5 76 dd ba 1b 35 08 3d
       0.051229488 -0.25762042 -0.0016896414 0.03325377
000120 3c 5b e6 bc 62 e6 b9 ba 3f 04 54 be df 00 a8 3e
       -0.028119676 -0.0014183039 -0.20704745 0.32813165
000130 78 57 1b bd 09 e7 4c 3d 92 b3 69 3d 34 5f 61 be
       -0.037925214 0.05002502 0.057056017 -0.22008973
000140 97 8c 0c 3d be db 96 3c aa 04 03 3f 34 2e 3d 3d
       0.034313764 0.018415328 0.5117899 0.04618664
000150 48 12 12 3d 97 7e 77 be b7 5a 01 bc 50 55 11 3b
       0.035661966 -0.24169384 -0.007895163 0.0022176094
000160 9f 9d 2f bb 18 b8 78 bf 27 5e 24 bf 77 16 5d bc
       -0.002679683 -0.97155905 -0.64206165 -0.013494126
000170 50 35 fa 3b ee 48 1f bf 10 c8 74 be f4 40 0d 3d
       0.00763575 -0.62220657 -0.23904443 0.034485772
000180 fd 68 2c 3d 66 4a 06 bd 3d 02 df 3c 38 5c 5f 3d
       0.042092312 -0.032785796 0.027222747 0.054531306
000190 d3 a9 f1 3c 8e c4 1d 3d 8f 65 84 3f 5a dd 85 bc
       0.029499924 0.038517527 1.0343493 -0.0163409
0001a0 96 70 98 3d 03 b1 ad bd 05 a7 e3 bd ea 67 42 3c
       0.07443349 -0.08481028 -0.11115841 0.011865595
0001b0 32 45 6e bc 90 2f 3c bc 96 01 24 3e 85 fe 85 3d
       -0.014542865 -0.011485949 0.1601623 0.065426864
0001c0 76 db 64 3c 0d 87 88 3c fe 4b a7 3c 9b b4 3d 3c
       0.013968339 0.01666596 0.020421978 0.011578704
0001d0 f2 a7 a1 bc 80 e0 40 3c 1f 86 34 3d a0 4e 6d bd
       -0.019733403 0.011772275 0.04407322 -0.05793631
0001e0 fe 18 71 3b 9d 26 87 3d bc bf da bd 6c f0 6d 3c
       0.0036788578 0.06599162 -0.10681102 0.014522653
0001f0 7c 02 12 3d ac ba ec 3d 8c 5a 31 3d 36 d1 70 3f
       0.0356469 0.11559042 0.043299243 0.9406923
000200 2e aa 5e bc 8d b0 32 bd 75 8e 62 bf 65 5f 55 3d
       -0.013590379 -0.043625403 -0.8849862 0.05209293
000210 14 02 9f bd 04 2f 88 be 05 b6 dd bc f6 4e 02 bb
       -0.07764068 -0.2659837 -0.027064333 -0.001988349
000220 82 df 98 3d b9 31 69 3d 28 2c a5 3d c9 ad 05 3d
       0.07464506 0.056932185 0.08065063 0.032636438
000230 52 ce f5 bb 7b b2 95 3f bb 4f 4a 3e 76 36 8c be
       -0.007501402 1.1695093 0.19756977 -0.273853
000240 49 5e 83 be 5c cb de 3d 67 f4 ff bc 75 a3 97 bf
       -0.2565787 0.108786315 -0.03124447 -1.1846758
000250 74 4d 35 3c 29 59 14 bf 7b 13 8b 3d 57 38 41 bf
       0.01106583 -0.5794855 0.06790825 -0.7547659
000260 00 16 95 3e c6 0b f0 3c 32 04 ad bd b1 0c 7d 3f
       0.29118347 0.029302489 -0.08448066 0.9884749
000270 b4 b1 99 bd 91 60 9d be 5c 42 fd 3d 21 86 7e be
       -0.07504597 -0.30737737 0.12366173 -0.24855854
000280 4f ed 0a 3e 1b 48 00 3d 65 90 af 3c 58 f8 41 bc
       0.13567089 0.031318765 0.021431157 -0.011838995
000290 bd 10 26 bf 05 62 41 bc bb 4f c8 ba 8f 82 c6 bc
       -0.6486929 -0.011803155 -0.0015282551 -0.024232177
0002a0 4a 31 a1 bf 9b db 23 bd 91 0d 1e bc ea b2 ac bf
       -1.2593167 -0.040004354 -0.009646789 -1.34921
0002b0 9d fa 2b bf 00 5b 77 3f a1 a8 49 be 58 94 c9 bc
       -0.6717928 0.9662323 -0.19693233 -0.024606869
0002c0 72 5e 8c be bd d4 8f be a3 5d 77 bf 9b ba cf be
       -0.27415806 -0.28091994 -0.96627253 -0.40572056
0002d0 e2 00 12 bf 72 26 bd 3c cb 37 29 3d 2b 96 86 bd
       -0.570326 0.023089621 0.041312974 -0.06571611
0002e0 c8 1d 37 3f 84 f5 99 bc e9 b1 bf 3e c4 fb d1 3e
       0.7152982 -0.018793829 0.37440422 0.41012394
0002f0 b6 b7 99 be e0 f2 92 ba 42 a7 df bd 7a be 6c bf
       -0.30022973 -0.0011211298 -0.10920574 -0.92478144
000300 8e 6f e0 be 3f 4a 36 bf 3c a9 ce be 4a cc 5d bd
       -0.4383511 -0.7120704 -0.4036349 -0.054149903
000310 11 b8 a5 3d 6b f8 39 be 4f cf 3d 3d 1f fd f1 3c
       0.080917485 -0.1816117 0.046340283 0.029539643
000320 ef d6 24 3d 3d 7c 76 3d 75 11 21 be 06 0a ab 3e
       0.04024404 0.060177077 -0.15729316 0.33406085
000330 da 02 51 bd 98 ed 28 bd d3 48 89 3d 49 61 53 be
       -0.05102811 -0.041242212 0.06703343 -0.2064258
000340 41 27 25 3d 6f 52 30 be 1e 97 05 3f 60 e7 82 bb
       0.04032064 -0.17218946 0.5218371 -0.003994867
000350 e2 19 9d bc d7 7b 17 be 50 b7 37 3c 44 33 0f bd
       -0.019177381 -0.14793335 0.011213139 -0.034961
000360 1c ff 1c be 72 fc 65 bf d2 90 1c bf 9d 77 97 3c
       -0.15331692 -0.89838326 -0.6115848 0.018489653
000370 e7 0a b6 bd bb 43 03 bf bc 0e 02 be db 2a 8f bc
       -0.08888798 -0.51275223 -0.12700933 -0.01747649
000380 64 5b 18 3d e7 0d 5c bc ee 78 92 3d a3 95 c9 bd
       0.037196532 -0.013431049 0.07151972 -0.09842994
000390 cd d0 90 bc fa f7 e3 3c e2 1f 76 3f ea b8 e2 3a
       -0.017677689 0.027828205 0.961424 0.001729754
0003a0 44 b9 e7 3d ef a2 e2 bd 33 6c 62 bd 78 f5 c0 3c
       0.113146335 -0.11066233 -0.055278968 0.023554549
0003b0 f6 74 11 bc 80 e2 4a bd 17 a1 af 3d 5e 78 84 bd
       -0.008877983 -0.049532413 0.08575647 -0.06468271
0003c0 eb 6f 07 3d be e6 96 3c 50 7c 71 bd 78 8d d4 3c
       0.033065718 0.018420573 -0.058956444 0.025946364
0003d0 1e ae 76 3c 95 01 92 3d 8e a0 93 3d 1e 9d 89 3c
       0.015056161 0.07129208 0.07208358 0.016798552
0003e0 9d 24 90 3d 66 af e1 bc 1a 62 a2 3c 6c f9 23 3d
       0.070382334 -0.027549457 0.01982217 0.04003279
0003f0 29 e4 f4 bc 9f e9 e2 3d d6 b8 bc 3c 86 b0 65 3f
       -0.029893951 0.11079716 0.023037355 0.8972248

out.bias f4 [3]
000000 9c 12 95 c0 2f fe 8e c0 21 86 89 c0
       -4.6585217 -4.4685283 -4.297623
