acrobot_dqn_25-12-5k-128N.pth (torch, 74477 bytes, 6 tensors)

fc1.weight f4 [128, 6]
000000 2e 73 77 bf 3a 8d f6 bf ef b3 c8 bf ab 6d be 3d
       -0.96660125 -1.9261849 -1.5679911 0.09298261
000010 63 d3 3b bf 57 7e 02 bf 2c b5 40 bf a5 d0 23 3f
       -0.73369426 -0.5097403 -0.75276446 0.6399024
000020 e9 f4 b3 3f b4 5d 8b 3e 0a ff 45 bd 64 b7 2e 3d
       1.4059116 0.27219927 -0.048338927 0.042655364
000030 01 3e c8 3d 95 62 ae 3d f2 3e e9 be 95 77 15 be
       0.09777451 0.08514897 -0.45555836 -0.14596398
000040 9c 45 1c ba d9 ec 37 3b 8e 29 20 bf 5c cc bd 3f
       -0.00059613003 0.0028064756 -0.6256341 1.482799
000050 97 38 bc be e4 f5 e7 3f 4c 07 3c 3f e1 b2 5d 3d
       -0.36761925 1.8121915 0.73448634 0.05412567
000060 65 17 11 c0 0e 8d b1 3f ce ce 75 bf 66 4e 05 3f
       -2.267053 1.3871171 -0.96018684 0.5207275
000070 54 25 3d 3f b5 57 5a 3e aa b1 0f 3e 67 79 4c 3f
       0.73885083 0.2132252 0.14032617 0.79872745
000080 4f 7a 43 be 95 71 07 3e 9b aa aa bf c3 de 84 3e
       -0.19089626 0.13226922 -1.3333315 0.25951204
000090 b8 0c ee 3e 0f d0 6f bf 6d 09 a3 3e f2 27 f6 bf
       0.4649408 -0.9367685 0.3184313 -1.923094
0000a0 c7 d4 f3 3e 70 23 ab 3e 09 1d cf bd 41 97 e7 3f
       0.47623274 0.33425474 -0.1011296 1.8093034
0000b0 f8 06 6e bf 10 b4 d9 be 10 2c 5f 3f 44 74 0b 3f
       -0.92979383 -0.4252019 0.8717661 0.5447428
0000c0 01 ae 21 40 cf ac c3 3e f1 69 0b bf 27 14 1b 3e
       2.5262454 0.3821778 -0.5445853 0.15144406
0000d0 1a 44 8a be 43 68 a8 bd 1d 3d ce bf d4 be 26 3f
       -0.27005082 -0.08223011 -1.61124 0.6513493
0000e0 7c 54 24 bf c7 38 1e c0 98 90 89 be 75 43 c1 3e
       -0.6419141 -2.4722154 -0.2686813 0.37746778
0000f0 1e 0f fc 3e 8e 21 38 c0 f9 48 8f 3f a9 34 e0 bf
       0.49230283 -2.877048 1.1194144 -1.7516071
000100 39 60 d7 3b d0 95 f5 bd 6d bb 1d c0 4f b7 6a 3f
       0.00657275 -0.11991465 -2.4645646 0.91685957
000110 40 f1 96 3e ab 55 57 3e fe 10 85 bf 0a 98 91 be
       0.29480934 0.21028773 -1.0395811 -0.2843631
000120 5f c2 f0 bf 4d 33 a9 3e bd 46 d4 3f 1f 31 00 bf
       -1.8809317 0.33046952 1.6584088 -0.5007495
000130 df 23 82 bf ad 34 d7 be 7c cd 62 3b bc ad 77 be
       -1.0167197 -0.42032376 0.0034607342 -0.24187368
000140 93 91 83 3f 50 d3 90 bf 07 40 88 3f 8e bb a5 3e
       1.0278801 -1.1314487 1.064454 0.32369655
000150 fa eb 21 be c0 14 00 3d 73 f8 19 be d2 f0 f1 bb
       -0.15812674 0.03126979 -0.15036182 -0.0073834443
000160 52 b2 60 3c 88 c8 0c bc e6 6f 2e bf b6 74 18 c0
       0.01371439 -0.008592732 -0.68139493 -2.3821235
000170 45 7b 84 bf 9a 33 99 be 13 85 cf be 14 85 2b bf
       -1.0350119 -0.2992218 -0.40531215 -0.66999936
000180 15 a1 65 bf 41 c2 20 3e 6f de 1a 3f f4 9a c3 3d
       -0.89698917 0.15699102 0.60495657 0.09551039
000190 33 93 e0 bc 34 42 69 3d 8c 43 22 bf f4 25 15 c0
       -0.02741394 0.0569479 -0.6338432 -2.3304415
0001a0 8f 8e 6f 3e 3a 83 c1 3f 1c ad cf bd d8 e9 91 be
       0.23394226 1.5118172 -0.1014044 -0.2849872
0001b0 ac 7c 14 c0 5c 38 9d 3e 02 7f 0a 40 e0 a7 58 3e
       -2.3201094 0.3070706 2.164002 0.21157789
0001c0 e5 d2 c2 3e 44 cb 42 3e e8 11 31 c0 4d ed a0 3f
       0.38051525 0.19022852 -2.766718 1.2572418
0001d0 22 4f 97 be b4 27 7b be c4 56 4b be b5 c5 dd 3e
       -0.2955256 -0.24526864 -0.19857317 0.433149
0001e0 59 d9 45 c0 c5 73 b0 bc 6a 8f 52 be ac b4 ab bf
       -3.0913908 -0.021539578 -0.2056252 -1.3414512
0001f0 4a ef 76 3e ae 81 bd 3e 79 6d e6 bf 55 03 31 3f
       0.24114719 0.37013 -1.8002158 0.6914571
000200 1a 94 3f bf 78 00 9e 3f 9b 3b 8f 3f 23 45 42 bd
       -0.7483536 1.2343893 1.1190065 -0.047429215
000210 ca 81 1f c0 62 e0 ba bf 62 1b 0e be d6 8d ea 3f
       -2.4922967 -1.4599726 -0.13877633 1.8324535
000220 5b 83 a4 3e 60 69 9b be 49 b8 b5 be 45 82 8e 3f
       0.32131466 -0.30353832 -0.3549216 1.1133505
000230 a7 51 dd 3d a9 df 63 3f 89 ad 93 bf 4a 96 b4 3e
       0.108065896 0.89013153 -1.1537334 0.3527091
000240 f4 83 de bd df 35 59 3f 3e 97 ce bf d6 b2 79 bf
       -0.10865012 0.84847826 -1.6139905 -0.97538507
000250 c5 73 db 3e 32 6d b4 3e 0c 6f ac bf 01 91 f5 be
       0.42861763 0.3523956 -1.3471389 -0.47962192
000260 aa 1c 6d 3e 54 6f 48 3f 03 c7 4d 3f cb ad d3 3d
       0.23155466 0.78294873 0.8038179 0.10335883
000270 67 e7 86 bc 2f f5 38 bc fe f2 73 bd 27 e1 82 bc
       -0.016467763 -0.011288925 -0.059557907 -0.015976502
000280 87 65 9f 3b 90 a1 7c bb 05 10 2e be 83 ae 65 3c
       0.004864398 -0.0038548447 -0.16998298 0.014018658
000290 40 db d7 bc 36 7d 25 bd 81 0f 44 bb ff 0c 85 3c
       -0.026349664 -0.040402614 -0.0029916468 0.016241549
0002a0 86 dd 0a bf 97 60 86 bf 01 29 4a 3f ba 04 e0 be
       -0.5424427 -1.0498227 0.78968817 -0.43753606
0002b0 49 17 a0 3f 12 fe 5e 3f 1b 63 c5 3e 99 41 a5 3f
       1.2507106 0.8710643 0.38552174 1.2910644
0002c0 fd 9e b8 bf 5e cc e0 bd a1 66 4c 3f b7 3a 56 3f
       -1.4423519 -0.1097648 0.798441 0.8368334
0002d0 26 05 b8 40 e4 43 f4 3e 17 14 91 3f b5 62 fd 3d
       5.7506285 0.47708046 1.1334256 0.123723425
0002e0 90 3e 98 3e 31 9b 80 3e ea a7 19 c0 e7 7e fa 3e
       0.2973523 0.25118402 -2.4008737 0.48924944
0002f0 74 14 8f bf c9 e9 e5 3f b8 d1 ea bd 35 4e 8a bd
       -1.1178117 1.796197 -0.11465782 -0.06753198
000300 ba 5f 43 c0 2f 77 91 be 49 a1 02 be d8 14 fc 3e
       -3.0527177 -0.28411242 -0.12756838 0.49234653
000310 74 95 f6 3e 77 c7 53 3e e1 87 0e be f1 9d 1c bb
       0.481609 0.20681559 -0.13919021 -0.0023897851
000320 d8 50 6c bd 09 ea fa b9 92 6b 67 bb b9 7a 42 b9
       -0.057694286 -0.00047858086 -0.003531192 -0.00018547
000330 c0 fa f0 3d dc 00 1c be eb a5 fb bc b7 8d c3 bd
       0.11766577 -0.15234703 -0.030718764 -0.09548514
000340 21 1e e6 bb 58 96 a7 bc 82 39 a4 bf 6a 04 a5 be
       -0.0070226346 -0.020457432 -1.283005 -0.3222993
000350 bf ee 5d bf 7a 10 9c 3f e5 2a e4 3c f9 2f c3 3e
       -0.8669242 1.2192528 0.027852485 0.38122538
000360 63 96 00 c0 8a 16 d9 bf f3 63 8a bf 12 bf 67 3f
       -2.0091789 -1.6960003 -1.0811752 0.90525925
000370 0d 6c c6 3d 06 52 e2 be 0c 10 06 c0 3f 06 14 3f
       0.09688578 -0.44203204 -2.0947294 0.5782203
000380 3f 98 20 c0 21 7d a9 3f 3a c1 d2 bd 83 8a 8f bf
       -2.5092924 1.3241311 -0.10290761 -1.1214145
000390 1f ad df 3d 1e 1e c2 3f 85 b0 c0 bf 70 8c 8d 3f
       0.10921692 1.5165441 -1.505387 1.1058483
0003a0 64 e6 35 3c 31 88 f1 3e 13 be 2d c0 87 b9 06 3d
       0.011102293 0.47174218 -2.7147262 0.032891776
0003b0 4e 27 bb 3e c2 4d ed 3d 89 8d 50 3f 34 c8 6a 3e
       0.36553425 0.11587097 0.81465966 0.22927934
0003c0 bd 01 75 bf ab a6 dd be 73 cf 18 3f 5d 61 1e 3f
       -0.9570578 -0.4329122 0.5969154 0.61867315
0003d0 76 51 7f bf 7e 03 4e bf 53 e6 37 bf c2 68 ef 3e
       -0.99733675 -0.8047408 -0.7183582 0.4675961
0003e0 20 d1 a5 3e bc 71 34 3f 8e 05 e2 3e 6b f1 74 3e
       0.32386112 0.70486045 0.44144863 0.23920219
0003f0 85 5c cf bf 7e 0a fc bf b1 ee ed be 18 3e 27 3e
       -1.620011 -1.9690702 -0.4647117 0.1633228

fc1.bias f4 [128]
000000 6b f4 e3 bf 65 2a 0e 3f 59 30 2b bf d0 42 0a bf
       -1.7808965 0.5553344 -0.6687065 -0.540082
000010 b5 a9 1b c0 3c 2d 47 be 32 3b cd bf 55 e0 0e c0
       -2.432233 -0.1945085 -1.603369 -2.2324421
000020 8b c7 23 40 02 74 da bf 25 f6 9c bf f8 de c5 bf
       2.5590541 -1.7066653 -1.2262617 -1.545867
000030 30 f6 f7 be 86 c4 20 c0 25 d7 db be 98 ea 7a bf
       -0.48430014 -2.5119948 -0.4293758 -0.9801421
000040 ed b9 8a 3f a0 82 ec bf 5f e3 cc bf 29 9e 04 c0
       1.083799 -1.8477364 -1.6006888 -2.0721533
000050 3a 9f 22 bf e9 23 25 c0 79 82 18 c0 0d 97 35 c0
       -0.6352421 -2.5803168 -2.3829634 -2.8373444
000060 d5 9e e5 bf 43 99 e7 bf 87 83 13 be 70 b9 ba be
       -1.7939097 -1.8093647 -0.14405642 -0.36469603
000070 00 16 89 bf b5 f7 2f c0 09 21 8b 40 f2 79 e1 be
       -1.0709839 -2.7494938 4.3477826 -0.4403835
000080 5c 0e 9f bf 36 d3 84 be ae 2e 25 bf 63 6a e8 bf
       -1.2426257 -0.2594239 -0.6452435 -1.8157467
000090 72 de 00 c0 b6 6a 3b c0 30 00 f0 bf 60 e8 04 c0
       -2.013577 -2.928388 -1.8750057 -2.076683
0000a0 fd 98 2c c0 72 38 6a be c6 e1 be bf 72 d0 5a bf
       -2.6968377 -0.22873095 -1.491265 -0.8547431
0000b0 9a 57 ab bf 8d 15 ea bf a2 ec 17 c0 94 0d a5 bf
       -1.3386109 -1.8287827 -2.373818 -1.2894769
0000c0 a5 bb 84 bf ff ed d3 be a8 f2 e8 bf 37 ca d2 bf
       -1.0369765 -0.41392514 -1.8199053 -1.6467961
0000d0 b3 1e 5f c0 ad e7 96 3e 56 1c c6 3f b6 21 23 c0
       -3.4862487 0.2947363 1.5477397 -2.5489326
0000e0 a3 3c 16 c0 12 d2 23 c0 ca 8a a8 bf d2 4f 45 c0
       -2.347451 -2.5596967 -1.3167355 -3.0829968
0000f0 32 74 06 c0 28 06 20 c0 89 31 b2 3e 82 5c 5d 40
       -2.100842 -2.5003757 0.34803417 3.4587712
000100 00 27 db bf bb a5 a5 bf d4 81 4b 3f 59 24 01 40
       -1.7121277 -1.2941202 0.79494977 2.0178435
000110 fe 62 b6 bf 3c 1b f6 be 56 51 ef 3f 33 64 38 c0
       -1.424896 -0.48067653 1.8696697 -2.8811157
000120 32 51 55 bf bd 64 e0 bf ed a4 e6 bf d2 fd 32 c0
       -0.8332702 -1.7530743 -1.8019081 -2.796742
000130 d8 82 0f bf 9d c8 9b bf 00 3e 88 bf 1d ba 76 bf
       -0.56059027 -1.2170597 -1.0643921 -0.96377736
000140 48 67 1c c0 1f 5d 0e c0 33 3d a7 bf 9b d5 bd be
       -2.4438038 -2.2244337 -1.3065552 -0.3707703
000150 89 54 21 c0 48 cb 2d 3e 91 4e df be 6a da e2 bf
       -2.5207846 0.16972077 -0.4361463 -1.7722905
000160 6e c4 f8 38 ee f0 b5 3f 7b 20 1b 3e f5 4b 12 c0
       0.000118621494 1.4214151 0.15149109 -2.285886
000170 11 1d 8f bf b8 f1 1f c0 65 78 f3 bf d0 3d fd bf
       -1.1180745 -2.4991283 -1.9021116 -1.9784489
000180 3b eb 98 bf 87 43 43 bf dd 2a 90 bf ee 88 8c bf
       -1.1946787 -0.76274914 -1.1263081 -1.0979288
000190 e9 ce 35 c0 eb 07 b4 be 09 01 05 c0 68 77 55 c0
       -2.8407538 -0.3516229 -2.0781882 -3.335413
0001a0 3b 26 20 c0 be 33 e4 bf 70 74 09 c0 d5 fb 2e c0
       -2.5023334 -1.782829 -2.1477318 -2.7341206
0001b0 f4 70 b7 be 27 c7 14 c0 4f e2 04 c0 18 89 88 bf
       -0.35828364 -2.3246553 -2.0763128 -1.0666838
0001c0 fe ea 70 bf 36 72 50 bf de d1 f5 bf 1b 16 f6 bf
       -0.9410857 -0.8142427 -1.9204671 -1.9225496
0001d0 04 c5 88 3e 0c fe c8 bf bc 7a 23 c0 6f 08 88 bf
       0.2671281 -1.5702529 -2.554366 -1.0627574
0001e0 b8 b7 a9 bf ef 65 ff bf a8 c5 1d c0 dd 2f 09 c0
       -1.3259192 -1.9952983 -2.465189 -2.1435463
0001f0 49 89 95 bf 9d 19 97 bf 8c e9 e1 bf 44 22 54 c0
       -1.1682521 -1.1804692 -1.7649398 -3.3145914

fc2.weight f4 [128, 128]
000000 58 b9 c8 bd f1 3b e8 bd 86 8a 3d 3a 66 80 b8 3d
       -0.098009765 -0.11339558 0.00072304194 0.09008865
000010 99 d2 66 bc 14 33 9f bc 11 d7 cc bc 41 75 60 3d
       -0.014088296 -0.019433536 -0.025004895 0.054799322
000020 9c 58 e5 3c f3 d9 81 bd e5 b9 95 bd 9d b2 c2 bd
       0.027996354 -0.06340399 -0.07310847 -0.09506724
000030 36 c4 8f bd 27 05 3a bc 4c 9e 06 bd e0 54 4c bc
       -0.07019846 -0.0113537675 -0.032865807 -0.012471408
000040 87 aa 07 bc 31 5f 3f 3b 03 16 79 bd 4d d9 9c 3b
       -0.008280403 0.0029201026 -0.060812008 0.0047866465
000050 bc 3f 0e bd 76 16 ab bd df 40 e7 3a cf f2 2f 3a
       -0.03472875 -0.083538935 0.0017643234 0.00067119015
000060 03 3c b6 bd e3 aa 7d bb cb 41 5c 3b d8 5e 43 3d
       -0.08898165 -0.0038706593 0.0033608552 0.047697872
000070 3e 80 ac 3d 5f be 84 3d a0 e0 67 bd 62 5c 2d bd
       0.08422898 0.06481623 -0.056610703 -0.04232443
000080 ee e5 cd 3c b6 ca 5a bd a7 24 66 3d 80 74 24 3d
       0.025134053 -0.053415976 0.0561873 0.040150166
000090 ea 21 7a bd c0 49 49 bd 8f 60 71 bd ba 40 88 ba
       -0.0610675 -0.0491426 -0.058929976 -0.0010395267
0000a0 a3 45 40 bd 73 eb 87 bd 2e 5e ab 3d d3 7c 7f bd
       -0.04694141 -0.06636705 0.08367573 -0.0623749
0000b0 46 02 96 3c 39 9e d8 bd 56 07 62 3d 3b 14 e8 bd
       0.018311631 -0.105770536 0.055182777 -0.11331984
0000c0 3a 8c a7 3d 0c ab 15 bb c7 b2 19 3c fe a9 97 bd
       0.08181043 -0.0022837548 0.009381003 -0.0740547
0000d0 6e 58 6c bd 1a 4f 7d 3d 42 5d d2 bd 15 94 de bc
       -0.05770152 0.061843015 -0.10271694 -0.02717022
0000e0 a5 22 8b bd 82 bc 9b bd 7c f2 b6 bd 36 6b 29 3d
       -0.06793717 -0.076043144 -0.08932969 0.04136201
0000f0 a0 7f 26 bc 61 ce db 3c 55 cb 63 3d 03 24 e1 bd
       -0.010162264 0.026831808 0.055613834 -0.10993197
000100 83 e1 32 3d 91 bf ce bc bc 8d 62 bd a6 94 bc 3c
       0.043672096 -0.02523783 -0.05531095 0.0230201
000110 52 fe e7 3b 41 06 76 bd d8 29 f3 3c a0 c2 a9 bc
       0.007079878 -0.060064558 0.029683039 -0.020722687
000120 7c 50 e7 bd 0b ec 85 3c dc 68 7c ba c3 2b 84 bd
       -0.11294648 0.016347906 -0.00096286624 -0.064536594
000130 80 30 d8 3a 85 cf be bd de 5d 17 be 7e 68 ba ba
       0.0016493946 -0.09316925 -0.14781901 -0.0014221815
000140 29 8b 0a 3d f0 8f 84 3d ef 1c 13 bd c0 44 64 bd
       0.03382412 0.064727664 -0.035916265 -0.055729628
000150 db f0 8e bd 95 f9 dd bc aa 60 fa 3c 55 d3 8b bd
       -0.06979533 -0.027096549 0.030563671 -0.06827418
000160 46 84 83 3d 4c dc b8 bb 12 eb 5e bd ac f2 dd bc
       0.064217135 -0.005641496 -0.0544234 -0.027093254
000170 4d 6c ed bc 88 31 1b bd a4 ff a8 3d 49 2b 10 3d
       -0.028982306 -0.037889034 0.082518846 0.03519753
000180 46 ad 82 ba b8 94 9b bc c4 2e 6e 3b f7 ba 97 bd
       -0.0009969852 -0.018991813 0.0036343792 -0.074087076
000190 16 d8 00 bd ab 03 6c bd b9 65 ad bd 4d df 27 3e
       -0.031456076 -0.057620686 -0.08466668 0.16393776
0001a0 ba 1f 1c bd 74 72 02 bd 7c f5 2c 3d 81 f8 1b 3d
       -0.038116194 -0.031847432 0.0422263 0.03807879
0001b0 e3 f6 df bd 9e ef f6 bd 43 d4 2a bd 0b a8 17 3d
       -0.10935762 -0.12057422 -0.041706335 0.037025493
0001c0 de a1 79 3d 71 92 a5 3c ee db 9e bb 71 65 bc bd
       0.060945384 0.02021143 -0.004847995 -0.09199036
0001d0 b4 bb 41 bc 62 39 25 3d ef f7 85 bd 62 a0 ca bd
       -0.011824537 0.040337928 -0.0654143 -0.09893872
0001e0 18 56 a1 bd 98 7e 6d 3d 9f 59 14 be cc 72 4f 3d
       -0.07877749 0.057982057 -0.14487313 0.05064659
0001f0 79 75 94 3d 1b 07 bb 3d af 08 88 3d 0c 5a 85 bd
       0.07248969 0.09132215 0.06642281 -0.06511316
000200 bb e2 12 bd 50 f5 d8 3a 72 2f b2 bc 82 c4 a3 bd
       -0.03586076 0.0016552601 -0.02175114 -0.07996465
000210 1a cc e5 bd c5 40 81 bd e7 50 3c 3c 65 e9 31 bd
       -0.1122057 -0.06311182 0.011493898 -0.043435473
000220 49 d8 01 be f5 89 cd 3b df c0 76 3d 47 ac 36 3d
       -0.12680162 0.0062725493 0.06024253 0.04459789
000230 88 9c 8d 3c be b5 02 bd 80 a9 38 3c 90 5c cc 3c
       0.017286554 -0.031911604 0.011270881 0.024946481
000240 1f 81 53 bd ad e0 8d 3d c7 a7 61 bd 3d 14 8f 3c
       -0.05163681 0.06927619 -0.055091646 0.017465705
000250 50 b7 e1 3c 35 3b 85 bd d6 9e a0 bc bb 84 5f 3c
       0.02755323 -0.065054335 -0.019606989 0.013642485
000260 c4 ac a0 39 ef db 9f bd b7 45 19 be b2 0e c7 b9
       0.000306463 -0.07805621 -0.14968 -0.00037967187
000270 a2 23 b2 bd 10 9d ca 3c 04 94 0f bc 65 d6 79 bd
       -0.08698203 0.024733096 -0.008763317 -0.06099548
000280 04 31 e3 bd 24 88 19 3c 02 d4 95 bd 59 b3 d7 bd
       -0.11093333 0.009370837 -0.07315828 -0.10532255
000290 31 72 b3 3d 22 d7 e7 bc 93 77 78 3d f2 ca 39 3b
       0.08762015 -0.028300826 0.06066091 0.0028349725
0002a0 8c b4 08 3e 01 33 e2 bc 76 e9 d3 bd 43 74 a0 3d
       0.13350123 -0.027612211 -0.103472635 0.07834675
0002b0 ac 60 a0 bc 79 d4 2e 3d 1f 99 60 bd 87 e2 bc bd
       -0.019577347 0.0426831 -0.054833528 -0.09222894
0002c0 0a 9f d7 bd 5e 83 1c be a0 72 76 3d 8f ad 56 3d
       -0.10528381 -0.15284488 0.06016791 0.052411612
0002d0 c7 a4 3f bd e1 56 47 3d b3 96 fd bc 27 b0 51 3d
       -0.046788003 0.04866684 -0.030955648 0.051193383
0002e0 73 d3 cd 3d c8 fe 1c bc 25 a7 fd bd f2 12 a7 3a
       0.10050096 -0.009582229 -0.12385396 0.0012746735
0002f0 c0 d6 f7 bc 97 b3 4d 3c 96 ff 82 3d 72 26 b4 bd
       -0.030253768 0.012555025 0.063964054 -0.08796395
000300 da 56 19 bd 28 44 ae bd 22 98 bf bd e4 9a 33 bc
       -0.037436344 -0.085090935 -0.09355189 -0.010962222
000310 bf 64 82 bd dd b8 6a bd b8 e9 29 bd 12 d3 97 3c
       -0.06366872 -0.057305206 -0.041482657 0.018533263
000320 41 80 be 3c e8 16 fa 3c 62 5c 94 3c c7 21 6f 3d
       0.023254516 0.0305285 0.018110458 0.058381822
000330 6f a6 0c bd e2 2d bf 3c 58 dd d9 bc 45 d3 5f 3c
       -0.03433841 0.023337308 -0.026594803 0.01366121
000340 54 41 5c bd fc 88 d6 bd 1c 84 ad bd e4 69 64 3d
       -0.05377324 -0.104753464 -0.084724635 0.055765048
000350 80 a2 b0 bd 4c 5b cd bd 4f 58 0a bd 8c 05 8b 3c
       -0.086247444 -0.10027179 -0.033775624 0.016970418
000360 e4 5e e6 bd 08 77 33 bc d3 4f 89 3d c5 a1 14 bd
       -0.11248568 -0.010953672 0.067046784 -0.036287088
000370 02 b3 9a bb ee e0 da 3b d8 33 8e bd b6 95 c7 bd
       -0.0047210464 0.0066796457 -0.06943482 -0.09745352
000380 cc 58 7d bc bd 24 5b bd 53 36 83 3b ea 91 c5 3c
       -0.015463065 -0.053501833 0.0040042787 0.024117429
000390 bf 1a 97 3d ef c4 45 bb 8e de 9f 3b 55 6d ef 3c
       0.07378148 -0.0030177196 0.0048788255 0.029226938
0003a0 da 95 e2 bd c3 27 94 3d e8 94 e3 3d d8 3a 59 bd
       -0.11063738 0.072341464 0.11112386 -0.053034633
0003b0 4c e3 7e bd 8e 2c f9 b8 e2 a0 3d bc c6 b4 8e 3d
       -0.062228486 -0.00011881544 -0.011574002 0.069680735
0003c0 0f f1 84 bd b5 91 51 3d 8d c6 87 bd 80 1b 86 3c
       -0.06491291 0.051164348 -0.066296674 0.016370535
0003d0 03 ad d8 bd c4 f7 51 3c 47 99 58 bd da e7 c3 3b
       -0.10579874 0.01281542 -0.05288055 0.0059785666
0003e0 5f c9 15 bd f6 78 a0 bd f7 a8 10 3d 82 d2 b2 bd
       -0.036568996 -0.078355715 0.035317387 -0.087315574
0003f0 9e 4f 82 3c 14 91 bc bc 64 f7 52 3d ed 57 1c bd
       0.015907105 -0.023018397 0.05150546 -0.03816979

fc2.bias f4 [128]
000000 73 04 b2 bd 00 32 d7 bd 88 44 ac bd be d5 eb bd
       -0.08692255 -0.105075836 -0.08411509 -0.115153775
000010 88 71 67 bd 27 21 ab bf de 3c c1 40 21 e1 91 bd
       -0.056504756 -1.3369492 6.03868 -0.07123018
000020 83 1d 19 40 c2 93 fb 3f ce af 09 3e f5 a6 22 40
       2.3924263 1.9654467 0.1344597 2.5414402
000030 48 94 0e be 23 65 a6 3f 9c 41 5c bd 93 6c 0b be
       -0.13923752 1.2999614 -0.053773507 -0.13615637
000040 c5 16 05 be fa 74 cc bc 84 32 65 3d 13 af 02 40
       -0.12996967 -0.024958123 0.05595638 2.0419357
000050 db 43 d8 3f e0 73 15 bd 32 1f 62 3f f3 22 b8 40
       1.6895708 -0.03648746 0.8832885 5.7542663
000060 23 9e b6 40 2f b8 d2 bd c2 0d 97 40 4b 98 12 bc
       5.706804 -0.102890365 4.7204294 -0.008947442
000070 0c a0 c9 bd c6 3c fd bd 4d 67 06 bd 4e b1 f4 3f
       -0.0984498 -0.12365107 -0.03281336 1.9116609
000080 57 4b c3 3f c8 a3 4d 3f 31 41 6f bd bf d1 14 40
       1.5257367 0.80328035 -0.05841178 2.325302
000090 99 12 bf be 7d cb 98 40 9b 99 dc 3f 7e 2b 0a 3f
       -0.37318876 4.77484 1.7234377 0.53972614
0000a0 11 41 5d be 78 a0 0c 40 c9 6b 9a bf 12 53 5d 3d
       -0.21606852 2.1972942 -1.2064143 0.0540343
0000b0 27 b8 8d bd 42 7a e8 3f 48 1c fc 3c 78 b3 e7 bc
       -0.0691989 1.816231 0.030775204 -0.02828382
0000c0 cc b1 a1 bd 14 44 33 bd e5 44 09 3e 4b f9 d6 3f
       -0.0789524 -0.043766096 0.13405187 1.6794828
0000d0 74 29 dc bc 60 43 20 40 78 2f 8b bd 7d fc 34 be
       -0.026875235 2.5041122 -0.06796163 -0.17674442
0000e0 ec 5a c9 bd a6 16 59 be ea 20 85 be 60 43 3b bd
       -0.09831795 -0.21200046 -0.26001674 -0.04571855
0000f0 03 2c f7 bd df 2d e3 bc c9 79 2f 3c 15 2e c7 40
       -0.120689414 -0.027731834 0.010710188 6.2243752
000100 5a 80 ba 3f 4f 02 e9 3c 26 aa da 3f c4 19 c6 3f
       1.457042 0.028443484 1.7083175 1.5476613
000110 46 54 b9 3d e9 a2 0c 40 cf e1 88 bd 5c a2 27 bf
       0.09049277 2.1974432 -0.066836946 -0.65482116
000120 a6 73 8b bf 44 30 04 bd 4a 64 0b be ca ea 7a bd
       -1.0894668 -0.032272592 -0.13612476 -0.06125907
000130 2a 76 36 3f 99 cc 5e 3e d0 bb 3f be ac 6b 98 bd
       0.71274054 0.21757735 -0.18723989 -0.07442412
000140 8e 88 e5 3f 68 49 b5 40 f7 9e d4 3f bc 9c f1 3c
       1.7932298 5.6652107 1.6611012 0.029493682
000150 35 95 0f be 39 16 d1 3f b6 76 e7 bc 01 fd 62 3f
       -0.14021762 1.6334907 -0.028254848 0.88667303
000160 05 90 f6 3e 46 d8 9d 3d 40 33 4b 3f 76 42 18 3f
       0.48156753 0.077072665 0.79375076 0.5947641
000170 cf 31 4c be f0 ae d3 bd 01 ff 0b 40 e9 4c 00 be
       -0.19940875 -0.10336101 2.1874392 -0.12529339
000180 2b df 1e bf 08 63 75 3e c4 e4 c0 bd 26 de 25 3f
       -0.6205928 0.23963559 -0.094186336 0.64792097
000190 3f 6c 8a 3e 86 5c 49 3e 6d 50 a9 40 72 a8 9f bc
       0.2703571 0.19664201 5.2910676 -0.0194895
0001a0 79 61 cf 3f 6b 5c 90 bf 65 66 bd 3e e1 82 82 bd
       1.6201621 -1.1278204 0.36992183 -0.063726194
0001b0 53 89 72 40 68 f8 91 bd 58 f4 1a 3f 69 c1 9e 3f
       3.7896316 -0.07127458 0.6052909 1.2402774
0001c0 4c 13 ad 3f ae b9 ea 3f 32 5a ea 3f 29 2c 2a 3f
       1.3521514 1.8337915 1.8308775 0.66473633
0001d0 a4 e7 91 40 55 5f 86 3f 32 4a af 3c 9f d1 f2 3f
       4.5595264 1.0497843 0.021397684 1.8970221
0001e0 7c fc 44 be 92 71 b3 3f 5a d6 5b be ff c8 e8 3f
       -0.1923694 1.4019034 -0.21468487 1.8186339
0001f0 b4 d7 af 3f 9d b1 34 3c 3e 60 d5 bd dd 1c d1 3f
       1.3737702 0.011028674 -0.10418747 1.6336933

out.weight f4 [3, 128]
000000 3b d2 00 bc 56 8f 50 3d ea b5 a3 3d dc dc 25 3d
       -0.007862623 0.050917946 0.07993682 0.04049383
000010 f5 b7 d3 3e 9a db 34 3e 94 6d 21 be 85 e7 94 bb
       0.41351286 0.17661896 -0.15764457 -0.004544201
000020 e8 ce a1 be 3a 57 63 be ac 7e ad 3c fc 8b 69 bf
       -0.3160317 -0.22201243 0.021178566 -0.91229224
000030 ec 7c 1a bc 2b 53 20 bf af 11 ee bb f3 f4 53 3d
       -0.009429198 -0.62626904 -0.0072652916 0.051747274
000040 25 17 dd 3c 71 dd b6 3c cb bc 81 3c c7 d4 71 be
       0.026988575 0.022322388 0.015837094 -0.23616324
000050 2c 23 35 be f7 65 0c 3f 80 ac d4 3d 34 93 76 bd
       -0.17689198 0.54843086 0.10384464 -0.060198978
000060 4c f0 3e be 2a 64 6e bc d8 d0 90 3c 31 97 ab 3c
       -0.18646353 -0.014550248 0.01767771 0.020946117
000070 2b 02 e1 bc 4b 1e 81 3d 5d 0e 5f bc 30 dd d5 bf
       -0.027466854 0.06304606 -0.013614264 -1.6708126
000080 76 9f 2a bf 3a ad 74 3d e2 a7 05 3d a7 b6 c2 be
       -0.6664957 0.059735514 0.03263081 -0.38029978
000090 11 b5 43 3f 2a de 39 be c7 29 a7 3e 51 39 de 3e
       0.7644816 -0.18151155 0.3264906 0.43403104
0000a0 e9 6a 8d ba cd 7e b5 3e 24 da 96 3f 43 de 47 bd
       -0.0010789308 0.35448304 1.1785321 -0.04879595
0000b0 6b f1 95 3c af 2a 17 be d4 67 5d 3d 0e 0c 17 3d
       0.018303594 -0.14762376 0.054054096 0.03687673
0000c0 ea 1e 6d 3d ef 25 69 39 66 be ae 3d 17 15 0c be
       0.05789081 0.00022234743 0.08532409 -0.1367992
0000d0 c8 87 83 3d 81 96 77 be 7b 99 9d 3d f0 6e dd 3c
       0.064223826 -0.24178506 0.0769529 0.027030438
0000e0 0c 6c 2a bd 0d 1d 43 3c 6e a1 07 bf 16 b0 93 3d
       -0.041606948 0.011908782 -0.529807 0.0721132
0000f0 22 c9 3e 3b 09 03 e1 3d af c2 80 3c a6 0c 51 be
       0.0029111584 0.10986907 0.015717832 -0.20414981
000100 29 33 76 bf 34 5d 9c 3c a9 94 06 3f 1b cc 32 bf
       -0.96171814 0.019087411 0.5257059 -0.6984269
000110 c3 45 da 3f c7 29 9b 3d eb 54 23 3d a6 e4 16 3f
       1.705254 0.07576328 0.039875906 0.5894264
000120 f9 f3 bb 3f c0 68 bd bd 63 b4 21 3d c3 38 5e bc
       1.468383 -0.09248495 0.03947867 -0.013563338
000130 8c 07 dc 3c 34 6f f2 3e ca 3b 57 bc 41 9b 7d 3c
       0.026859067 0.47350466 -0.013136813 0.01547891
000140 a9 32 15 bf d4 32 34 be ce 3a d0 3c 66 42 1b bc
       -0.58280426 -0.17597514 0.025418665 -0.00947628
000150 be 8b 47 bd 97 6b 09 3f 84 73 b3 bd 50 1b 21 3d
       -0.048717253 0.53679794 -0.08762267 0.039332688
000160 17 c7 13 bf f5 f6 2e 3d 5a 36 03 bd 55 7c 8b bd
       -0.5772566 0.042715985 -0.032034256 -0.06810824
000170 63 93 0f bd 2b a4 21 bc 45 fc 19 bf 97 c0 e1 3c
       -0.03505267 -0.009865801 -0.6015056 0.027557654
000180 ae 1e 9e 3e f5 bd cc bb 3a 24 63 3d 00 64 28 bf
       0.30882782 -0.0062482306 0.05545447 -0.6577759
000190 b9 c1 40 bf 72 91 5f 3c a7 70 b3 be fb 34 20 3d
       -0.752956 0.013645517 -0.35046884 0.039113026
0001a0 77 b3 42 be af 24 6a 3f 12 5b 47 3f e3 a0 9f ba
       -0.19013773 0.91462225 0.7787334 -0.0012178685
0001b0 de 89 89 be 54 d1 68 3d bd f2 4c 3b 66 8f f2 be
       -0.26862997 0.056840256 0.0031272613 -0.4737503
0001c0 4b d0 9f 3d 1f e6 b6 be 06 84 0a bf 73 0a 64 3f
       0.078034006 -0.35722443 -0.541077 0.89078444
0001d0 07 87 a9 3d 79 21 1e 3d 53 eb fe bd d2 3e 1c bf
       0.082777075 0.03860614 -0.12447228 -0.61033356
0001e0 70 b8 1f bb 35 44 02 bf d6 5e 71 ba 9c 58 32 3f
       -0.0024371408 -0.50885326 -0.0009207552 0.6966646
0001f0 7e be 7e 3f 61 b0 24 3d 42 bb a6 3b 6c a7 e2 be
       0.9950942 0.04020727 0.005088241 -0.44268358
000200 a4 1d 94 bc 87 47 85 bc 71 68 49 3c 72 56 37 3d
       -0.01808054 -0.016269458 0.012292967 0.044760175
000210 9b 3b b1 3e 90 38 11 3e 16 60 f4 bd 16 5b ae bd
       0.34615788 0.14181733 -0.119323894 -0.08513467
000220 a0 65 ad be 6f fa e2 be 3f 7f 6a bd 53 ad 56 bf
       -0.33866596 -0.4433169 -0.057250258 -0.8385822
000230 4f d9 9b bc 1a ee 11 bf 49 3c 8c 3d 2a 08 3a bc
       -0.01902452 -0.5700394 0.06847436 -0.0113544855
000240 d1 a6 26 3d c7 4f e0 3b a6 af 4c bc cc 63 58 be
       0.040686432 0.0068454477 -0.01249305 -0.2113182
000250 ed e8 fc bd 62 bc 15 3f 1d 39 a6 3c ab 11 0f be
       -0.123491146 0.58490574 0.020290906 -0.13971584
000260 e9 a4 6d be 61 e6 84 bd 1d 5b e5 bd 77 a2 8e 3c
       -0.2320744 -0.06489254 -0.11199019 0.017411454
000270 ff f1 22 3d 7f 0d 88 3d 3d 72 2a 3c 9c 88 a9 bf
       0.039781567 0.06643199 0.010403213 -1.3244815
000280 8c 63 64 bf 95 de 96 bd a3 0b 23 3c 07 7b c6 be
       -0.89214396 -0.07366673 0.009951505 -0.38765737
000290 e0 dd 43 3f 71 ad cb bd 73 83 9d 3e d4 8c 05 3f
       0.7651043 -0.09945191 0.3076435 0.5216801
0002a0 8b 70 ab bc 89 46 b9 3e 0a 29 90 3f 54 97 2e 3d
       -0.020927688 0.36186627 1.1262524 0.042624786
0002b0 82 df 19 ba 3a 23 30 3f 7c af 0f 3d 19 58 0a 3d
       -0.0005869792 0.6880375 0.035079464 0.033775423
0002c0 15 a5 99 3d 9f 5a 07 bc 83 7b 70 3e 40 8d f9 bc
       0.0750219 -0.008261352 0.23484616 -0.030462861
0002d0 34 67 85 bd 6f 6f a0 be 60 9f 54 3d 39 e5 a1 3c
       -0.06513825 -0.31335017 0.051909804 0.019762622
0002e0 6f 8a 43 3d f1 4a 95 3c b6 c2 ea be f4 6f f2 3c
       0.047739442 0.018224211 -0.45851678 0.029594399
0002f0 c1 dc ea 3c b5 22 99 bc 8e 5e 4d 3d 33 c0 4d be
       0.028669717 -0.018693307 0.050139003 -0.2009285
000300 89 ba 9d bf f5 6f 1e bd 25 d1 fd 3e af 63 3e bf
       -1.2322551 -0.03868099 0.49573627 -0.74370855
000310 62 ec c6 3f 23 66 cf 3d b1 dc c5 3a 77 d1 19 3f
       1.5540888 0.10126903 0.0015095678 0.60085243
000320 5e 52 76 3f 2b ec 01 bc 22 70 0f bd c8 80 6b 3d
       0.9621943 -0.007929842 -0.035019048 0.057495862
000330 0e 8f 87 3d 0c ed 03 3f 12 99 bf 3c 91 cb cf bc
       0.066190824 0.5153358 0.02338842 -0.025365623
000340 86 b7 1d bf 51 9e 0f be f1 13 1b bd cb 4c 3c 3d
       -0.6160816 -0.14025237 -0.037860814 0.045971673
000350 02 b3 a5 bd ef 66 f2 3e a0 b1 55 bc 29 84 7a bc
       -0.08090784 0.47344157 -0.013042837 -0.0152902985
000360 3f 38 60 bf 0c 9d f1 bb 65 6e 11 bb 4d 40 2f 3c
       -0.87585825 -0.007373458 -0.0022191044 0.010696483
000370 7c bb 8f bc a3 de 50 3d 9a 9f 13 bf d9 22 6a 3d
       -0.017545454 0.050993573 -0.5766541 0.05716214
000380 67 8b 82 3e 1e fc 5a 3d a6 cf 07 3d 56 d0 23 bf
       0.2549698 0.053463094 0.033157013 -0.6398977
000390 76 2c 3b bf 27 25 94 bb 1a 88 b8 be b9 b3 74 bd
       -0.73114717 -0.0045210305 -0.36041337 -0.05974171
0003a0 8c c0 93 be 3a af 4e 3f 72 1e 1e 3f 1d 07 41 3c
       -0.2885784 0.80736125 0.61765206 0.011781481
0003b0 0b 1e 6e bd c3 f4 85 3c 3b 95 12 3c c3 f1 a3 be
       -0.05813412 0.016352063 0.008946712 -0.32020387
0003c0 8c fd 47 bd 12 bd 28 3d 83 f2 1f bf f2 c5 6e 3f
       -0.048825786 0.041195937 -0.6247942 0.9327079
0003d0 42 d2 81 bd 5b b4 b1 bc 12 42 e7 3c dc 9e 07 bf
       -0.063389316 -0.021692446 0.028229747 -0.52976775
0003e0 76 34 1d bd 78 a1 61 3f f0 0f 83 3b e7 71 31 3f
       -0.03838011 0.88137007 0.0039997026 0.69314426
0003f0 0a bf 5e 3f c6 bf 4a 3d 26 af 0c bd 8a 5d cb be
       0.8701025 0.049499296 -0.034346722 -0.39719802

out.bias f4 [3]
000000 31 0c 85 c0 e6 01 92 c0 8c 6a a7 c0
       -4.157738 -4.5627317 -5.231756
