acrobot_ddqn_25-12-1k-64N.pth (torch, 22509 bytes, 6 tensors)

fc1.weight f4 [64, 6]
0.59466285 0.25780052 0.3380639 -0.3503544 -0.12560493 -0.21558082 -0.012337142 0.0417651
-0.38059422 0.2667984 0.5160096 -0.4094876 0.7074382 0.6527963 -0.27516517 -0.5392158
0.03366256 -0.12381928 0.7523418 -0.6174123 -0.6555116 -0.24462935 0.32511955 -0.120178
0.4190174 -0.4523647 -0.29150084 -0.6299133 -0.10653275 0.49360427 0.008302196 0.7174
-0.033244226 -0.17234346 0.05452279 0.3771406 0.5270643 -0.37694886 0.34543157 0.6462201
0.030778714 0.20599005 0.3605796 -0.6097113 0.41660595 -0.5676952 0.3494501 -0.32571238
-0.4548726 -0.50136805 0.082177445 0.74145746 -0.120625444 -0.14651653 0.44365844 -0.7172064
-0.43676934 0.6419739 0.105944835 -0.2429898 -0.16603158 0.037845675 -0.29258692 0.151747
0.09280816 -0.13068834 0.6208324 0.8181416 0.40230793 -0.23362496 -0.32249895 -0.0309506
0.17492901 -1.2209334 -0.50399005 0.66430926 0.20131077 -0.32685092 -0.1299919 0.0041514644
0.021192795 -0.4990341 0.1947322 0.05843582 -0.112030044 0.2629886 0.08829048 0.33227256
-0.11435994 -0.1164253 0.10167286 -0.32708964 -0.06877819 -0.0799796 -0.09699395 -0.54030776
-0.18690541 0.15088236 0.08910225 -0.6032664 -0.06563524 0.23748358 1.0387505 0.95848435
1.4154319 -0.16967593 -0.36202803 0.14463778 -0.32250196 -0.6093494 0.044077214 -0.0540144
-0.46439764 0.26158753 0.09918281 0.77986676 0.4913184 -0.5402871 0.21910405 0.20713992
-0.016315298 0.8377458 0.027309498 0.05209338 0.30413684 0.39084426 -0.09108134 0.8077392
-0.38625306 -0.7892558 -0.06351981 0.24998493 -0.39502743 -0.39139134 -0.16220962 -0.3381243
0.19803357 0.18534717 0.5414293 -0.00096557406 1.0163093 -0.19996901 -0.22967103 -0.25510368
0.1988282 0.11001451 -0.121099584 -0.38940442 0.4279466 -0.3964263 0.10970681 -0.42463905
0.34495103 0.89286834 -0.16068518 -0.26993597 -0.4769251 -0.40513542 -0.8902391 -0.12930411
0.25556105 0.19351734 -0.34166965 0.09500534 -0.23587134 0.35844493 -0.4169235 -0.5417674
0.41741803 -0.8449967 -0.44763678 0.19975275 0.10478746 0.04815912 0.14417842 -0.87413734
0.85512257 -0.2303525 0.16824868 -0.27596927 0.103592835 1.0666845 0.43843323 -0.58735716
-0.33635953 0.00016194399 0.17336898 -0.022862162 0.26023427 0.49381164 0.34531283 -0.40291554
0.77378094 0.10397242 0.39512947 0.26273632 0.10800663 0.1960829 0.28532362 -0.42193088
0.47473636 0.35574186 -0.08851409 -0.14246482 -0.08442974 0.81981635 0.0995801 -0.570182
-0.444766 -0.283486 -0.03532669 -0.2914858 0.6795989 0.20739366 0.42201507 0.05896965
0.1486437 -0.2535972 -0.20384373 0.11037858 -0.1538737 0.36908066 0.89260894 0.5041657
0.78721905 -0.061448604 0.2952049 0.28829288 0.4820108 -0.6069935 0.91580606 0.2476946
0.26393703 0.095506705 -0.20683062 0.1987664 0.4085897 0.66129416 -0.0557585 -0.21364906
0.102433555 0.10584306 -0.19462082 -0.6981934 -0.57065094 0.23942508 -0.32203996 -0.23476674
-0.08829795 -0.41529688 -0.30234835 0.11011532 0.41326314 -1.001496 1.0035948 -0.08147723
00000000: d33b 183f 6efe 833e b616 ad3e a761 b3be
00000010: 949e 00be 38c1 5cbe b921 4abc e211 2b3d
00000020: 3fdd c2be cd99 883e 3519 043f 5ca8 d1be
00000030: ab1a 353f a91d 273f 73e2 8cbe 0c0a 0abf
00000040: c1e1 093d f694 fdbd 7999 403f bc0e 1ebf
00000050: 9ccf 27bf 1e80 7abe 1276 a63e e21f f6bd
00000060: 7389 d63e 599c e7be 993f 95be ff41 21bf
00000070: d82d dabd b3b9 fc3e ef05 083c 87a7 373f
00000080: 192b 08bd ce7a 30be 4a53 5f3d 9318 c13e
00000090: b0ed 063f 71ff c0be 68dc b03e ae6e 253f
000000a0: a423 fc3c 0eef 523e e49d b83e 0a16 1cbf
000000b0: 604d d53e 7954 11bf 20eb b23e c6c3 a6be
000000c0: 10e5 e8be a859 00bf a64c a83d 28d0 3d3f
000000d0: 790a f7bd 6e08 16be 3327 e33e d79a 37bf
000000e0: 3ba0 dfbe 6758 243f 9bf9 d83d 51d2 78be
000000f0: 2f04 2abe 1104 1b3d f4cd 95be 9163 1b3e
00000100: 3412 be3d 2ad3 05be dfee 1e3f ba71 513f
00000110: 4efb cd3e 623b 6fbe 951e a5be 1d8c fdbc
00000120: 9720 333e 8c47 9cbf 7e05 01bf 2c10 2a3f
00000130: 6924 4e3e 0159 a7be 991c 05be 0209 883b
00000140: 839c ad3c 6681 ffbe e167 473e 665a 6f3d
00000150: 0270 e5bd 71a6 863e a4d1 b43d a11f aa3e
00000160: 8b35 eabd 6370 eebd dc39 d03d 4b78 a7be
00000170: 94db 8cbd 58cc a3bd c4a4 c6bd 9c51 0abf
00000180: 2264 3fbe e880 1a3e 3e7b b63d ab6f 1abf
00000190: c56b 86bd e52e 733e c7f5 843f 3b5f 753f
000001a0: df2c b53f 87bf 2dbe bd5b b9be ed1b 143e
000001b0: fa1e a5be 53fe 1bbf 4f8a 343d 343e 5dbd
000001c0: 87c5 edbe cdee 853e 5b20 cb3d 59a5 473f
000001d0: 168e fb3e 4150 0abf d05c 603e 7d1c 543e
000001e0: a9a7 85bc 8276 563f 2bb8 df3c de5f 553d
000001f0: d3b7 9b3e bd1c c83e db88 babd ffc7 4e3f
00000200: f6c2 c5be ab0c 4abf ad16 82bd 0dfc 7f3e
00000210: 0941 cabe 7264 c8be 471a 26be a11e adbe
00000220: 50c9 4a3e a6cb 3d3e 1c9b 0a3f 941e 7dba
00000230: 6c16 823f adc4 4cbe e22e 6bbe f39c 82be
00000240: 9f99 4b3e 4a4f e13d 0f03 f8bd 0460 c7be
00000250: d11b db3e 63f8 cabe f7ad e03d 4a6a d9be
00000260: 6c9d b03e 0593 643f a88a 24be 0c35 8abe
00000270: 872f f4be e96d cfbe b6e6 63bf 4c68 04be
00000280: e6d8 823e 6929 463e 53ef aebe 2992 c23d
00000290: 4288 71be 1886 b73e ff76 d5be 45b1 0abf
000002a0: d1b7 d53e b451 58bf a630 e5be fc8b 4c3e
000002b0: cf9a d63d 7f42 453d 82a3 133e 77c7 5fbf
000002c0: 50e9 5a3f 87e1 6bbe 6249 2c3e d84b 8dbe
000002d0: 7b28 d43d 1e89 883f 527a e03e 0a5d 16bf
000002e0: 5137 acbe 82cf 2939 a387 313e 6e49 bbbc
000002f0: 6d3d 853e e1d4 fc3e d8cc b03e f24a cebe
00000300: 8216 463f 7eef d43d 694e ca3e 6085 863e
00000310: 9432 dd3d f5c9 483e f015 923e 5307 d8be
00000320: a510 f33e cc23 b63e e046 b5bd 4ce2 11be
00000330: 80e9 acbd 7cdf 513f a7f0 cb3d 73f7 11bf
00000340: 5fb8 e3be 1425 91be b8b2 10bd a03d 95be
00000350: 32fa 2d3f 015f 543e 5c12 d83e 298a 713d
00000360: 0e36 183e 7ed7 81be 69bc 50be 2a0e e23d
00000370: 1191 1dbe 24f8 bc3e 0582 643f 0111 013f
00000380: 3087 493f 88b1 7bbd 1925 973e 209b 933e
00000390: 1fca f63e ed63 1bbf 4472 6a3f a7a3 7d3e
000003a0: c122 873e 0599 c33d 68cb 53be 6b89 4b3e
000003b0: ab32 d13e 934a 293f 0663 64bd d2c6 5abe
000003c0: afc8 d13d 3fc4 d83d ae4a 47be cdbc 32bf
000003d0: 2e16 12bf d92b 753e 6ce2 a4be b166 70be
000003e0: 8ed5 b4bd cba1 d4be 67cd 9abe 2484 e13d
000003f0: 3a97 d33e 0531 80bf cb75 803f 89dd a6bd

fc1.bias f4 [64]
0.38197133 -0.2134507 0.5023058 0.08316065 -0.10569642 0.031794537 0.52254003 0.39090768
0.3926582 0.40283635 -0.7017115 0.3382299 0.38705015 0.79722476 0.5528482 -0.12215249
-0.50139266 -0.20470847 0.2510748 0.48267716 -0.016122116 0.5554725 0.58762616 0.4624239
-0.33564705 0.21855822 0.50148326 -0.30336136 0.71690625 0.32035917 0.17735137 -0.46443075
0.4564929 0.1352229 0.2755617 -0.5764067 -0.45610645 0.56603914 0.055738863 0.6752749
-0.3736066 -0.35356197 0.47627467 0.45172128 0.31884444 -0.0022982128 0.14002647 0.14196457
0.27809012 0.029378152 0.17442039 -0.38126394 0.4960141 0.5715265 0.5159224 0.3958283
0.108631454 0.5422131 0.88584155 0.23757355 0.08736786 -0.3426359 0.5556215 0.22574231
00000000: bf91 c33e d292 5abe 1d97 003f 2250 aa3d
00000010: 5d77 d8bd fd3a 023d 2fc5 053f 0d25 c83e
00000020: 7f0a c93e 9140 ce3e 5da3 33bf 782c ad3e
00000030: 702b c63e ec16 4c3f 7687 0d3f 162b fabd
00000040: 455b 00bf 199f 51be e08c 803e 7621 f73e
00000050: 8712 84bc 7233 0e3f ab6e 163f d3c2 ec3e
00000060: eed9 abbe bacd 5f3e 3561 003f 2e52 9bbe
00000070: 2b87 373f 1e06 a43e 999b 353e dec9 edbe
00000080: 70b9 e93e df77 0a3e 6c16 8d3e 648f 13bf
00000090: c986 e9be f1e7 103f 6f4e 643d d1de 2c3f
000000a0: 5d49 bfbe 1306 b5be 46da f33e 0348 e73e
000000b0: 943f a33e 9d9d 16bb 1963 0f3e 295f 113e
000000c0: d461 8e3e 73aa f03c 429b 323e 0735 c3be
000000d0: 8ff5 fd3e 904f 123f 7e13 043f 02aa ca3e
000000e0: 2b7a de3d 7ace 0a3f 83c6 623f 7b46 733e
000000f0: eced b23d f96d afbe 363d 0e3f fe28 673e

fc2.weight f4 [64, 64]
-0.03249302 -0.06401689 0.03536326 0.0078508835 -0.08966535 0.03899516 0.026354117 0.0026551825
-0.102150306 -0.13084413 -0.12649715 0.087756 -0.07041999 -0.05221855 -0.11968858 -0.011651979
-0.0003810674 -0.018509638 -0.082089856 -0.10871572 -0.13895634 -0.14856505 -0.0018571347 -0.10217108
0.08488923 -0.082935266 -0.0330051 0.0723655 0.028835602 -0.082795374 0.09492467 -0.08576754
0.052458387 -0.066011526 -0.048062734 0.052816167 0.0061543733 -0.020582702 -0.03307796 0.07070473
-0.1268526 0.078624524 -0.06680766 -0.09768762 0.023807852 -0.06374867 0.0113952905 0.05339335
-0.07865918 0.06946247 -0.13114564 0.03843942 -0.045332078 -0.04415123 0.05925152 0.023269478
-0.006770514 -0.0017440686 0.03821501 -0.05545571 0.03101935 0.044570345 0.048028562 0.05837632
0.06964435 0.013890279 0.22473179 0.09198501 0.06958514 -0.2724115 0.19407189 0.10808969
0.22048037 0.1931982 -0.1588741 0.22251141 0.07686313 0.17546447 0.24673733 -0.1649085
-0.348814 0.029322285 -0.23670647 0.25876257 -0.25547063 -0.034597315 0.1697984 0.12087362
0.031353313 0.21827608 0.12600218 -0.17490116 0.08744435 0.06046523 0.17804965 -0.11856144
0.24998862 0.08120962 0.17862633 -0.32169884 -0.20487553 0.2699514 0.1250144 0.24604267
-0.33936402 -0.50381666 -0.10905179 0.021017855 0.28810048 -0.014864911 -0.35229144 0.2931493
0.20457229 0.2163124 0.017326986 -0.15306126 0.104071066 0.2634357 0.34723014 0.26982984
0.14451975 0.17929216 0.28701627 -0.021864729 0.020852895 0.41752103 0.23823474 -0.16764928
-0.637795 0.14331093 -0.43574792 -0.055025883 -0.27295116 0.012234045 0.008690015 -0.26542306
0.31499755 0.21095876 -0.11516604 -0.19866024 0.5341966 0.034449585 0.06893945 0.35066736
-0.21590862 0.2902559 0.19651029 0.79223657 0.1671293 -0.15752687 0.063273974 -0.32281876
0.07825507 0.31715974 -0.21226841 0.35625318 -0.047473393 -0.43624565 0.005356918 -0.44856936
0.01694278 0.14036214 0.027341528 0.35896015 -0.45840058 0.36344096 0.42002854 -0.18353286
-0.21821767 -0.7413282 0.050005335 0.47705445 0.14164536 -0.08061773 0.27241674 -0.14250557
0.26460075 0.2892278 0.21832412 -0.06785612 -0.33666778 -0.25247452 -0.12811841 -0.16734664
-0.1039767 -0.8251037 0.14465505 -0.14460517 0.25715923 -0.8931722 -0.0970279 -0.43300653
0.20259552 0.07136178 0.13411911 -0.05064997 0.16157952 0.17876029 0.072872505 0.078315035
0.1355445 -0.044666138 0.26617888 0.095961355 0.18554506 -0.1144379 0.12636031 0.30648455
0.17433633 0.51675093 0.28961414 -0.831491 0.21046327 -0.0021308165 -0.11794986 0.21592103
0.13833772 0.1805234 -0.07520985 0.32429054 0.21187751 0.3033325 0.1481123 0.024049118
-0.34844866 0.058339447 0.12470911 -0.35000122 0.16281372 -0.98678875 -0.08321714 0.29593736
0.28336388 0.35965416 0.6364073 -0.75509363 -0.1407277 0.32134202 -0.45060256 0.28049025
0.0741693 -0.16178249 0.34866038 0.08057536 -0.02379391 0.101288155 -0.10092308 0.3397341
-0.39490604 0.106363475 -0.5121211 -0.23089552 0.18941961 0.11559179 -0.35756242 0.16551284
00000000: 6717 05bd 4a1b 83bd 11d9 103d fea0 003c
00000010: 78a2 b7bd 64b9 1f3d 97e4 d73c 9202 2e3b
00000020: 2e34 d1bd 01fc 05be 7888 01be 6bb9 b33d
00000030: 5b38 90bd 1ee3 55bd 491f f5bd f1e7 3ebc
00000040: 00ca c7b9 86a1 97bc ba1e a8bd 59a6 debd
00000050: 924a 0ebe 7021 18be 1a6b f3ba 123f d1bd
00000060: 68da ad3d f7d9 a9bd 5b30 07bd 5d34 943d
00000070: a438 ec3c 9f90 a9bd de67 c23d e4a6 afbd
00000080: 9bde 563d 0d31 87bd 6edd 44bd c455 583d
00000090: a0aa c93b 0e9d a8bc c17c 07bd a4cd 903d
000000a0: a6e5 01be e505 a13d 74d2 88bd 7210 c8bd
000000b0: af08 c33c aa8e 82bd 50b3 3a3c fcb2 5a3d
000000c0: 1018 a1bd 5742 8e3d 0b4b 06be a772 1d3d
000000d0: 21ae 39bd ecd7 34bd b9b1 723d a29f be3c
000000e0: 30db ddbb 3b99 e4ba 5887 1c3d 8725 63bd
000000f0: 4b1c fe3c 658f 363d 99b9 443d 021c 6f3d
00000100: b2a1 8e3d 0e94 633c 1720 663e a362 bc3d
00000110: a782 8e3d 8579 8bbe c8ba 463e 215e dd3d
00000120: 9bc5 613e c0d5 453e e4af 22be 08da 633e
00000130: 6b6a 9d3d f5ac 333e b6a8 7c3e c6dd 28be
00000140: c097 b2be 4a35 f03c 2e63 72be 877c 843e
00000150: 0ccd 82be eab5 0dbd a2df 2d3e 978c f73d
00000160: 556c 003d c483 5f3e b706 013e 4a19 33be
00000170: 0616 b33d 64aa 773d a652 363e 57d0 f2bd
00000180: 04fd 7f3e 3b51 a63d d2e9 363e b6b5 a4be
00000190: e4ca 51be 1237 8a3e c603 003e 9cf2 7b3e
000001a0: 1fc1 adbe 21fa 00bf 8b56 dfbd a32d ac3c
000001b0: e881 933e f58b 73bc 8b5f b4be aa17 963e
000001c0: 667b 513e ff80 5d3e 53f1 8d3c 17bc 1cbe
000001d0: 3623 d53d 0be1 863e 26c8 b13e 2327 8a3e
000001e0: fcfc 133e 5d98 373e ccf3 923e a91d b3bc
000001f0: b1d3 aa3c 51c5 d53e cff3 733e 41ac 2bbe
00000200: 8846 23bf 1ac0 123e 5a1a dfbe d262 61bd
00000210: 41c0 8bbe 4e71 483c 9160 0e3c 88e5 87be
00000220: 5c47 a13e 9305 583e 2cdc ebbd 976d 4bbe
00000230: 1cc1 083f 021b 0d3d 2030 8d3d ac8a b33e
00000240: 2617 5dbe 6c9c 943e fe39 493e 04d0 4a3f
00000250: f123 2b3e b94e 21be c995 813d 8048 a5be
00000260: 3244 a03d c362 a23e e45c 59be d166 b63e
00000270: 7673 42bd 975b dfbe 1689 af3b e2aa e5be
00000280: 96cb 8a3c 18bb 0f3e 57fb df3c a0c9 b73e
00000290: 7bb3 eabe ef14 ba3e fb0d d73e 0af0 3bbe
000002a0: 7474 5fbe afc7 3dbf 65d2 4c3d 7b40 f43e
000002b0: 7b0b 113e e91a a5bd 357a 8b3e fbec 11be
000002c0: c079 873e ab15 943e 5c90 5f3e 26f8 8abd
000002d0: b85f acbe 5744 81be 7931 03be eb5c 2bbe
000002e0: bcf1 d4bd ff39 53bf 7420 143e 6113 14be
000002f0: 60aa 833e efa6 64bf 90b6 c6bd 08b3 ddbe
00000300: 3375 4f3e 2026 923d 8556 093e 5876 4fbd
00000310: 1a75 253e f00c 373e 2e3e 953d a263 a03d
00000320: 2dcc 0a3e d7f3 36bd 9948 883e 6387 c43d
00000330: 86ff 3d3e 6b5e eabd 9964 013e 8beb 9c3e
00000340: 3985 323e ca49 043f 4e48 943e 98dc 54bf
00000350: af83 573e 2ba5 0bbb b28f f1bd 671a 5d3e
00000360: 67a8 0d3e 20db 383e 9f07 9abd 6909 a63e
00000370: 6bf6 583e 664e 9b3e c0aa 173e a802 c53c
00000380: dd67 b2be 58f5 6e3d 7d67 ff3d 5c33 b3be
00000390: a4b8 263e 309e 7cbf bf6d aabd 1a85 973e
000003a0: 1215 913e 9724 b83e 97eb 223f d14d 41bf
000003b0: ec1a 10be f186 a43e 61b5 e6be 6b9c 8f3e
000003c0: 13e6 973d 4faa 25be 9d83 b23e b204 a53d
000003d0: 72eb c2bc 2a70 cf3d c3b0 cebd a1f1 ad3e
000003e0: 2031 cabe 18d5 d93d 5e1a 03bf e06f 6cbe
000003f0: 37f7 413e 63bb ec3d 6c12 b7be 337c 293e

fc2.bias f4 [64]
-0.04362285 -0.029278122 0.3077273 0.022094283 0.09453286 -0.0058640107 0.18603364 -0.08443669
0.13183632 -0.14976344 0.14582077 0.086016536 0.03555692 0.17363076 0.19376113 -0.059053995
0.18803859 -0.009260335 -0.025449822 0.030973313 -0.1439336 0.0106542725 0.10416231 0.0014529958
0.17069617 -0.18131332 -0.0006528428 0.07793556 0.049780134 0.029540466 0.2018547 0.07872496
0.11636278 0.0132017825 0.20242643 0.15824458 -0.28499976 0.05649623 -0.052445114 0.0045553795
0.1034252 0.30586502 0.2086179 0.13696124 0.13111572 0.015712798 -0.06570177 0.0645426
0.09885466 0.12005632 0.061698966 0.06504085 -0.025534628 -0.04056592 -0.05288793 0.04369167
0.12927176 0.122989945 0.103894405 -0.07464263 0.049440175 0.13858198 -0.054161616 -0.25573468
00000000: e0ad 32bd acd8 efbc 6f8e 9d3e 12ff b43c
00000010: 729a c13d e326 c0bb 9a7f 3e3e 25ed acbd
00000020: 1a00 073e 965b 19be 0a52 153e 7029 b03d
00000030: 22a4 113d 43cc 313e 5169 463e 9ae2 71bd
00000040: 308d 403e a9b8 17bc 257c d0bc bfbb fd3c
00000050: 5463 13be 428f 2e3c 0d53 d53d 7372 be3a
00000060: faca 2e3e 33aa 39be 8a23 2bba ae9c 9f3d
00000070: 41e6 4b3d d9fe f13c 00b3 4e3e 8d3a a13d
00000080: 9c4f ee3d 4a4c 583c e048 4f3e de0a 223e
00000090: 7deb 91be 9768 673d b0d0 56bd 4b45 953b
000000a0: 97d0 d33d 579a 9c3e ee9f 553e 913f 0c3e
000000b0: 3343 063e 20b8 803c a68e 86bd e92e 843d
000000c0: 5074 ca3d 17e0 f53d 0eb8 7c3d 2334 853d
000000d0: ff2d d1bc 7328 26bd 04a1 58bd 09f6 323d
000000e0: d15f 043e 27e2 fb3d 97c6 d43d 3cde 98bd
000000f0: c881 4a3d 6fe8 0d3e 92d8 5dbd a8ef 82be

out.weight f4 [3, 64]
0.091777965 -0.26536468 1.0031477 0.6911761 0.89966094 -0.20671225 -0.17586458 0.75275546
-0.2252027 0.6168131 -0.23375125 -0.1529663 -0.13417175 -0.16038427 -0.23976839 -0.30222496
-0.24701086 -0.2983674 -0.6792057 -0.19312614 0.61942375 -0.56891704 0.6046041 -0.13688119
-0.13154693 0.72361714 -0.25959608 -0.2790526 -0.16989669 0.9885179 0.5327514 -0.1914551
0.9213968 0.6041054 -0.2851719 -0.2977669 0.6586312 0.4742476 -0.296075 -0.37117556
0.74906003 0.68599755 -0.3499992 -0.25083715 -0.178598 -0.46940216 -0.2312967 0.6382449
0.8736583 1.0804398 -0.2478961 1.4504598 -0.26149872 -0.44428423 0.11526068 -0.2686335
-0.24629149 0.6311234 -0.65338564 -0.14925583 0.81086904 -0.2602405 -0.15701328 -1.6073279
0.10489784 -0.14788562 1.01696 0.6342935 0.75951254 -0.2262068 -0.093015954 0.6784084
-0.29583204 0.60960305 -0.3059969 -0.22157568 -0.34562087 -0.34681293 -0.166677 -0.3748506
-0.20192285 -0.11754191 -0.3789934 -0.14364886 0.541932 -0.37409618 0.63681865 -0.28386843
-0.3476677 0.7937731 -0.13320953 -0.39246425 -0.19497386 0.91753566 0.49437883 -0.17101339
0.9511421 0.664181 -0.27569595 -0.24808669 0.80278087 0.6271436 -0.19886035 -0.34490085
0.86613756 0.7293465 -0.2075013 -0.3074469 -0.32444894 -0.39568067 -0.058645085 0.54166514
0.7917603 0.7740532 -0.2341531 1.0737988 -0.2909417 -0.2570446 0.08387862 -0.2888725
-0.2973305 0.6239025 -0.550283 -0.3358595 0.90543246 -0.24150902 -0.2772066 -1.2326301
0.11056077 -0.32386905 1.1588782 0.6799149 0.84592485 -0.26894057 -0.33544514 0.4930842
-0.2584578 0.7106236 -0.2809638 -0.2618358 -0.2802537 -0.41444665 -0.19457288 -0.3069326
-0.097125374 -0.28511167 -0.2198341 -0.3007879 0.47112116 -0.2801534 0.8820342 -0.359262
-0.383893 0.8229765 -0.25524345 -0.27445447 -0.35263467 0.9131419 0.48086816 -0.3488361
0.9032001 0.8719464 -0.16262177 -0.069665976 0.8305531 0.77581173 -0.24469689 -0.43584955
1.1292405 0.7173785 -0.18077885 -0.12399797 -0.22449596 -0.36062297 -0.25179988 0.32664236
0.77714676 0.75827295 -0.15559879 1.093463 -0.199788 -0.04474203 0.11444706 -0.20047784
-0.21419163 0.66424584 -0.7439223 -0.3255122 1.0380312 -0.23053592 -0.2853778 -1.2061076
00000000: 16f6 bb3d e1dd 87be 2567 803f ebf0 303f
00000010: 2e50 663f 60ac 53be d815 34be 95b4 403f
00000020: 899b 66be 77e7 1d3f 7d5c 6fbe 33a3 1cbe
00000030: 5264 09be c63b 24be d885 75be 3bbd 9abe
00000040: 6af0 7cbe 9dc3 98be 6de0 2dbf dcc2 45be
00000050: 8e92 1e3f 8ca4 11bf 56c7 1a3f 952a 0cbe
00000060: 3db4 06be f93e 393f c7e9 84be fbdf 8ebe
00000070: 66f9 2dbe 820f 7d3f 6562 083f ce0c 44be
00000080: a9e0 6b3f a7a6 1a3f 0d02 92be e774 98be
00000090: 0e9c 283f 95d0 f23e 2497 97be b90a bebe
000000a0: 66c2 3f3f 899d 2f3f 1833 b3be ba6d 80be
000000b0: 65e2 36be 7b55 f0be 0bd9 6cbe 0564 233f
000000c0: 12a8 5f3f da4b 8a3f 7ad8 7dbe aba8 b93f
000000d0: 29e3 85be 3979 e3be cb0d ec3d 558a 89be
000000e0: d633 7cbe 4e91 213f 4844 27bf 85d6 18be
000000f0: 1d95 4f3f 3e3e 85be 17c8 20be ecbc cdbf
00000100: aed4 d63d 546f 17be bf2b 823f 0f61 223f
00000110: 6a6f 423f c1a2 67be 267f bebd 2cac 2d3f
00000120: 4c77 97be f20e 1c3f a0ab 9cbe bce4 62be
00000130: 38f5 b0be 7791 b1be 60ad 2abe 6bec bfbe
00000140: ddc4 4ebe d0b9 f0bd 6c0b c2be b018 13be
00000150: 0ebc 0a3f 8989 bfbe 8c06 233f 3457 91be
00000160: 8001 b2be b734 4b3f 1468 08be 13f1 c8be
00000170: 3aa7 47be 9ee3 6a3f 391f fd3e 221e 2fbe
00000180: 0c7e 733f c407 2a3f 0528 8dbe 700a 7ebe
00000190: 0c83 4d3f 7c8c 203f 0ca2 4bbe d896 b0be
000001a0: 31bb 5d3f 74b6 3a3f 397b 54be ae69 9dbe
000001b0: 2c1e a6be a896 cabe d435 70bd 91aa 0a3f
000001c0: ceb0 4a3f 5a28 463f d5c5 6fbe 3d72 893f
000001d0: 4ff6 94be 5a9b 83be 8ec8 ab3d 19e7 93be
000001e0: b43b 98be 13b8 1f3f 59df 0cbf c7f5 abbe
000001f0: 6cca 673f 244e 77be 06ee 8dbe d3c6 9dbf
00000200: af6d e23d 2ad2 a5be 1f56 943f e70e 2e3f
00000210: 888e 583f 94b2 89be 77bf abbe 8875 fc3e
00000220: 9554 84be 6eeb 353f 7dda 8fbe 580f 86be
00000230: 6a7d 8fbe 5a32 d4be 1d3e 47be 4526 9dbe
00000240: abe9 c6bd 28fa 91be 311c 61be df00 9abe
00000250: cb36 f13e 4470 8fbe fecc 613f 30f1 b7be
00000260: a08d c4be 97ae 523f 45af 82be 4c85 8cbe
00000270: 888c b4be abc3 693f 5a34 f63e a59a b2be
00000280: 1f38 673f e137 5f3f 5286 26be 09ad 8ebd
00000290: 219f 543f 999b 463f d291 7abe ac27 dfbe
000002a0: f48a 903f 1ea6 373f 171e 39be a6f2 fdbd
000002b0: 45e2 65be 93a3 b8be eaeb 80be ab3d a73e
000002c0: 17f3 463f 2d1e 423f 4a55 1fbe 98f6 8b3f
000002d0: 3a95 4cbe 6b43 37bd 3863 ea3d 104a 4dbe
000002e0: 0d55 5bbe 040c 2a3f b171 3ebf 89a9 a6be
000002f0: 35de 843f 9c11 6cbe 0a1d 92be bc61 9abf

out.bias f4 [3]
-0.04438033 -0.19063976 -0.08613743
00000000: 26c8 35bd 1237 43be d268 b0bd
