acrobot_dqn_25-12-1k-64N.pth (torch, 22497 bytes, 6 tensors)

fc1.weight f4 [64, 6]
00000000: f34d fabe 31ae efbf cad4 0dbf 8b60 c6bf
00000010: bacb 983f 398b 233f 6dff 8abf 4957 5ebf
00000020: fd7f c1bb 7bb1 d5be 0554 76bf b1c6 35bf
00000030: edde 92bf c633 d13f 0dab 4ebf ef5c 98bf
00000040: ab97 783d ce1b 183f d779 86be 4aa9 d93e
00000050: 415f 31bf eb16 153f d8ed 113e 84a0 ea3d
00000060: ba29 bebf d4cd 95bd c780 e63d abdb efbe
00000070: 72db a13f d104 0b3f 2e3b 5bbf 9381 5cbf
00000080: 2c38 32be 9b87 493d a39b a23f 6f13 69be
00000090: de62 3abf 5fb9 563f 2f63 22bf e110 b3bf
000000a0: 9f70 0b3f b616 a93e 9370 ea3f c920 1d3e
000000b0: 6969 443f c1ef 923d 96f6 16be ad44 35be
000000c0: 46b2 fcbf 608d be3e 61f1 aabf 72e3 8fbf
000000d0: ecef a6bd 8145 2a3f 2085 d0bf b68d 92bf
000000e0: 38cd 1cbf 99b4 473f 4979 003f 0f41 943d
000000f0: f61d 3240 5746 4f3c 9d57 d03e e0fc f3be
00000100: 48ca e1bd e7d6 563d 00c3 55be 312e 413e
00000110: b8e0 27c0 3842 3d3f 4603 0b3e 6491 d73d
00000120: b0b2 b93f 2e85 99be da57 03bf 0456 02be
00000130: 91c6 c03c f84f 9dbc fd99 2240 c2cc 22be
00000140: c2d8 943d 809a 29be 9da0 3ebe f596 4fbe
00000150: 50d1 e3be 0266 14c0 0bb9 52bf a7a4 3f3f
00000160: afb1 ba3e bab5 26bd e451 b13d 43aa a23e
00000170: ab8f 7cbf 3312 e93d ca9e 84be 0c99 893e
00000180: a93f 5b3f 08a2 de3e 812a babf e7e3 803f
00000190: d344 c33c 9616 373d 59f6 77bf 1034 b73f
000001a0: 98ba babf 5f1a 19bf 9aa1 0a3f ad16 233f
000001b0: 8856 20bf 119a 23bf e799 853b 5da7 39bf
000001c0: fc60 1c3d 9f38 49bc 3397 05bf f41d 59be
000001d0: 7093 8cbf 778f 903e 4ba1 34be eaac 9bbd
000001e0: b511 cfbf e2da a8be 95f8 20be 9590 583e
000001f0: 0ad2 4e3e 5569 d03d ef7b 8cbe 45ff 473f
00000200: 6c01 fcbe dddf 473d 317b d0bf 1a5d 5e3e
00000210: 066b 1d3e 3865 473e d45f 5cbf 98c6 663f
00000220: 80e6 09bf db3a 9dbe f7a5 a13e de04 54be
00000230: e4fb 71bf 6a24 cabe 8ace 623e f4b7 1f3e
00000240: 08a3 f5bf ee34 b3bf db6f 8dbf 80c7 b5bf
00000250: 6965 4cbe 4a0a f0be 5c13 ac3e d353 e3be
00000260: e14d 7bbe b6d9 4abf 6fec 773e 6fe7 193e
00000270: 2935 f5bf 6d98 f23d ca0e 47bf 80b1 103f
00000280: c6b1 5a3f aec1 d9bc ed3d 09bf a2e2 83be
00000290: b9e6 2c3e 51b8 59bf 342e acbf 8a76 3a3e
000002a0: c52f 6bbf 8c24 7a3f d586 dbbf defc 873d
000002b0: dcb7 353e 1638 7d3e 0cea 42bf 4b00 30bf
000002c0: 14d2 803f d682 51bf e273 8f3f d06e 183f
000002d0: 5af8 86bf b8d5 34bf c343 f3bf fcee 4f3e
000002e0: 2e79 01bf 5139 6abf e49c 50be 19fb 9a3f
000002f0: c21b 26c0 f475 383f 2aa6 c53e 3ba7 2f3f
00000300: 6b60 a2bf cb14 cdbe 1c2c 473f 52df b63d
00000310: c88d b03f 258d 363f 30fa 5abf b2fd 7e3f
00000320: a329 f63e c99b 3a3f 61ce 5c3d 3666 693d
00000330: 8515 9fbe 27bd af3f 5c48 893e 0d90 bf3f
00000340: cec8 8dbf ae0e 02bf b45a f93f 597a 7dbe
00000350: 581e f5bd 6fe6 193f 7e36 29bf 104b 00bf
00000360: 88a1 1cbf 1fc2 7d3f 1de2 e3be 3131 aa3f
00000370: 3532 25be 45b0 723e 9a9c e0bf 0a92 60be
00000380: 3b02 b23e 7c17 22bf 0a2f 8d3f d000 853e
00000390: cdc0 99be 46c3 a03f 9604 24bf 0637 cebf
000003a0: d220 c33e 20e0 123f 0f2a 27bf 446a fabf
000003b0: aa4b 98bf 7a52 ff3e 1c41 fe3d 800e 23bf
000003c0: a988 28c0 42e4 31bd d987 00c0 8564 12bd
000003d0: a47f 1cbe 5c5a fa3b 8b48 343c e43a 823e
000003e0: e054 8abf a422 373f d9ff 8c3f 3328 9dbe
000003f0: 6554 82bf cf3f 7bbf 9e15 8e3e a0c4 1ebf
-0.48887596 -1.8725034 -0.55402815 -1.5498213 1.1937172 0.6388431 -1.08592 -0.86851937
-0.00590515 -0.4173697 -0.96221954 -0.71006304 -1.1474282 1.6343925 -0.8072975 -1.1903361
0.060691517 0.59417427 -0.2626483 0.4251197 -0.6928597 0.58238095 0.14250886 0.11456397
-1.4856484 -0.07314649 0.11255031 -0.4684728 1.2645094 0.54304224 -0.85637176 -0.86135215
-0.1740424 0.04920159 1.2703747 -0.2276132 -0.7280711 0.83876604 -0.6343259 -1.3989526
0.5446872 0.3302514 1.8315605 0.15344538 0.76723343 0.07174636 -0.14742503 -0.17701979
-1.9741905 0.37217236 -1.3354913 -1.1241286 -0.0815123 0.66512305 -1.6290627 -1.1449497
-0.6125064 0.78009945 0.50185066 0.072389714 2.7830787 0.012651048 0.40691844 -0.47653866
-0.1102491 0.05245104 -0.20875168 0.18865277 -2.6230907 0.73929167 0.13575467 0.10525778
1.4507656 -0.2998442 -0.51305926 -0.12728125 0.023532184 -0.019203171 2.5406487 -0.15898421
0.07267906 -0.16562843 -0.18615957 -0.2027243 -0.4449563 -2.318726 -0.82313603 0.74860615
0.36463687 -0.04070065 0.086581975 0.31770524 -0.9865672 0.11380424 -0.25902396 0.26874578
0.8564401 0.43482995 -1.4544221 1.006955 0.023836529 0.044699274 -0.9686027 1.4312763
-1.4588194 -0.59805864 0.54152834 0.63706475 -0.62632036 -0.6390696 0.0040771845 -0.72521
0.03817843 -0.012281566 -0.52183837 -0.21202832 -1.0982494 0.28234455 -0.17639653 -0.0760134
-1.6177279 -0.32979494 -0.15719827 0.21148904 0.20197311 0.101763405 -0.27438304 0.78123885
-0.49219835 0.048797477 -1.6287595 0.21715203 0.15372857 0.19472206 -0.8608372 0.9014678
-0.5386734 -0.30708966 0.31571934 -0.20704982 -0.9452498 -0.39480907 0.22149101 0.15597516
-1.9190378 -1.4000528 -1.104976 -1.4201508 -0.1996056 -0.4688285 0.3360852 -0.4439989
-0.24541427 -0.7923845 0.24211286 0.15029691 -1.9156848 0.11845479 -0.7775694 0.56520844
0.8542751 -0.026581611 -0.53610116 -0.25758845 0.16884889 -0.8504687 -1.34516 0.18209282
-0.91869766 0.97712016 -1.7150522 0.066400275 0.17745918 0.24728426 -0.7613838 -0.6875045
1.0064111 -0.81840265 1.120724 0.59544086 -1.0544541 -0.7063861 -1.9005054 0.20306009
-0.5057553 -0.9149371 -0.20372349 1.2107879 -2.5954442 0.7205498 0.38603336 0.6861455
-1.2685674 -0.40054926 0.7780168 0.08929314 1.3793268 0.7130912 -0.85538006 0.9960586
0.4807864 0.7289396 0.053907756 0.05698224 -0.31071106 1.37296 0.26813018 1.4965836
-1.1076906 -0.5080365 1.9480805 -0.24753703 -0.11968678 0.6011724 -0.66098773 -0.50114536
-0.6118398 0.9912433 -0.44508448 1.3296262 -0.16132434 0.23700054 -1.7547791 -0.2193071
0.34767327 -0.63317084 1.102998 0.25977182 -0.30029908 1.2559593 -0.640695 -1.6110542
0.38110977 0.5737324 -0.6529855 -1.956368 -1.1898091 0.49867612 0.124147624 -0.63694
-2.633341 -0.043430574 -2.0082915 -0.035740394 -0.15283066 0.007640166 0.011003624 0.25435555
-1.0807152 0.7153723 1.1015579 -0.30694732 -1.0182005 -0.9814424 0.27750868 -0.62018776

fc1.bias f4 [64]
00000000: 3d4e 83bf 8cae cbbf 234a 92bf debd b93f
00000010: 3a84 93be d470 75bf a5ca a5bf 322c 0c40
00000020: edd7 54bf 0b79 c6bf 6afc 4240 0ae7 e9bd
00000030: 952a d53f 92dd 3c40 f865 56bf d26c d73e
00000040: a716 673e f3f5 b8bf 5a5e c83f 4877 e03f
00000050: 3a53 b83f c7ae f8bf e106 853f f0d7 c53f
00000060: 589b 2f3e 0501 e23e 7f87 8fbf fc3a 063f
00000070: 13ab b5bf ed42 f2bf 549e cbbf 9d24 cdbf
00000080: 0574 82be 78ee d03f c859 cbbf 57d7 b13f
00000090: 7d17 82bf f1b0 b43f 1714 ebbe 530b e2bf
000000a0: 6ef2 de3f ea04 29c0 a0a1 c03f ebd7 3cbf
000000b0: d7ff b33f 8580 74bf 22b5 4740 01d7 0540
000000c0: 158c 90bf 3114 373f a66e 33bf 626c 06bf
000000d0: a629 9cbf 2890 d43d 3c2d b2bf 9aaa 2e40
000000e0: 4a48 fb3f c7c7 be3d bb4c 22bf 0eab 05c0
000000f0: 4540 9b3e 845a 3c40 fb97 5640 fad8 9c3f
-1.0258251 -1.5912642 -1.1428875 1.4511068 -0.28811818 -0.9587529 -1.2952467 2.1901975
-0.83141977 -1.5505689 3.0466561 -0.1142102 1.665362 2.9510236 -0.8374934 0.4207521
0.22567235 -1.4450058 1.5653794 1.7536402 1.4400399 -1.9428338 1.0392724 1.5456524
0.17149103 0.44141403 -1.1213225 0.52433753 -1.4192833 -1.8926674 -1.5907693 -1.6026798
-0.2547914 1.6322775 -1.5886774 1.3893842 -1.0163418 1.4116498 -0.45913765 -1.7659706
1.7417734 -2.640925 1.5049324 -0.73766965 1.4062451 -0.95508605 3.1204305 2.0912478
-1.129275 0.71515185 -0.7009071 -0.5250913 -1.220021 0.10379058 -1.3920054 2.7291627
1.9631436 0.09315448 -0.6339833 -2.0885653 0.3032247 2.9430246 3.3530262 1.2253716

fc2.weight f4 [64, 64]
00000000: 0b48 80bf 7ebb 0fbf 6415 27bf 553d a9be
00000010: 5de1 313d 27c3 8b3f c241 7f3f 6c2a 2bbd
00000020: 6079 3fbf 3a9d f5bd b5bb c0bd 6fe2 0cbf
00000030: 0aa2 40be eed4 8ebe 7af1 9c3e 9cf9 96be
00000040: 426d 1abf 3211 8c3e e32f 95bd 8d49 bfbd
00000050: 1161 b63e 5f1f 53be a861 95be 98d2 febd
00000060: e949 3c3e 3260 98bd b969 86be 96c9 d63e
00000070: 3064 923f f19f 10c0 96e1 c0bf ee9b 1f3f
00000080: 52ea 89bf cc4b c0be 4ef3 c8bf 413d 94bc
00000090: 885d 223e 78a1 abbe 8580 f63e 2de4 87bf
000000a0: d07c f03e 4758 0fbf bcaa a9bc 5661 313f
000000b0: 9fbb 753d dfbe 2c3f 652d 0abe 8d1f c33d
000000c0: bce6 b33e 8176 733e 5a10 053f b48e 133e
000000d0: 728d 843f 58f3 3e3e f83a be3f cc79 3ebe
000000e0: dd33 d8bd 0ac6 1dbf 6423 71bf f7a9 d23e
000000f0: 15bc 28be a081 a8be 2f66 b8bc 31ca 9fbe
00000100: 317d 85bd a8e2 09c0 4be0 073f c352 dd3e
00000110: 4035 dfbf 0672 cdbf e308 6bc0 3af0 07be
00000120: 08b3 ef3f 3b31 6c40 837d f63d 24a3 6d3f
00000130: 54d7 38bd c5c8 9a3c 8065 38bf d826 2ebf
00000140: 6078 aa3e 369b b9bf 59b9 c9bb c1f2 133e
00000150: 7d12 a2be 52f5 09bf ff42 753e d1c9 f0bd
00000160: 0e9d 7a3f f401 7bbe 30bf f23f fec7 a2bf
00000170: 179c 3d3f c87b 24be 5b6f b4bf 8253 963f
00000180: d112 403e e699 68bf faca c73e 87cf f63d
00000190: fc82 cbbf 9876 82bf e048 60bd 4c7f 583f
000001a0: f04b 713f 60ef 883b 75d6 1d3e 155a 903f
000001b0: 57f1 a5be c41f 71c0 6278 b93e 4c8b cabf
000001c0: b208 07c0 af0f 4f3f 1db4 39bf 963d d0bf
000001d0: 9c7e 30bf 7f31 4fbf 46fe a5be d762 8c3d
000001e0: 940a f2be e9d3 15c0 e16f 35bf e1ac 223f
000001f0: d04f e63e 73a5 a0bd 2287 f53e c524 e1bd
00000200: be65 d3bc c353 a5bd 68dd cf3d 51ef 03be
00000210: 2e8b 07be 5957 11bd 769f d3be c93d a3bd
00000220: c414 c73d 5077 9abc 1700 c1bd c54a 0ebe
00000230: 03f4 32be 802e 95bd d3e9 aebe 1f45 16bb
00000240: 2340 46be a07d 433e 9214 e33b 5b02 71bd
00000250: 3362 253d 3e80 e4be 18aa 92bd 2356 7a3d
00000260: 8a8e debe b0fe 1fbe 5c7f 3bbe 4bd5 103e
00000270: 3ada 863c bc6f 793c 4ea3 02bf 9898 0b3d
00000280: 6a0f 59be 70a1 9abe 9062 f0bc b816 8abe
00000290: bf0f 0dbd d750 693d 76f1 7fbc 1a31 b13d
000002a0: 7805 9cbd dace 95bd 786a b4bd b493 49bd
000002b0: 12a9 bfbd f31b babc a97a 86bd 12cd 4cbd
000002c0: 7bee e33b 4068 c63d a094 80bd bd01 e73c
000002d0: 5c90 c53c c005 363d b462 a6bd ba3f 0cbc
000002e0: edc8 f2bd 67ca 6cbc 7424 c5be 948a 993d
000002f0: 7de7 66bd 5a99 0cbe 3e54 27be 3ec4 60be
00000300: aa28 60bf 4bb3 dcbe b882 e6be c587 a5bf
00000310: 3105 52bf 9955 893e d1a1 8c3d c318 fbbd
00000320: 263d 2dbf febe 043e 7cf3 e83c 744d 8fbe
00000330: e214 80bc 04ef acbc 955c ddbe dc39 30bf
00000340: d5aa 6abe e34c ce3e 6652 c8be 1770 e3be
00000350: 2278 a6be 2930 0fbf efca 25be 0c01 d0bc
00000360: e609 08be 570d 88be ad4e 113e ca13 fa3e
00000370: 0195 1a3e 5bed 21bf 0206 52bf e9d9 e7be
00000380: ad64 99be 44c7 84bf 003f 67bf d32b 94bd
00000390: f4f4 c53e e9a0 acbf 7182 983e c8ec 0dbf
000003a0: b06e 17be 0e39 74bf ad9f 55be 9f00 0d3e
000003b0: 8aa2 d2be c1d2 823e b9b6 84bd b7bb 8abf
000003c0: 2ffc d03e bf48 08bf 5373 963e 5dca 5cbe
000003d0: 8c58 e43e 0ed3 39bd e37c 143f 3ae4 ca3d
000003e0: 9cea 31bf 65f9 89bf be6b 4bbf 1ea3 04bf
000003f0: a02d eebe 9c3b 44be 6dd0 22bd 915e 01be
-1.0021986 -0.56145465 -0.65267015 -0.33054605 0.043427814 1.0918931 0.99709713 -0.041788504
-0.7479458 -0.11992879 -0.09410802 -0.5503301 -0.18811813 -0.27896827 0.30652982 -0.29487312
-0.60322964 0.2735687 -0.07284524 -0.093402006 0.3562093 -0.20617436 -0.29176068 -0.12442511
0.1838757 -0.07440223 -0.26252535 0.41950673 1.1436825 -2.259762 -1.5068843 0.62347305
-1.0774634 -0.37557828 -1.5699251 -0.018095614 0.15855992 -0.33521628 0.48144928 -1.0616509
0.46970224 -0.55994076 -0.020711295 0.6928915 0.059993383 0.67478746 -0.13493879 0.09527502
0.35136974 0.23775674 0.51978076 0.14409906 1.0355666 0.18647516 1.4861746 -0.1860115
-0.10556767 -0.6163031 -0.94194627 0.41145298 -0.16477998 -0.32911396 -0.022509662 -0.31208947
-0.06518019 -2.154459 0.5307662 0.43227205 -1.7438126 -1.6050422 -3.6724174 -0.13275233
1.8726511 3.6905048 0.12035658 0.9282706 -0.045127228 0.018894562 -0.72029877 -0.6802802
0.33294964 -1.4500492 -0.0061561284 0.14448072 -0.3165473 -0.53889954 0.23951338 -0.117572434
0.97895896 -0.24512464 1.8964596 -1.2717283 0.740663 -0.16062844 -1.4096483 1.1744235
0.18757178 -0.9085983 0.39022046 0.120513014 -1.5899348 -1.0192442 -0.054757 0.8456924
0.94256496 0.0041789263 0.1541384 1.1277491 -0.3241069 -3.7675638 0.36224657 -1.582376
-2.1099057 0.80883306 -0.72540456 -1.6268795 -0.6894319 -0.809349 -0.32420558 0.0685479
-0.47273695 -2.341059 -0.7087384 0.6354504 0.44982767 -0.07844057 0.4795466 -0.10993341
-0.02580535 -0.08072617 0.10149652 -0.1288426 -0.13236687 -0.03548369 -0.41332597 -0.07970769
0.097207576 -0.01885572 -0.09423845 -0.1389571 -0.17475896 -0.0728426 -0.3416277 -0.0022929383
-0.19360404 0.19090891 0.0069299424 -0.058840137 0.040376853 -0.4462909 -0.07161349 0.061117303
-0.43468124 -0.156245 -0.18310302 0.14143865 0.01646148 0.015224393 -0.51030433 0.03408107
-0.21197286 -0.30201292 -0.029343873 -0.26970458 -0.034438845 0.05696186 -0.015621534 0.086519435
-0.076182306 -0.073148444 -0.0880937 -0.049213126 -0.093584195 -0.022718405 -0.06566364 -0.050000258
0.0069559193 0.09687853 -0.06278348 0.028199071 0.024116687 0.044439077 -0.08124295 -0.0085601155
-0.1185473 -0.014452553 -0.38504374 0.07497135 -0.05637311 -0.13730374 -0.1634073 -0.2194986
-0.8756205 -0.4310554 -0.45021605 -1.2932059 -0.8203917 0.26823118 0.068668015 -0.12260582
-0.6767143 0.12963483 0.028436415 -0.2798878 -0.015634958 -0.021110065 -0.43234697 -0.68838286
-0.2291673 0.40293035 -0.39125365 -0.44421455 -0.3251353 -0.5593286 -0.16190694 -0.025391124
-0.13285026 -0.26572677 0.14190169 0.48843223 0.15095903 -0.632528 -0.8204042 -0.4528344
-0.29959622 -1.0373311 -0.90330505 -0.07234921 0.38663447 -1.3486606 0.2978702 -0.55439425
-0.14788318 -0.9539956 -0.20861693 0.13769768 -0.41139632 0.25551417 -0.06480164 -1.0838536
0.408174 -0.53236 0.2938486 -0.2156157 0.44598806 -0.045367293 0.5800306 0.09906812
-0.6949861 -1.0779234 -0.79461277 -0.518114 -0.46519184 -0.19163364 -0.03974955 -0.1263373

fc2.bias f4 [64]
00000000: fe7f 1c40 97c0 2840 2c7a 10be 2471 b63f
00000010: c211 4340 2aa6 993d 7736 ccbd 68c4 943c
00000020: be4e 4f40 e8bb db3d 9d60 f8bf 7c93 2bbe
00000030: 3b45 0640 051f 20be 5c1d 6340 0866 5540
00000040: fcf8 973f a1ef 1ebe 981e c43d 5031 37bf
00000050: ef5b 983f 8809 dbb9 c62f 2840 e840 ae3d
00000060: bc73 7740 b0fa d5bd e107 5340 113a 5b40
00000070: 618b 7240 5a22 0740 b4df 24be 8723 32bf
00000080: 4c98 113f e4b0 c83f f124 3a3d 16ff b2bd
00000090: fc51 6740 a892 b33f 0968 00be 016d 97bd
000000a0: f8e0 d73f 7e1a 3bbe d6c9 6540 6b21 c9bd
000000b0: b846 b63f 1045 5740 d30b 0abd 7d13 0fbd
000000c0: 29eb 8b3f f841 2240 3371 14be 1993 53be
000000d0: deb5 9cbf 40ca a33f 4d04 58be 4f9f 8ebe
000000e0: fe27 173d 7df9 5540 fdb8 6cbf 42b8 94bd
000000f0: 7e75 7b40 0154 6e40 6961 06be 14bc ac3f
2.445312 2.6367548 -0.14109105 1.4253278 3.0479589 0.075023964 -0.09971326 0.01816006
3.239181 0.107292 -1.9404484 -0.1675548 2.0979755 -0.15636833 3.548667 3.3343525
1.1872859 -0.15521099 0.09576148 -0.7155962 1.1903056 -0.00041778036 2.6279159 0.08508474
3.8664389 -0.104482055 3.297356 3.425419 3.789757 2.1114717 -0.16100961 -0.6958546
0.5687301 1.5678983 0.045445386 -0.0874006 3.614379 1.4029131 -0.12539686 -0.07393838
1.686553 -0.18271825 3.590444 -0.09820827 1.4240332 3.3635902 -0.033702683 -0.034930695
1.093114 2.5352764 -0.14496307 -0.20661582 -1.2243001 1.2796097 -0.2109539 -0.27855918
0.036903374 3.3433526 -0.9246977 -0.07261707 3.9290462 3.7238772 -0.13123097 1.3494897

out.weight f4 [3, 64]
00000000: 0ad2 0c3e 3b74 87be 535d 563e eee0 febd
00000010: 15a0 26be 1970 f9bd a7fd 41bb abb6 e33c
00000020: 9ed5 cdbd 723b 4ebf fa7b 283f f7e7 3e3c
00000030: 9256 94be 405a f83b fe34 4cbe 596f 5cbd
00000040: 963c 63be 7d9e 443d c1c0 a1bd c039 b73f
00000050: 5954 60bf 0962 1c3c 78c3 ff3c 61c6 b33d
00000060: 2afe a3be e48d 3c3c 93cc 99bd 2f0b 8dbe
00000070: cf96 60be bb05 c7be 1b58 d63d 3771 ad3f
00000080: 9e8f 433f c584 4abe 3f9f 10be ca56 6ebd
00000090: 7fb0 d7be ed37 a0be 86fc 633d b248 b73d
000000a0: 9520 30bf 91e3 453d 9377 f8bd 12fb 543d
000000b0: 9a39 bcbe 31a5 fe3b c603 963d 088b fbbd
000000c0: 976c bebe 5635 a93e a0ce 8f3d 44a2 a93d
000000d0: 7270 323f 6d5c 1fbf b440 413d 94b4 acbf
000000e0: 8196 953d eae5 c13c e2dd 303f f852 923c
000000f0: ae1b 8cbe a545 91be b1b6 25bd bc8b 103d
00000100: a8db 32bd 9bdd 88be ce33 253e fee7 10be
00000110: d30f 50bd aee5 b5be 00c5 1fbd 009e d8bc
00000120: 39bb 82bd 814c 45bf 731c 1b3f b941 90bd
00000130: 1d02 98be e0fd c33c 6bdb cdbd af20 1bbe
00000140: 6d27 4cbe b80b 1ebd fedd e9bb 7c83 c03f
00000150: c439 72bf f836 2a3d 9e8a 1fbe caba 0fbd
00000160: 3eef a5be df9e c5bd 7643 bbbd 0670 23be
00000170: 4236 5fbe 2f8c c6be bbb1 43bd 36e6 b03f
00000180: f64b 4a3f 862e 29be 24b1 1e3d be3e 6c3c
00000190: 4a85 a3be 1d49 cebe 8fe8 dc3c 1850 a6bc
000001a0: e3f1 22bf 5628 813d dc89 14be e6d5 923d
000001b0: 9934 dcbe 034e 04be 6d81 b83d e546 83bd
000001c0: e6b3 8fbe adc7 d33e f835 c13a 7d89 ec3d
000001d0: 4c01 2d3f ff23 3dbf fe26 3d3e e259 aabf
000001e0: 225a 5cbc 11fc 25be b2f8 213f 33e1 a6bc
000001f0: ceb0 83be fec6 82be 26f7 aabd ab6d f6bd
00000200: ec48 11be 0306 70be a2db 223d a408 a8bd
00000210: ead8 873c 2d1e 96be 1ca9 363d 307f 1fbd
00000220: 89e0 08be bab5 3dbf d5e5 173f b31e 9f3b
00000230: aa04 84be 6816 ba3d 787e 6dbd 209b 5abe
00000240: 9d39 4ebd 8036 2bbc 1e6f c5bc fc0f ba3f
00000250: 6f0e 4ebf bd7d c0bb 52a5 9fbe 74a8 c43d
00000260: 6082 8fbe d297 6f3d b082 05b9 236f 4fbd
00000270: 7ed0 71be f090 bdbe 9d20 083c 325f af3f
00000280: a083 433f 1304 cebd 5248 0e3d 6667 b7bd
00000290: 0076 8bbe 7ed2 c7be 6a0e 96bd e4d9 ae3d
000002a0: 920e 0bbf c3f9 4a3e 793a 33be 9896 813d
000002b0: e53f f1be 63ab 2ebe aac4 fabc 4179 1abe
000002c0: 6a74 b3bd ec72 ed3e 1b44 c93d b609 10bc
000002d0: 0d6e 2b3f 48b3 23bf 9f55 833e 76c8 a0bf
000002e0: 3e8a 163d adc5 9abe f9a5 283f de2e abbd
000002f0: 8955 88be 61f7 78be ba3e d63c 1407 85be
0.13751999 -0.26455864 0.20934038 -0.12445246 -0.16272004 -0.12179584 -0.0029600651 0.027797064
-0.1005051 -0.80559456 0.65814173 0.011651984 -0.28972298 0.007579118 -0.1994209 -0.053817127
-0.2219108 0.04800271 -0.07898093 1.4314499 -0.87628704 0.009544858 0.031221136 0.08778072
-0.3202985 0.011508439 -0.075097226 -0.27547595 -0.21932529 -0.3887156 0.104660235 1.3550175
0.7639102 -0.1977721 -0.14123248 -0.058188237 -0.42126843 -0.31292668 0.055660747 0.089494124
-0.68799716 0.048312727 -0.12132182 0.05199725 -0.36762697 0.007771157 0.073249385 -0.122823775
-0.37192222 0.33048505 0.070218325 0.08282903 0.6970283 -0.62250406 0.047180846 -1.3492608
0.07304097 0.023669202 0.69088566 0.017861828 -0.27364868 -0.28373447 -0.04045743 0.03528951
-0.04366651 -0.26731572 0.16133043 -0.14150998 -0.05079634 -0.35526794 -0.039006233 -0.026442528
-0.06383366 -0.7706986 0.60590285 -0.070437856 -0.29689112 0.023924768 -0.10051616 -0.15149187
-0.19936915 -0.038585395 -0.0071370592 1.5040126 -0.94619393 0.04155633 -0.15580222 -0.035090245
-0.3240909 -0.09649443 -0.091437265 -0.15960702 -0.21798041 -0.38778827 -0.04777692 1.3820255
0.7902216 -0.16521654 0.038743153 0.014419256 -0.3193763 -0.40290156 0.026966361 -0.020301864
-0.6365034 0.063065216 -0.14505714 0.07169704 -0.4300888 -0.12920384 0.09009061 -0.064100064
-0.2806694 0.41363278 0.0014740815 0.11549661 0.67580104 -0.7388305 0.18471906 -1.330868
-0.013449224 -0.16209437 0.63270104 -0.020371055 -0.2572083 -0.25542444 -0.08347921 -0.12032636
-0.14187974 -0.23439793 0.03976024 -0.08204773 0.016582925 -0.29319897 0.04459487 -0.038939655
-0.13366903 -0.7410542 0.5933507 0.0048559546 -0.25784808 0.09086305 -0.057981938 -0.21348238
-0.050347913 -0.0104500055 -0.024100836 1.4536128 -0.80490774 -0.005874364 -0.31180817 0.096024424
-0.28029156 0.058494397 -0.00012732553 -0.050643098 -0.2361469 -0.3702464 0.008308557 1.3700926
0.7637272 -0.10059371 0.03473694 -0.089552686 -0.27238464 -0.3902778 -0.07326968 0.08537653
-0.5431911 0.19821839 -0.17502774 0.063275516 -0.4711906 -0.17057566 -0.030611355 -0.15085317
-0.087624386 0.4637674 0.09827443 -0.008791378 0.669648 -0.63945436 0.2565126 -1.2561176
0.03675293 -0.3022894 0.65878254 -0.083585486 -0.26627758 -0.24313118 0.026152957 -0.25981963

out.bias f4 [3]
00000000: 1cca 38c0 835d 25c0 53ca 3dc0
-2.8873358 -2.5838325 -2.965474
