acrobot_dqn_25-12-3k-64N.pth (torch, 22497 bytes, 6 tensors)

fc1.weight f4 [64, 6]
2.1572084 0.25829172 -0.2794491 0.25307915 -0.12050569 -0.08215983 -0.7186708 0.5812271
1.4555653 -0.24311046 0.52103806 0.04932608 0.60648865 -0.74394625 -0.26290533 0.062116057
1.3336468 -0.3699412 -2.3523097 -1.4023482 2.033758 0.8034037 1.1944202 0.4872691
0.2309934 0.53161365 2.2801778 0.20610778 -1.3584851 -0.6590761 -2.0491035 -1.280571
0.8611892 0.04366766 0.7800437 -0.054701842 0.12270572 1.9271464 -1.6337655 1.8028568
-0.06358484 0.6626724 -1.2151378 -1.107155 -2.1386175 0.46810028 0.11860303 -0.5398016
-0.83762324 0.5184553 -0.38929272 0.047181197 1.6315919 0.94783735 -0.07178588 2.274815
-2.4138887 -1.2061188 0.430769 0.71861863 -1.0162655 1.1058775 -0.09682058 0.21488702
-0.59327227 0.21618888 -2.5147204 2.1893353 2.004777 0.051128216 -0.8705673 -0.4256087
1.8388053 0.26707602 -0.6938393 0.7599034 -0.36964628 -0.13654667 -0.31224266 -1.6089008
-0.009755132 -2.2485926 0.85718155 0.29412168 0.40303695 0.3242077 -1.0293211 0.38854364
-0.06999062 -0.021728693 -0.43384546 1.7244864 -1.4054594 -1.8680136 0.5232213 0.7721717
-1.9708753 0.28838947 0.09796497 1.1071436 -0.6899713 -0.65771806 -1.101158 -1.674955
-0.123230554 1.240422 0.2587688 0.23508151 -1.289441 -1.7814208 -1.7324446 -0.23906466
-0.16884057 -0.54629904 2.5002387 0.09925275 0.19101967 0.3953575 0.05689959 0.0031197013
-1.9886663 0.22118063 0.7998845 0.03998775 -2.0663934 -0.5877961 5.557319 0.14273511
1.7587534 0.0662256 -0.15698151 -0.2917379 -1.9611914 1.0791306 1.424766 1.0382472
0.19682671 0.4333504 -0.70869094 0.3031218 0.91614896 0.113865934 0.05251458 0.096890934
-0.18427472 -0.5536849 -0.21941136 1.2019869 -0.9294432 -0.2720196 2.5868335 1.1424164
0.72654456 1.2552536 0.06302242 0.4288239 -3.2142706 -0.235334 -1.6605016 -1.037943
-0.37098524 0.29963964 -0.79992527 0.25373644 -0.1256235 -0.06122457 -0.456747 0.19997272
-0.9700708 0.39786506 -2.620962 -1.5757691 0.59389096 1.2927933 -1.9302452 0.36911318
-1.0147381 -0.030382756 -0.93676376 0.32624662 -0.62293714 1.4936628 0.08271952 0.15125176
1.3009292 0.8803326 -1.9485564 -0.8099663 -1.8147085 -0.08147154 1.1459255 -0.7388529
0.020483876 0.7625471 -2.2450955 0.575478 -0.05589336 0.2599499 1.1335003 0.5430964
-1.4174056 -0.17932247 0.24154177 0.18835121 -2.2989364 -0.02057369 -0.38288414 0.46146506
-0.7006555 -0.47200686 -2.4379466 -0.9004106 -1.0140179 0.43304923 0.42600495 0.36296278
-0.82226837 0.011589448 0.66774845 -0.92934257 -1.0359899 0.45799556 1.6317174 -0.65949285
-0.46083692 -1.4055523 0.76607436 0.44392973 0.59266293 -0.53344625 -2.0141227 -0.015088044
-0.5543759 -0.83283263 -1.1315609 0.08946251 -0.49367383 0.6453017 -0.4490266 -0.43561587
2.4337296 -0.457536 0.22694843 0.090848185 -0.30735835 -0.20920591 -0.2885491 -0.24179512
-0.846622 0.40569264 1.4274162 -0.22053389 -0.18821684 -0.87065154 -1.5789118 -1.9682335
00000000: b40f 0a40 d03e 843e f413 8fbe 9793 813e
00000010: b0cb f6bd 6a43 a8bd cffa 37bf 4dcb 143f
00000020: f74f ba3f f3f1 78be c062 053f 250a 4a3d
00000030: d742 1b3f 4373 3ebf 879b 86be 686d 7e3d
00000040: f0b4 aa3f ef68 bdbe 3e8c 16c0 2580 b3bf
00000050: 1729 0240 ddab 4d3f c3e2 983f 567b f93e
00000060: 8989 6c3e d517 083f 6fee 1140 eb0d 533e
00000070: d7e2 adbf 36b9 28bf 8324 03c0 c0e9 a3bf
00000080: e576 5c3f dcdc 323d f2b0 473f 0a0f 60bd
00000090: 234d fb3d bcac f63f 3a1f d1bf 03c4 e63f
000000a0: c538 82bd e6a4 293f a389 9bbf 41b7 8dbf
000000b0: 1cdf 08c0 d7aa ef3e 25e6 f23d 7030 0abf
000000c0: 7a6e 56bf 7db9 043f 6051 c7be 1241 413d
000000d0: 01d8 d03f 78a5 723f 7a04 93bd 9296 1140
000000e0: 277d 1ac0 1a62 9abf c18d dc3e 64f7 373f
000000f0: fd14 82bf 658d 8d3f de49 c6bd 580b 5c3e
00000100: b1e0 17bf 9e60 5d3e 2ef1 20c0 121e 0c40
00000110: 444e 0040 d26b 513d 80dd 5ebf 62e9 d9be
00000120: f95d eb3f 30be 883e 749f 31bf 0789 423f
00000130: 4742 bdbe e4d2 0bbe 45de 9fbe 76f0 cdbf
00000140: fdd3 1fbc f1e8 0fc0 4070 5b3f 1e97 963e
00000150: dc5a ce3e 8dfe a53e cbc0 83bf 31ef c63e
00000160: 3e57 8fbd 5f00 b2bc fe20 debe f8bb dc3f
00000170: 18e6 b3bf 121b efbf d5f1 053f 0bad 453f
00000180: a445 fcbf c9a7 933e dca1 c83d e2b6 8d3f
00000190: f6a1 30bf 3660 28bf bff2 8cbf ed64 d6bf
000001a0: 4d60 fcbd 26c6 9e3f 587d 843e 35b9 703e
000001b0: 670c a5bf 9905 e4bf bfc0 ddbf 5ecd 74be
000001c0: 8be4 2cbe 41da 0bbf e903 2040 0745 cb3d
000001d0: a99a 433e 4c6c ca3e 8b0f 693d e773 4c3b
000001e0: 9e8c febf 2d7d 623e 3bc5 4c3f 32ca 233d
000001f0: ca3f 04c0 ce79 16bf 8fd5 b140 2729 123e
00000200: d51e e13f 4aa1 873d c3bf 20be ac5e 95be
00000210: 5208 fbbf f420 8a3f bb5e b63f 49e5 843f
00000220: f18c 493e 1be0 dd3e c56c 35bf c832 9b3e
00000230: bd88 6a3f 8b32 e93d 8719 573d c16e c63d
00000240: 83b2 3cbe 4bbe 0dbf 5fad 60be b5da 993f
00000250: fdef 6dbf 2746 8bbe ae8e 2540 b33a 923f
00000260: d3fe 393f 26ac a03f e611 813d ce8e db3e
00000270: 9cb6 4dc0 65fb 70be 518b d4bf 51db 84bf
00000280: c7f1 bdbe 5e6a 993e e7c7 4cbf bee9 813e
00000290: 72a3 00be 9dc6 7abd beda e9be a6c5 4c3e
000002a0: 8f56 78bf f8b4 cb3e d7bd 27c0 cdb2 c9bf
000002b0: 3d09 183f 407a a53f 4612 f7bf 67fc bc3e
000002c0: f0e2 81bf 42e5 f8bc c0cf 6fbf cc09 a73e
000002d0: cf78 1fbf 5830 bf3f da68 a93d bee1 1a3e
000002e0: d984 a63f 7a5d 613f 4c6a f9bf f459 4fbf
000002f0: 5e48 e8bf 8dda a6bd b0ad 923f 7725 3dbf
00000300: cdcd a73c 4936 433f a5af 0fc0 8752 133f
00000310: 70f0 64bd 2718 853e 8a16 913f 5e08 0b3f
00000320: 8c6d b5bf 4fa0 37be ba56 773e 24df 403e
00000330: c621 13c0 288a a8bc 6409 c4be 2645 ec3e
00000340: 295e 33bf e2aa f1be 5107 1cc0 4f81 66bf
00000350: 57cb 81bf a1b8 dd3e 521d da3e 42d6 b93e
00000360: 2e80 52bf abe1 3d3c 90f1 2a3f 65e9 6dbf
00000370: 519b 84bf 657e ea3e 1edc d03f 86d4 28bf
00000380: d1f2 ebbe 23e9 b3bf 731d 443f c24a e33e
00000390: c2b8 173f ef8f 08bf 63e7 00c0 d833 77bc
000003a0: 94eb 0dbf 8534 55bf fdd6 90bf 1f38 b73d
000003b0: d1c2 fcbe 7e32 253f d1e6 e5be 0b09 dfbe
000003c0: 3ac2 1b40 2942 eabe 2b65 683e 9d0e ba3d
000003d0: 135e 9dbe 133a 56be b5bc 93be 2499 77be
000003e0: 38bc 58bf f2b6 cf3e 93b5 b63f a3d3 61be
000003f0: eabb 40be 05e3 5ebf c819 cabf 13ef fbbf

fc1.bias f4 [64]
2.2835584 -0.99303496 -0.052245412 -0.6842812 -2.9853497 -0.061229322 -2.6823716 -1.6964846
-0.46006668 -1.6890739 -1.6182394 -1.8552146 0.8583221 -2.200883 1.4307606 -1.3696442
0.42188197 -0.5636432 -0.87536055 1.9156172 -1.702053 3.5816429 -0.99641365 0.62200487
-2.129523 1.5484701 -0.1760785 1.2974792 -2.4049299 -3.5654676 -1.980456 -3.9192898
-1.9039093 -0.5021477 1.0911121 -0.7538306 -1.8300596 0.014555569 -2.9896963 2.5044138
2.8403606 -2.1135275 -1.3366119 0.98306286 -2.713553 -1.6205138 0.27286297 -1.6584346
0.45326242 -1.6265875 -0.41716388 1.2204562 -1.7204633 -0.7969917 0.5382501 1.5863314
-0.68206483 1.0081044 -0.43338165 0.8285933 -2.6546147 -0.53666157 -0.7470352 -1.0171913
00000000: d225 1240 8a37 7ebf 49ff 55bd 0d2d 2fbf
00000010: f80f 3fc0 99cb 7abd faab 2bc0 6826 d9bf
00000020: dc8d ebbe 9333 d8bf 7822 cfbf ac77 edbf
00000030: ffba 5b3f 44db 0cc0 2a23 b73f 8050 afbf
00000040: ea00 d83e ec4a 10bf a117 60bf f232 f53f
00000050: dfdc d9bf a339 6540 f714 7fbf b63b 1f3f
00000060: 1b4a 08c0 4534 c63f ec4d 34be cc13 a63f
00000070: 5fea 19c0 9f30 64c0 957f fdbf a5d5 7ac0
00000080: 4db3 f3bf c08c 00bf 90a9 8b3f 0bfb 40bf
00000090: 653f eabf 7b7a 6e3c 2f57 3fc0 5148 2040
000000a0: 78c8 3540 0944 07c0 1916 abbf 02aa 7b3f
000000b0: daaa 2dc0 ff6c cfbf b2b4 8b3e 9647 d4bf
000000c0: 0312 e83e 0534 d0bf 8196 d5be e937 9c3f
000000d0: 2438 dcbf a607 4cbf c2ca 093f e80c cb3f
000000e0: cd9b 2ebf 9109 813f 33e4 ddbe b11e 543f
000000f0: 35e5 29c0 a762 09bf b33d 3fbf 5333 82bf

fc2.weight f4 [64, 64]
0.1603604 -0.52823865 -0.51963437 -0.84107834 -0.6644599 -0.13689344 -0.71770024 -0.7895985
-0.26276952 0.050392255 -0.22121523 -0.8654907 -0.3868623 -0.35347062 0.19419198 -0.42478505
-0.28595963 0.036972653 -0.029968176 0.07969092 -0.54961157 -0.114880666 0.030703949 -0.29093048
0.41352943 0.03201505 -0.050078377 -0.4266532 -0.39590245 -0.008196901 -0.7552197 -0.16632602
-0.04721399 -0.29374367 -0.62582994 0.41443208 -0.52026623 -0.12421876 -0.5469688 -0.58918023
-0.05465125 0.21323243 -0.5914207 -0.3814232 -0.6495564 -0.72422624 -0.0012860441 0.06423132
-0.016559314 0.7113382 0.27849615 -0.061429497 0.34853345 -0.019382603 -0.27462488 -0.21289584
0.033813696 -0.18048623 -0.06380113 -0.3317853 -0.5947806 -0.14229405 -0.62422615 -0.23629408
0.07159919 -0.029322674 -0.9806824 -0.1383308 -0.9959102 -0.18933724 -0.68514097 -2.5941768
-1.1979371 -0.026065622 0.7008581 -0.34205714 -0.5606407 -1.4949235 -0.18883571 -0.45548826
-0.456359 0.62887526 0.056958348 -0.100547545 -0.74026656 -0.060975626 -0.19653468 -0.3258128
0.1522479 0.005569236 -0.24910697 -1.4343812 0.44692928 -0.50621414 0.076669075 -0.8912005
0.19265762 -0.2514815 -0.23748982 0.8459364 -0.3943343 -0.3670273 0.4991445 -0.26625344
-0.13732295 -0.3985645 0.70675826 -0.39197472 -0.60031056 -0.33263353 -0.35414755 0.019204339
-0.038809475 0.8515051 -1.6829517 -1.2265595 0.3987933 0.3086974 -0.13695182 -0.5602916
-2.1860027 -0.21142152 -0.0064513194 -0.38707584 -0.032776725 -0.16123758 -0.6828451 0.77480686
0.059739336 0.2623094 -1.2820619 0.19019616 -0.51798415 0.50552785 -3.0344207 1.7024562
-0.9158987 -1.7417415 -0.6024338 -0.61629486 0.56511444 -0.19311693 -0.15851031 -1.104828
-0.39884424 0.13149427 1.2694973 0.08214716 -1.7075746 0.9106957 -0.9104773 0.3852686
1.1944762 0.20987311 -0.1925369 0.8177952 0.9545917 -6.672735 -3.1270497 -1.7553773
-4.878479 -0.084670514 -0.54063046 -1.0030289 -0.14349985 0.2863877 -0.7486518 -0.28690207
0.15394416 -0.89948916 -0.12681118 -1.0697634 -0.4200493 -0.2844582 -1.6536945 0.3133415
0.2572599 -4.1971126 0.41314408 -0.6543664 -0.8348383 0.93789446 0.58279073 0.13372831
0.84022874 -0.09078706 1.2780426 0.20453627 -0.15871753 -1.412284 -2.1996534 1.3258662
0.1244193 -1.4878012 0.30029356 0.12161609 -1.5139326 -0.98465115 -0.3693203 0.81571937
0.24015386 -0.060663264 2.1807714 -2.178604 -0.277481 -0.6510943 -0.08544024 0.07937261
-0.79014593 -0.6558876 0.23469998 0.08637458 -0.28330886 -0.35886836 0.23130098 -0.44638902
3.9449546 0.19148609 0.62723124 0.8793274 -0.33978057 -3.228086 1.2905596 1.5085332
0.93504447 0.26857197 0.095323846 -0.36494267 -1.1251949 0.3411256 -1.3446316 1.2177589
0.2614647 -0.8883075 0.49640492 -1.5739706 -3.2171164 -0.4984204 -0.4857855 0.27645355
0.039419573 -0.7659046 -1.2032453 0.93154776 -2.5028021 -1.9078246 -0.04091819 -0.3303859
-0.9906046 0.14040647 0.42699888 -0.1356523 -2.2902644 0.1743889 0.08774212 -0.27164835
00000000: 8435 243e a63a 07bf c206 05bf e950 57bf
00000010: 0b1a 2abf cb2d 0cbe 34bb 37bf 2123 4abf
00000020: ba89 86be 1c68 4e3d 3f86 62be cc90 5dbf
00000030: d112 c6be 1afa b4be 43da 463e 6d7d d9be
00000040: 4d69 92be a370 173d d27f f5bc fe34 a33d
00000050: 58b3 0cbf 8e46 ebbd d986 fb3c d7f4 94be
00000060: 21ba d33e 3722 033d fc1e 4dbd 4a72 dabe
00000070: bab3 cabe 4b4c 06bc 1456 41bf 5e51 2abe
00000080: 7563 41bd 9265 96be 6436 20bf 7130 d43e
00000090: 2b30 05bf 6866 febd 2606 0cbf 84d4 16bf
000000a0: fdd9 5fbd 9a59 5a3e 5967 17bf e749 c3be
000000b0: 5449 26bf e466 39bf 7b90 a8ba b68b 833d
000000c0: 66a7 87bc 431a 363f 0c97 8e3e 7f9d 7bbd
000000d0: fa72 b23e 44c8 9ebc a29b 8cbe 5e01 5abe
000000e0: 3b80 0a3d 62d1 38be 2baa 82bd c3df a9be
000000f0: 8b43 18bf 88b5 11be 49cd 1fbf 13f7 71be
00000100: 99a2 923d 1b36 f0bc 000e 7bbf 97a6 0dbe
00000110: f9f3 7ebf 9fe1 41be 6665 2fbf fe06 26c0
00000120: 0156 99bf 9287 d5bc 706b 333f 1d22 afbe
00000130: 2686 0fbf a759 bfbf 265e 41be c235 e9be
00000140: e3a7 e9be f8fd 203f 284d 693d dfeb cdbd
00000150: 1c82 3dbf 94c1 79bd 6340 49be efd0 a6be
00000160: e0e6 1b3e 237e b63b e615 7fbe ce99 b7bf
00000170: ead3 e43e 4097 01bf ad04 9d3d b725 64bf
00000180: 0a48 453e 2fc2 80be 8830 73be 4a8f 583f
00000190: 2fe6 c9be 01eb bbbe de8f ff3e 5f52 88be
000001a0: 639e 0cbe a510 ccbe 1cee 343f e9b0 c8be
000001b0: f4ad 19bf f14e aabe d452 b5be 6b52 9d3c
000001c0: aff6 1ebd 3dfc 593f f66a d7bf e7ff 9cbf
000001d0: a32e cc3e 960d 9e3e 193d 0cbe 456f 0fbf
000001e0: 78e7 0bc0 e27e 58be 9765 d3bb ce2e c6be
000001f0: e340 06bd 771b 25be f0ce 2ebf be59 463f
00000200: 3cb1 743d 6b4d 863e 9b1a a4bf c8c2 423e
00000210: 9c9a 04bf 466a 013f f333 42c0 16ea d93f
00000220: 5678 6abf 63f1 debf 1a39 1abf 80c5 1dbf
00000230: 57ab 103f 72c0 45be 8750 22be 016b 8dbf
00000240: 5035 ccbe 6fa6 063e e37e a23f c53c a83d
00000250: ce91 dabf 5a23 693f 0a15 69bf ed41 c53e
00000260: 99e4 983f fae8 563e 6528 45be 075b 513f
00000270: 1f60 743f 0c87 d5c0 9521 48c0 34b0 e0bf
00000280: 801c 9cc0 bc67 adbd c266 0abf 4063 80bf
00000290: a0f1 12be 69a1 923e a5a7 3fbf d4e4 92be
000002a0: 8aa3 1d3e ec44 66bf cada 01be 02ee 88bf
000002b0: b410 d7be 81a4 91be 43ac d3bf 4c6e a03e
000002c0: 92b7 833e bf4e 86c0 9f87 d33e 8e84 27bf
000002d0: f6b7 55bf da19 703f c631 153f 13f0 083e
000002e0: 3b19 573f 91ee b9bd e696 a33f f571 513e
000002f0: d986 22be b9c5 b4bf 1fc7 0cc0 fcb5 a93f
00000300: 8ccf fe3d 4570 bebf 14c0 993e db11 f93d
00000310: 8bc8 c1bf 1912 7cbf 8d17 bdbe fcd2 503f
00000320: e5ea 753e 0b7a 78bd c291 0b40 3f6e 0bc0
00000330: fd11 8ebe 1eae 26bf 4bfb aebd 1b8e a23d
00000340: 0147 4abf 40e8 27bf 3155 703e 28e5 b03d
00000350: dc0d 91be 98bd b7be 2ada 6c3e 1a8d e4be
00000360: 237a 7c40 ee14 443e 3a92 203f 9a1b 613f
00000370: b8f7 adbe f698 4ec0 0f31 a53f 9e17 c13f
00000380: 135f 6f3f 4482 893e 2639 c33d c4d9 babe
00000390: 6306 90bf 04a8 ae3e e31c acbf 86df 9b3f
000003a0: b3de 853e 1f68 63bf c928 fe3e de77 c9bf
000003b0: 3ce5 4dc0 f530 ffbe e1b8 f8be 528b 8d3e
000003c0: 6b76 213d 5312 44bf f103 9abf ea79 6e3f
000003d0: e92d 20c0 9933 f4bf d599 27bd 5728 a9be
000003e0: 4398 7dbf b7c6 0f3e 999f da3e 70e8 0abe
000003f0: b193 12c0 0193 323e 24b2 b33d 7e15 8bbe

fc2.bias f4 [64]
1.5157764 1.3327715 5.5693226 -0.75984716 -0.22875926 -0.24746369 -0.016479658 -0.16694896
-1.0516157 0.010413854 -0.013503173 0.9554146 1.5685612 -0.0759481 1.546118 3.9921498
-0.08127924 1.2032293 4.3133636 -0.17254882 2.3755755 -0.13677493 -0.11904482 0.98780715
-0.1432302 -0.24931474 -0.2835821 0.0025942093 -0.12220752 0.44225988 5.550497 3.9266753
1.2531645 1.4556165 5.4805193 0.009427958 -0.9131201 -0.16978283 2.980925 1.7232597
5.276013 3.279117 -0.16162118 5.3809805 2.7002692 -0.12526932 4.378127 -0.6791151
2.0170565 -0.15515037 -0.06367344 0.32872596 4.375269 4.937633 1.4597647 1.6253817
4.737682 4.9704595 -2.4474707 1.502916 0.72010744 3.0535984 1.3986219 0.02714758
00000000: f604 c23f 4298 aa3f e437 b240 5885 42bf
00000010: de3f 6abe 1f67 7dbe 5900 87bc abf4 2abe
00000020: 589b 86bf df9e 2a3c 6a3c 5dbc 0d96 743f
00000030: 9dc6 c83f ad8a 9bbd 32e7 c53f 627f 7f40
00000040: bb75 a6bd 6b03 9a3f 1307 8a40 a3b0 30be
00000050: 6e09 1840 ba0e 0cbe c5cd f3bd eee0 7c3f
00000060: f0aa 12be 5d4c 7fbe ac31 91be 9c03 2a3b
00000070: f047 fabd e36f e23e ac9d b140 a64e 7b40
00000080: b267 a03f a451 ba3f 6a60 af40 b977 1a3c
00000090: 3dc2 69bf 8ddb 2dbe 7ac7 3e40 c693 dc3f
000000a0: 19d5 a840 0edd 5140 0680 25be fe30 ac40
000000b0: 36d1 2c40 9a46 00be 9e19 8c40 7dda 2dbf
000000c0: 7417 0140 bddf 1ebe 3867 82bd c54e a83e
000000d0: 3402 8c40 1701 9e40 92d9 ba3f 820c d03f
000000e0: 179b 9740 010e 9f40 5ca3 1cc0 8d5f c03f
000000f0: f658 383f 286e 4340 0b06 b33f 9a64 de3c

out.weight f4 [3, 64]
-0.19763853 -0.15441386 -0.34356666 0.7777819 -0.009528826 0.1178712 1.6090915 -0.004189089
1.2292774 0.08205012 -0.03114318 0.19898523 -0.32625005 -1.1003295 -0.0045206393 -0.29661447
0.046436828 -0.033936728 -0.1145507 0.23442675 -0.44370914 0.093180045 0.06575836 -0.73829913
-0.10037425 0.24015403 0.34864616 -0.0032627808 -0.09047095 0.8170963 -0.4074083 -0.39600232
-0.04371292 -0.113712706 -0.077703536 0.03466239 0.9991427 0.05861029 0.5818038 -0.52922887
-0.16775899 0.03863551 0.14194982 -0.18428962 0.06961621 -0.09188472 0.02822733 0.43526226
-1.0711441 0.20502472 -0.08685686 -1.0745673 -0.038829487 -0.42604235 -9.345092e-05 0.77301055
-0.23384555 -0.14846048 0.4846057 -0.054516144 1.7184532 -0.7658669 -0.21968915 -0.6763026
-0.14207153 -0.2100906 -0.30466235 0.67423075 -0.010349189 0.01356136 1.6327906 -0.08725476
1.2364335 -0.074705824 0.0332205 0.16986725 -0.3259638 -1.0609752 0.032028537 -0.06535986
0.08988574 -0.08724794 -0.24737352 0.13029845 -0.430362 0.16576153 0.057387076 -0.7197288
-0.07394126 0.06201794 0.32254064 -0.005975218 0.21191156 0.87647885 -0.37245986 -0.5629052
-0.11053714 -0.16825713 -0.096509375 -0.0637874 0.89234656 -0.006728591 0.62880963 -0.55375123
-0.16883136 -0.042249486 0.05224558 -0.18595268 -0.0061529735 -0.051307157 -0.055209503 0.26216775
-1.0107026 0.073129885 0.07911061 -1.1926441 -0.13647822 -0.40689382 -0.1579855 0.7162137
-0.24052806 -0.09840427 0.47499657 -0.07867021 1.7001624 -0.7579171 -0.2507309 -0.69732696
-0.17476928 -0.17262018 -0.28219518 0.5576599 -0.0005844269 0.16436289 1.6268959 0.00012925267
1.3269366 0.019476773 0.034062598 0.059101753 -0.33384666 -1.3048166 -0.0390464 0.13649508
-0.07152331 -0.16519037 -0.3634198 0.26091582 -0.43201613 0.040932443 0.0027928448 -0.7010409
0.057052083 0.16333988 0.29927874 0.011862989 0.088132516 0.8642808 -0.34890184 -0.61475915
-0.1227986 -0.15696006 -0.134838 -0.15556218 0.81651515 -0.11473963 0.63822365 -0.42613167
-0.1214312 -0.091542065 -0.048644986 -0.12789536 -0.19655855 -0.017698482 -0.13954622 0.27817565
-0.96870494 -0.00016744873 0.13436432 -1.1957027 -0.21892716 -0.3993072 -0.22637536 0.6666811
-0.26892114 -0.04431552 0.46693945 -0.02445833 1.88976 -0.7221575 -0.13073131 -0.63687533
00000000: c161 4abe ab1e 1ebe f8e7 afbe b71c 473f
00000010: cb1e 1cbc 7566 f13d b6f6 cd3f a044 89bb
00000020: f658 9d3f e509 a83d fb1f ffbc c9c2 4b3e
00000030: 3f0a a7be 99d7 8cbf df21 94bb dadd 97be
00000040: 8b34 3e3d 3d01 0bbd 8f99 eabd 910d 703e
00000050: d82d e3be 2ed5 be3d 52ac 863d 2c01 3dbf
00000060: 0491 cdbd f0ea 753e c081 b23e 61d4 55bb
00000070: d548 b9bd 392d 513f d297 d0be d1c0 cabe
00000080: 520c 33bd 35e2 e8bd 0823 9fbd 26fa 0d3d
00000090: d1c7 7f3f 5811 703d 18f1 143f 8b7b 07bf
000000a0: 03c9 2bbe 4540 1e3d 4b5b 113e 6bb6 3cbe
000000b0: f292 8e3d 0e2e bcbd 003d e73c b2da de3e
000000c0: 401b 89bf 00f2 513e 02e2 b1bd 6c8b 89bf
000000d0: ab0b 1fbd 3922 dabe 15fb c3b8 05e4 453f
000000e0: 3575 6fbe 0606 18be 3d1e f83e 524c 5fbd
000000f0: 46f6 db3f da0f 44bf 31f6 60be 2b22 2dbf
00000100: 337b 11be fe21 57be b4fc 9bbe 639a 2c3f
00000110: a58f 29bc 7730 5e3c 48ff d03f a0b2 b2bd
00000120: 7443 9e3f 5eff 98bd 3812 083d aef1 2d3e
00000130: bae4 a6be 09ce 87bf 5b30 033d 64db 85bd
00000140: 0416 b83d 0caf b2bd 7c4f 7dbe f56c 053e
00000150: 6858 dcbe 64bd 293e b60e 6b3d 2640 38bf
00000160: 846e 97bd 8606 7e3d 0c24 a53e c3cb c3bb
00000170: 58ff 583e eb60 603f 0fb3 bebe 8e1a 10bf
00000180: 4c61 e2bd 994b 2cbe b5a6 c5bd f8a2 82bd
00000190: d370 643f 837b dcbb abf9 203f a4c2 0dbf
000001a0: 21e2 2cbe cc0d 2dbd 76ff 553d 616a 3ebe
000001b0: e29e c9bb 7427 52bd 5c23 62bd da3a 863e
000001c0: b45e 81bf 1fc5 953d be04 a23d 90a8 98bf
000001d0: f2c0 0bbe 6354 d0be f3c6 21be c859 373f
000001e0: fd4c 76be 2e88 c9bd c032 f33e d91d a1bd
000001f0: ec9e d93f db06 42bf cd5f 80be 0584 32bf
00000200: b8f6 32be 58c3 30be e37b 90be cdc2 0e3f
00000210: 3a34 19ba bf4e 283e 203e d03f 0088 0739
00000220: 0fd9 a93f c18d 9f3c 3985 0b3d ae14 723d
00000230: f3ed aabe 3b04 a7bf 1eef 1fbd 5ec5 0b3e
00000240: d07a 92bd aa27 29be 2912 babe c296 853e
00000250: 3831 ddbe c7a8 273d 2908 373b 6b77 33bf
00000260: 72af 693d 9242 273e 103b 993e fb5c 423c
00000270: d27e b43d 8241 5d3f 43a3 b2be db60 1dbf
00000280: d57d fbbd 23ba 20be f912 0abe b14b 1fbe
00000290: 2307 513f 9cfc eabd a062 233f ee2d dabe
000002a0: ecb0 f8bd 687a bbbd f73f 47bd 00f7 02be
000002b0: a546 49be 68fc 90bc 34e5 0ebe 0a6d 8e3e
000002c0: 0cfd 77bf 2d95 2fb9 cd96 093e c90c 99bf
000002d0: 712e 60be fe71 ccbe f1ce 67be 9dab 2a3f
000002e0: 08b0 89be 3184 35bd b012 ef3e d65c c8bc
000002f0: a8e3 f13f 50df 38bf 6ede 05be 430a 23bf

out.bias f4 [3]
-4.0831614 -3.608466 -4.1994576
00000000: 42a9 82c0 1bf1 66c0 f561 86c0
